ising/Saves/b0.44_l11_f2_d2.pth (torch, 133037 bytes, 24 tensors)

nets.0.0.weight f4 [32, 1, 3]
0	0x3ca1ecff	0.019766329
1	0xbd629eec	-0.05532734
2	0xbebb3883	-0.36566553
3	0xbea8823b	-0.32911858
4	0xbf10b04b	-0.56519
5	0xbdae75c4	-0.08518556
6	0x3e3f1504	0.1866036
7	0xbe7d0b95	-0.2471145
8	0x3e27a800	0.1637268
9	0x3d8962ae	0.06708275
10	0xbded2635	-0.11579553
11	0x3d7232ba	0.059130408
12	0x3e45bd28	0.19310439
13	0x3f0aea1c	0.5426347
14	0x3eff06b6	0.49809808
15	0x3e3c89d9	0.1841196
16	0xbf0ca023	-0.5493185
17	0xbe8574a1	-0.26065543
18	0xbe8280b0	-0.25488806
19	0xbe5e2893	-0.21695165
20	0xbefedda9	-0.49778488
21	0x3e981396	0.29702443
22	0x3ddbf676	0.10740368
23	0x3eec8634	0.4619614
24	0xbf089d3d	-0.53364927
25	0x3f0f6858	0.5601859
26	0x3d37128f	0.044695433
27	0xbf0a314d	-0.5398148
28	0xbeacc009	-0.3374026
29	0x3eb07464	0.344638
30	0xbdc14a51	-0.09438003
31	0x3eaac469	0.33352974
32	0x3ef3fd4c	0.47654188
33	0x3e0a94e4	0.1353336
34	0x3ed9436f	0.4243426
35	0x3ec5d072	0.38635594
36	0xbd4201fd	-0.047365177
37	0xbe80c3d5	-0.25149408
38	0xbd110c00	-0.035411835
39	0xbdcd650d	-0.100290395
40	0xbf1031d0	-0.5632601
41	0x3f02e46d	0.511298
42	0x3f0c6e41	0.54855734
43	0xbe8fae97	-0.2806289
44	0xbf111bcd	-0.56683046
45	0xbdbae4a0	-0.09125638
46	0x3ec886b1	0.3916526
47	0x3eada7c6	0.33917063
48	0xbe2b10b9	-0.16705598
49	0x3ee8f05f	0.4549589
50	0x3f0c4acd	0.54801637
51	0x3e93e720	0.28887272
52	0xbe9b8b46	-0.30379695
53	0xbe92f089	-0.2869914
54	0x3ed1bb74	0.40963328
55	0xbe815974	-0.2526356
56	0x3dce3081	0.10067845
57	0x3d584aa4	0.052805558
58	0xbed8cc69	-0.42343453
59	0xbeb08725	-0.34478107
60	0x3ea3163f	0.3185291
61	0xbe863622	-0.26213175
62	0xbdb43528	-0.08799201
63	0x3d5dc617	0.05414399
64	0xbec2bf57	-0.38036606
65	0xbe5556d3	-0.20833902
66	0x3eb8e2da	0.36110574
67	0xbda2e4f1	-0.07953823
68	0x3e6f604a	0.23376575
69	0x3ef9d729	0.48796967
70	0x3e9172e2	0.2840796
71	0xbedb77ab	-0.42864737
72	0x3ea186e7	0.31548235
73	0x3e7bb70f	0.2458155
74	0xbd9e41e4	-0.077274114
75	0xbf13dfcd	-0.5776337
76	0x3eb9bc3e	0.3627643
77	0xbe14ffc6	-0.14550695
78	0xbe296258	-0.16541421
79	0xbe726d33	-0.23674469
80	0x3e376a8c	0.17911738
81	0x3e8fe305	0.2810289
82	0x3f061f8a	0.52391875
83	0xbe5c0626	-0.2148672
84	0xbf029cb5	-0.51020366
85	0x3e54b3d6	0.20771727
86	0x3eb50f8c	0.35363424
87	0x3eb22c2f	0.34799334
88	0xbe96afcf	-0.29431006
89	0xbe481dec	-0.19542664
90	0xbefc066a	-0.49223644
91	0x3d8fc343	0.07019665
92	0xbea77f0d	-0.3271412
93	0x3e02543a	0.12727442
94	0x3e85c970	0.26130247
95	0x3ed6403e	0.41845888

nets.0.0.bias f4 [32]
0	0xbecf5ff4	-0.40502894
1	0xbe1f204e	-0.15539667
2	0x3e8539d2	0.26020676
3	0xbea202c8	-0.31642747
4	0xbdd91046	-0.10598807
5	0xbd75728c	-0.059923694
6	0x3e9f2aac	0.31087244
7	0xbea88d2d	-0.3292021
8	0x3eee91c1	0.46595576
9	0xbf0b2133	-0.54347533
10	0x3ee52b70	0.44759703
11	0xbe4520a2	-0.1925073
12	0x3f189130	0.5959654
13	0xbd8d3e84	-0.068966895
14	0x3f04e047	0.5190472
15	0xbe178c48	-0.14799607
16	0x3f0776c8	0.5291562
17	0x3e43c675	0.19118674
18	0x3edaded5	0.42748132
19	0xbe8c7dd4	-0.2743975
20	0xbf0479db	-0.51748437
21	0xbbab9b19	-0.005236995
22	0xbf15894b	-0.5841262
23	0xbe172ec3	-0.14763932
24	0xbe120e52	-0.14263275
25	0xbef39ef6	-0.47582215
26	0x3eb11854	0.34588873
27	0xbd9005e8	-0.070323765
28	0x3ef6e25d	0.48219576
29	0xbefb0469	-0.49026802
30	0x3dcb6c60	0.0993278
31	0x3c2b0e06	0.010440355

nets.0.2.weight f4 [32, 32, 1]
0	0xbcce9142	-0.025215749
1	0x3e18a264	0.14905697
2	0xbe1d4766	-0.15359268
3	0xbdcf4427	-0.10120421
4	0xbd59099d	-0.052987684
5	0x3da31109	0.079622336
6	0xbdc1556a	-0.094401196
7	0x3bc16ac4	0.00590262
8	0xbdf45c46	-0.11931662
9	0x3e3b1373	0.18269138
10	0x3c96d46f	0.018411843
11	0xbe12f6a4	-0.14351898
12	0x3d004cec	0.03132336
13	0x3dc4e5c3	0.09614136
14	0x3b88bce4	0.004172908
15	0xbc121d68	-0.008918144
16	0x3e37924c	0.17926902
17	0xbe0cec1c	-0.13761944
18	0xbdf7d6b8	-0.12101501
19	0xbd87e7bf	-0.06635999
20	0xbe031019	-0.1279911
21	0xbde28df2	-0.1106223
22	0xbcceed4f	-0.025259642
23	0xbcdedcc5	-0.02720488
24	0xbc7cbcb1	-0.015425847
25	0xbe00a52a	-0.12563005
26	0xbdceb816	-0.10093705
27	0x3dc2aa39	0.09505124
28	0xbdd1cc8b	-0.102440916
29	0xbd5653ff	-0.0523262
30	0x3d375fd6	0.04476913
31	0x3bb71599	0.0055872914
32	0xbdb0e659	-0.08637685
33	0xbcedae78	-0.029013857
34	0x3d49d12b	0.049271744
35	0xbcc675fd	-0.024226183
36	0xbdab448c	-0.08362684
37	0xbabd1c94	-0.0014428073
38	0x3a1ad4ff	0.00059063727
39	0xbd867425	-0.065651216
40	0x3e1d01ea	0.15332761
41	0x3e2a3b20	0.16624117
42	0x3dbbfe66	0.09179382
43	0xbe18f042	-0.14935401
44	0x3e076a62	0.13224176
45	0x3e2e0766	0.1699501
46	0x3cec8626	0.02887256
47	0x3e274d6f	0.16338132
48	0xbd90c839	-0.070694394
49	0x3b9784f5	0.004624004
50	0x3dc5c67f	0.09657001
51	0xbe448bdd	-0.19193979
52	0xbdb8cc39	-0.090233274
53	0xbc2f5c66	-0.010703182
54	0xbd346a7f	-0.044046875
55	0x3d0f5d49	0.035001073
56	0x3d1b4f80	0.037917614
57	0x3d03f330	0.032214344
58	0xbca44a25	-0.020054886
59	0xbda164d3	-0.07880559
60	0x3e240916	0.16019091
61	0xbd6e8d4f	-0.05824023
62	0x3db28d52	0.08718361
63	0xbd1a46c1	-0.037665132
64	0xbdb70ccd	-0.089379884
65	0xbe2f548d	-0.17122097
66	0xbe164ce8	-0.14677775
67	0xbd72a9f8	-0.059244126
68	0x3db9bd36	0.09069292
69	0x3db50aa6	0.08839922
70	0x3d0c5274	0.03425832
71	0x3e0e3dbf	0.13890742
72	0x3e204256	0.15650305
73	0x3daacc9f	0.083398096
74	0x3cfcdb46	0.030866276
75	0xbe37e52e	-0.17958519
76	0xbe002b60	-0.12516546
77	0x3dcd925d	0.10037682
78	0x3c1481d2	0.009064155
79	0xba9ab953	-0.0011804498
80	0xbe044a98	-0.1291908
81	0x3de3e192	0.111270085
82	0xbe15c8eb	-0.14627425
83	0xbda16574	-0.07880679
84	0x3deeff0d	0.11669741
85	0x3e0e4262	0.1389251
86	0x3c93fcf4	0.018064953
87	0xbdbdaa1b	-0.09260961
88	0xbdf7d28e	-0.12100707
89	0x3d873fe6	0.066039845
90	0xbe490fb7	-0.19634901
91	0xbe1a0878	-0.15042293
92	0x3d222832	0.039589114
93	0x3e13f720	0.1444974
94	0xbe033f58	-0.12817132
95	0xbe3bd5df	-0.18343304
96	0x3c40bca0	0.011763722
97	0x3e12367f	0.14278601
98	0xbe053330	-0.13007808
99	0xbdc7e5f7	-0.09760659
100	0x3e314c49	0.17314257
101	0x3e3f9e90	0.1871283
102	0xbb9d5f4a	-0.004802619
103	0xbd395a1a	-0.045251943
104	0x3e043a34	0.12912828
105	0x3cb06fa8	0.021537617
106	0xbe08890c	-0.13333529
107	0x3cf75bea	0.030195195
108	0xbc5a6494	-0.013329644
109	0x3dd76825	0.10517911
110	0x3e41166c	0.1885621
111	0xbe17b7fe	-0.14816281
112	0x3df9b784	0.12193206
113	0x3e37d911	0.17953898
114	0x3ce3ee43	0.027823573
115	0xbdd1fe1b	-0.10253545
116	0xbe43ec78	-0.19133174
117	0x3e0edd81	0.13951685
118	0xbe4803c6	-0.1953269
119	0xbe09eebc	-0.13469976
120	0x3e176f22	0.14788488
121	0x3da0b638	0.078472555
122	0xbd985bbd	-0.07439373
123	0xbdffd8fb	-0.124925576
124	0x3d775ec6	0.060393117
125	0xbdcc266f	-0.09968268
126	0x3e3c3085	0.18377884
127	0xbdbd16fa	-0.09232898
128	0xbbf8a110	-0.0075875595
129	0xbdb62a54	-0.08894792
130	0x3ddd92e2	0.10819031
131	0xbd78f824	-0.06078352
132	0x3d2dd067	0.042435076
133	0xbccd0732	-0.025027845
134	0x3de4cc9b	0.11171838
135	0x3e02be56	0.1276792
136	0x3cd6b69c	0.026210122
137	0xbd23f5b2	-0.040029235
138	0xbde5da68	-0.11223298
139	0xbc853999	-0.016262816
140	0x3e17e676	0.14834008
141	0xbda4535e	-0.080237135
142	0xbd2a627d	-0.041597832
143	0x3d66c595	0.056340773
144	0x3d0d9494	0.034565523
145	0xbe0f648d	-0.14003201
146	0xbe09f8b0	-0.13473773
147	0xbe1a4c6b	-0.15068214
148	0xbdb4c01a	-0.08825703
149	0x3e01a6ed	0.12661333
150	0x3cb8d79b	0.022563746
151	0x3d9200e0	0.07129073
152	0x3daf4115	0.08557335
153	0x3c9def52	0.019279156
154	0x3da2c530	0.07947767
155	0xbdfd7e00	-0.12377548
156	0x3dc4ce08	0.0960961
157	0xbe17e6c1	-0.1483412
158	0xbd0ba06b	-0.034088533
159	0xbd71f356	-0.059069954
160	0xbd104eea	-0.03523151
161	0x3c77cec2	0.0151249785
162	0xbc429934	-0.011877347
163	0xbd8284a3	-0.06372955
164	0x3dbae0fa	0.09124942
165	0x3e481871	0.19540574
166	0x3e21dfaf	0.15807985
167	0xbdeb9760	-0.11503482
168	0x3e02b1c3	0.12763123
169	0x3d527a85	0.051386375
170	0xbe024689	-0.1272222
171	0xbdb7d50b	-0.089761816
172	0x3e4197ca	0.18905559
173	0xbd4b9a27	-0.049707558
174	0x3d7c14ec	0.06154339
175	0x3db4c959	0.088274665
176	0x3de9453e	0.1139016
177	0x3e1fddf0	0.15612006
178	0x3d9d4d1e	0.076807246
179	0x3e24a247	0.16077529
180	0xbd142d38	-0.036175936
181	0xbd9ddff6	-0.07708733
182	0xbe13cc3d	-0.1443338
183	0xbe0dac3c	-0.13835233
184	0x3dbf23ba	0.09332986
185	0x3e3ac271	0.18238236
186	0xbce8b332	-0.02840576
187	0xbdf7005a	-0.12060614
188	0x3dc83857	0.09776371
189	0x3dfa0091	0.12207139
190	0x3e1b8813	0.15188627
191	0x3e116601	0.14199068
192	0xbceb78d8	-0.028744146
193	0x3dbf53c8	0.09342152
194	0x3dc72081	0.097229965
195	0x3decfed7	0.11572044
196	0xbdd82b9a	-0.10555191
197	0xbe310263	-0.17286067
198	0xbe39c2f9	-0.18140782
199	0x3e0408d8	0.12893999
200	0x3cb22683	0.02174688
201	0x3deb790d	0.11497698
202	0x3e0a6658	0.13515604
203	0xbcce617e	-0.025192972
204	0x3d1c1b63	0.038112056
205	0xbe247b55	-0.16062672
206	0xbe401d68	-0.18761218
207	0x3e2f9161	0.17145301
208	0xbe1327ab	-0.14370601
209	0x3d3e526e	0.04646533
210	0x3d1f992c	0.038964435
211	0x3e061416	0.130936
212	0xbda407da	-0.0800931
213	0xbe356145	-0.17712887
214	0xbdb1b548	-0.08677155
215	0x3d9660eb	0.073427044
216	0xbdfd7138	-0.123751104
217	0xbdd20128	-0.10254127
218	0xbd8373d0	-0.06418574
219	0x3d609b56	0.05483564
220	0xbe3e71ba	-0.1859807
221	0x3d2348b1	0.039864246
222	0xbb82e335	-0.0039943703
223	0x3ce76885	0.028248081
224	0xbdd98097	-0.1062023
225	0xbddc1664	-0.10746458
226	0xbc9e514d	-0.019325877
227	0x3daa302d	0.0830997
228	0xbe217677	-0.15767847
229	0x3c90cf43	0.017676955
230	0x3cfcf13e	0.030876752
231	0xbe2bcf42	-0.16778281
232	0xbe1ae393	-0.15125875
233	0xbdbead99	-0.09310455
234	0x3e0e6326	0.1390501
235	0xbdfa4413	-0.122200154
236	0x3dff0c18	0.124534786
237	0xb91cdaae	-0.00014958784
238	0xbde0c430	-0.1097492
239	0xbdb5a9e4	-0.08870295
240	0xbda11ce2	-0.07866837
241	0xbe128bd9	-0.1431116
242	0xbe2fc30c	-0.17164248
243	0x3db8e0b2	0.09027232
244	0x3d08f56b	0.033437174
245	0xbce23aed	-0.027615989
246	0x3d6e7955	0.05822118
247	0x3e09283a	0.13394251
248	0xbca5530b	-0.0201812
249	0x3d921e67	0.07134705
250	0xbdf1fdf3	-0.11816015
251	0xbe389745	-0.18026455
252	0xbd9f2947	-0.07771545
253	0xbc005b73	-0.007834303
254	0x3caf4662	0.021395866
255	0xbd9bdae9	-0.07610113

nets.0.2.bias f4 [32]
0	0x3e08a19d	0.133429
1	0xbdd885d1	-0.105723985
2	0xbe35e60b	-0.17763536
3	0x3e48259a	0.19545594
4	0xbe3b6aff	-0.18302535
5	0xbda5c11d	-0.08093474
6	0xbd8c61f5	-0.06854621
7	0xbc9c8883	-0.019108063
8	0x3cd8c793	0.026462352
9	0xbe2b492e	-0.16727135
10	0x3c98a4df	0.018633304
11	0x3df8135b	0.12113067
12	0x3e187a68	0.14890444
13	0xbcc55a15	-0.024090806
14	0x3e2434d2	0.16035774
15	0xbd39699d	-0.045266736
16	0xbcb4e97a	-0.022083987
17	0xbdff4d89	-0.124659605
18	0xbe1a8af4	-0.15092069
19	0x3e3f4327	0.1867796
20	0x3c853ecf	0.016265301
21	0x3d454a54	0.048166588
22	0xbe45643d	-0.19276519
23	0xbd3b5579	-0.04573581
24	0x3d5f74d2	0.054554768
25	0xbdbbbbef	-0.09166705
26	0xbe3174e8	-0.17329752
27	0xbde6374f	-0.11241018
28	0x3d901bc7	0.07036548
29	0xbcc4e2a5	-0.024033854
30	0xbd4bdd8d	-0.049771834
31	0xbdfd15f2	-0.12357701

nets.1.0.weight f4 [32, 32, 5]
0	0xbd1d8d7a	-0.038465
1	0x3d4dd6a6	0.050253533
2	0xbdb82c10	-0.08992779
3	0x3d5a1bef	0.053249296
4	0xbd69d153	-0.057084393
5	0xbcadd353	-0.021218931
6	0x3d9e40c4	0.07727197
7	0x3d17bbb2	0.037044235
8	0xbd1d2ee2	-0.03837479
9	0x3d6c0e41	0.05763078
10	0x3c987c51	0.018613966
11	0xbd27f16b	-0.04100172
12	0x3cc7a7de	0.024372038
13	0xbd492da3	-0.04911579
14	0x3d20c315	0.039248545
15	0xbc996537	-0.01872502
16	0xbd5cac0d	-0.053875018
17	0xbcf7c079	-0.030243145
18	0x3dc912f9	0.09818072
19	0x3d9f25da	0.077708915
20	0xbd30c0ea	-0.043152727
21	0x3c8256bd	0.0159105
22	0x3d833597	0.06406706
23	0xbd0f7921	-0.035027627
24	0xbb767224	-0.0037604654
25	0x3d2d776f	0.04235023
26	0xbd5cc493	-0.053898405
27	0x3d0cff2e	0.034423046
28	0xbc714e9a	-0.014728213
29	0xbd5ee147	-0.05441406
30	0xbd0c644b	-0.034275334
31	0xbd7b8960	-0.061410308
32	0x3d4c5ce1	0.049893264
33	0xbd850a7b	-0.064961396
34	0x3cf02d59	0.029318498
35	0xbcc70bae	-0.024297561
36	0x3ad93b0a	0.0016573381
37	0xbd4c5dc3	-0.049894106
38	0x3cf5a8fb	0.029987803
39	0xbd127725	-0.035758156
40	0xbbe06b55	-0.0068487325
41	0xbd34363b	-0.04399703
42	0xbd0802ce	-0.0332058
43	0x3c609da0	0.013709456
44	0x3c62d2cc	0.013844203
45	0xbcb3fd18	-0.02197127
46	0xbccabf03	-0.024749285
47	0x3cf2c36e	0.029634204
48	0x3ce11ca4	0.027479477
49	0x3c5059bc	0.012716707
50	0xbca2f04e	-0.019889977
51	0x3d945a59	0.07243795
52	0x3d14e769	0.036353502
53	0x3d862042	0.065491214
54	0x3d89fb21	0.06737352
55	0xbcbc8dbf	-0.023016809
56	0x3d83258c	0.06403646
57	0x3d644188	0.055726558
58	0xbd54b1a0	-0.05192721
59	0x3ccb23a5	0.02479727
60	0x3d5a7151	0.053330723
61	0x3da645e6	0.08118801
62	0x3d86100b	0.06546029
63	0xbaa00dd1	-0.0012211149
64	0xbd1c9eec	-0.038237497
65	0xbda88784	-0.082289726
66	0x3d303f75	0.043029267
67	0x3d3f6e13	0.046735834
68	0xbd88d501	-0.06681252
69	0xbdb4f513	-0.08835807
70	0x3dab50f9	0.08365054
71	0x3befc411	0.007317074
72	0x3cea11c0	0.028572917
73	0x3bd21fe3	0.0064124926
74	0x3d61c558	0.055119842
75	0x3ce84b22	0.028356139
76	0x3d93ceb6	0.07217161
77	0x3ce6f9e0	0.028195322
78	0x3dc0096c	0.09376797
79	0xbba23a00	-0.004950762
80	0xbaf0a846	-0.0018360696
81	0x3dac492e	0.084123954
82	0x3cf6abbf	0.030111192
83	0x3d3f5628	0.046713024
84	0x3d31c258	0.04339823
85	0xbcc8b657	-0.024501009
86	0x3c8cbf22	0.017180983
87	0xba134dac	-0.0005619179
88	0xbd8f883c	-0.070084065
89	0xbd237288	-0.039904147
90	0x3c19a7c1	0.009378375
91	0x3d8969e0	0.06709647
92	0xbd0ffe5f	-0.035154697
93	0xbd15de60	-0.036589026
94	0x3cd4af33	0.025962448
95	0x3db18162	0.08667256
96	0x3ce4deb2	0.02793822
97	0x3da9b342	0.08286144
98	0xbcc8781e	-0.024471339
99	0xbcd1717a	-0.025566805
100	0x3da36299	0.079777904
101	0x3d423a5f	0.04741895
102	0x3d83ca59	0.06435079
103	0xbd5950f4	-0.05305572
104	0x3dcac04b	0.09899958
105	0x3b55db28	0.0032631848
106	0x3d162e22	0.03666509
107	0x3dc7f36e	0.097632274
108	0x3db26639	0.08710904
109	0x3b5b4bae	0.0033461857
110	0xbdc301f1	-0.09521855
111	0xbd09874a	-0.033576287
112	0x3d59d79d	0.05318414
113	0xbd99d716	-0.075117275
114	0xbdc83f53	-0.09777703
115	0x3d4d68c5	0.050148744
116	0x3db4c244	0.08826116
117	0xbad609a1	-0.0016329774
118	0xbb354af0	-0.0027663074
119	0xbd3da5a9	-0.046300564
120	0xbb84525f	-0.0040381397
121	0x3bd401b3	0.006469929
122	0x3d6e3583	0.0581565
123	0x3dc707d5	0.09718291
124	0xbd53a6ea	-0.051672854
125	0xbd136cca	-0.03599242
126	0xbd463180	-0.04838705
127	0x3cd4d551	0.025980623
128	0x3dc1a58e	0.09455405
129	0xbd36e706	-0.044653915
130	0xbda5ecc5	-0.08101801
131	0xbd66e801	-0.0563736
132	0x3c7df479	0.015500181
133	0xbdb51099	-0.088410564
134	0xbdb33285	-0.0874987
135	0x3d4439c0	0.047906637
136	0x3d70eef5	0.058821637
137	0x3dc28e2c	0.094997734
138	0xbce6bd1d	-0.028166348
139	0x3c2b0aa8	0.010439552
140	0x3d33ea61	0.043924693
141	0xbd3401ee	-0.043947153
142	0xbd132216	-0.03592118
143	0x3d8e186d	0.069382526
144	0x3dbcc443	0.092171215
145	0x3d896752	0.0670916
146	0xbd005327	-0.0313293
147	0xbc987638	-0.018611059
148	0x3dc72a78	0.09724897
149	0x3d24fd34	0.040280536
150	0xbdb1af4e	-0.08676015
151	0xbdc30afc	-0.095235795
152	0xbc0aca91	-0.008471147
153	0x3ce422a0	0.027848542
154	0x3d5113a2	0.051044114
155	0xbd4209ac	-0.047372505
156	0xbc100224	-0.008789573
157	0xbbb7a979	-0.0056049195
158	0xbcc96618	-0.024584815
159	0x3d9faba4	0.0779641
160	0xbc86e6a8	-0.016467407
161	0xbd05143f	-0.03249001
162	0xbc41a956	-0.011820158
163	0xbd1101dc	-0.035402164
164	0x3c6624da	0.014046872
165	0xbbd08d9b	-0.006364537
166	0xbd978c78	-0.07399839
167	0x3cda5bd7	0.02665512
168	0x3d09ffc2	0.033691175
169	0xbdb828e2	-0.08992173
170	0xbd4ae09f	-0.04953062
171	0x3ca3e973	0.020008778
172	0xbaa0f80a	-0.0012280953
173	0x3d8cf54d	0.06882725
174	0xbc0b45d1	-0.008500532
175	0x3c3c5a66	0.011496162
176	0xbd1f2cbd	-0.038861025
177	0xbba3620e	-0.0049860543
178	0xbdc65757	-0.096846275
179	0x3cab96ff	0.020946024
180	0x3b4b3075	0.0031004224
181	0xbd8d4ae1	-0.06899048
182	0xbd9951a5	-0.074862756
183	0x3d4016f1	0.04689688
184	0x3d6aa8dd	0.057289947
185	0xbd916831	-0.07099951
186	0xbdaec6e5	-0.0853403
187	0xbda54fd8	-0.080718696
188	0x3ad7b4dd	0.00164571
189	0xbd090467	-0.033451464
190	0xbcd48344	-0.025941499
191	0xbd1e2e01	-0.03861809
192	0xbc7a9349	-0.015293905
193	0x3cc47554	0.023981728
194	0x3d86f5bb	0.06589838
195	0x3dc0f57b	0.09421822
196	0x3d19b77e	0.037528507
197	0xbb2b3a37	-0.0026127228
198	0xbcdd60c4	-0.02702368
199	0x3d886c83	0.06661322
200	0x3cd68155	0.026184717
201	0xbda1f643	-0.07908299
202	0xbce3fc40	-0.027830243
203	0xbc805357	-0.01566474
204	0x3ca32b1c	0.019918017
205	0xbcf7f829	-0.0302697
206	0xbbebfcf0	-0.0072017834
207	0xbdc811e7	-0.097690396
208	0x3d6cf7b6	0.057853423
209	0x3da82215	0.08209626
210	0x3d4c60b4	0.04989691
211	0xbd7743ca	-0.060367383
212	0xbca65fb5	-0.020309309
213	0xbdc3174e	-0.095259294
214	0x3d5ee605	0.054418582
215	0x3cf7a9b6	0.030232292
216	0xbd9098fa	-0.07060428
217	0xbdbd3738	-0.09239048
218	0xbd9eb14a	-0.07748659
219	0x3b00f655	0.0019678075
220	0xbdadfcfa	-0.08495517
221	0xbd47d0b3	-0.048783015
222	0xbd92d71a	-0.071699336
223	0x3cec2a1f	0.028828679
224	0x3ba55402	0.005045415
225	0x3db33273	0.08749857
226	0x39b40131	0.00034333163
227	0x3d872cd2	0.06600346
228	0x3b5711d0	0.0032817014
229	0xbd350870	-0.0441975
230	0xbdcaa0c4	-0.09893945
231	0x3cabef1d	0.020988042
232	0x3c564c94	0.013079781
233	0x3c203746	0.009778803
234	0x3d244d3f	0.04011273
235	0xbace2c8c	-0.0015729829
236	0xbd92e4dc	-0.07172558
237	0xbcde7c15	-0.027158776
238	0x3cda5cdb	0.026655605
239	0xbc7850a9	-0.01515595
240	0x3cc9b90d	0.024624372
241	0x3d3fd36c	0.046832487
242	0xbd906019	-0.07049579
243	0x3d45238c	0.048129603
244	0x3d6ee869	0.058327112
245	0xbce25acf	-0.027631192
246	0x3d3aa965	0.045571703
247	0x3a591645	0.00082812115
248	0x3be67ba9	0.0070337844
249	0x3bf0ad30	0.0073448643
250	0xbd4d5f3d	-0.050139654
251	0x3d357dae	0.04430931
252	0x3d5a1867	0.05324593
253	0xbcb17366	-0.021661472
254	0x3cf2ca05	0.029637346
255	0xbdbfa2fe	-0.0935726

nets.1.0.bias f4 [32]
0	0xbb791ff2	-0.0038013426
1	0x3cc18e69	0.023627477
2	0xbd1f0a6a	-0.03882829
3	0xbce83908	-0.028347507
4	0xbcbb3e24	-0.02285678
5	0x3da1f37f	0.07907771
6	0xbc7c3af7	-0.015394918
7	0x3ca9dbd7	0.02073471
8	0x3d6908cf	0.056893166
9	0xbd2fefd1	-0.042953316
10	0x3db1663b	0.08662077
11	0xbda18b5a	-0.07887907
12	0x3cbc4b2b	0.022985062
13	0x3d3e6c80	0.046490192
14	0xbd6bef76	-0.057601415
15	0xbd7cf018	-0.06175241
16	0xbc73d853	-0.014883119
17	0xbc86a02c	-0.016433798
18	0x3bd53d66	0.0065075634
19	0x3c9a2a75	0.018819073
20	0xbd88cfc3	-0.066802524
21	0x3cef0d6a	0.029181201
22	0xbc883329	-0.016625958
23	0xbd22eeb5	-0.03977843
24	0xbd588e94	-0.052870348
25	0x3c27a6dd	0.010232654
26	0xbb6c484a	-0.003605383
27	0x3d31a261	0.043367747
28	0x3dc1cc61	0.0946281
29	0xbc8203b3	-0.015870905
30	0x3d913a94	0.07091251
31	0xbd2b256d	-0.04178374

nets.1.2.weight f4 [32, 32, 1]
0	0x3e1a0d8d	0.15044232
1	0x3e3b63ae	0.18299744
2	0xbe003000	-0.1251831
3	0xbded5aa4	-0.11589554
4	0x3d57a90f	0.05265146
5	0x3d9d9288	0.07693964
6	0xbd41b6a1	-0.04729331
7	0x3de6e674	0.11274424
8	0xbd49cd9c	-0.04926835
9	0xbe04ec96	-0.12980875
10	0xbda45b4d	-0.08025227
11	0xbda66009	-0.08123786
12	0xbe389aed	-0.1802785
13	0x3dca7fc1	0.098876484
14	0xbc57c4b3	-0.013169455
15	0xbdab4b20	-0.08363938
16	0x3e072aa6	0.13199863
17	0x3d89ba9f	0.06725048
18	0x3d65d493	0.05611093
19	0x3e18d6e7	0.14925729
20	0x3c1ae4bb	0.009453948
21	0xba01686e	-0.00049365207
22	0xbc4699bc	-0.012121614
23	0x3dc3437e	0.095343575
24	0xbdba9d57	-0.091120414
25	0x3dcc01a4	0.099612504
26	0xbe1ac990	-0.15115952
27	0xbe16645a	-0.14686719
28	0x3c621fa4	0.013801489
29	0x3d8722cb	0.06598433
30	0x3dabda58	0.08391255
31	0x3dc9fbff	0.098625176
32	0x3e30113d	0.17194076
33	0xbdb24dd7	-0.08706253
34	0xbe086961	-0.13321449
35	0xbd8c3841	-0.06846667
36	0xbe059694	-0.13045722
37	0x3dbb2ece	0.09139787
38	0x3da4b3cd	0.08042107
39	0xbd80f27a	-0.06296249
40	0x391fe761	0.00015249617
41	0x3d8ed5f4	0.06974402
42	0x3e364099	0.1779808
43	0x3e4658d0	0.19369817
44	0xbe256c09	-0.16154493
45	0xbddd379d	-0.10801623
46	0x3d8c078e	0.068373784
47	0x3d854853	0.065079354
48	0xbde9a08f	-0.11407577
49	0xbd8356f2	-0.06413068
50	0x3e06e5bf	0.13173579
51	0xbe1fc893	-0.15603857
52	0xbd8bc5b6	-0.0682482
53	0x3ce39e44	0.027785428
54	0x3dbccf5a	0.09219237
55	0xbe2016c9	-0.15633692
56	0x3e46759d	0.19380803
57	0xbdc17014	-0.09445205
58	0xbc99dd6a	-0.018782336
59	0xbcc23aad	-0.02370962
60	0xbe276c46	-0.16349897
61	0x3cab686f	0.020923821
62	0x3d88022a	0.06641038
63	0x3deb4f31	0.11489714
64	0xbc987713	-0.018611467
65	0x3de347fb	0.110977136
66	0x3e111a6e	0.14170238
67	0xbdae02ec	-0.08496651
68	0x3e097a39	0.1342553
69	0xbb7b2a44	-0.0038324753
70	0xbd9b08ea	-0.075700596
71	0xbe43be57	-0.19115578
72	0x3cab9dcd	0.020949269
73	0x3af389f9	0.0018580548
74	0x3df16e9c	0.11788675
75	0x3c6e9bb7	0.0145634925
76	0xbd2e5fb8	-0.042571753
77	0x3b0091ae	0.0019618082
78	0x3d0a0341	0.03369451
79	0x3d8161a2	0.0631745
80	0xbc94bc22	-0.018156115
81	0x3e32540e	0.17414877
82	0xbb70f6ce	-0.00367682
83	0x3dd4969c	0.10380289
84	0x3de43276	0.11142437
85	0x3dd97231	0.106174834
86	0xbd7a4590	-0.061101496
87	0x3e168ba7	0.1470171
88	0x3e0c954b	0.13728826
89	0xbdc1bfe9	-0.09460432
90	0x3da28982	0.07936384
91	0x3e08295e	0.1329703
92	0xbe2664fc	-0.1624946
93	0x3c2b90d7	0.010471544
94	0xbcea723a	-0.02861892
95	0xbe0af58f	-0.13570236
96	0x3d967d0e	0.07348071
97	0xbe08163d	-0.13289733
98	0x3cc2270b	0.023700258
99	0x3dae7fd7	0.08520477
100	0x3e2c8df8	0.16851032
101	0x3d4afc3f	0.049556967
102	0xbd0a4086	-0.03375294
103	0xbe120076	-0.14257988
104	0xbdde475d	-0.10853455
105	0xbdfdf632	-0.12400474
106	0xbd6bd058	-0.05757174
107	0x3d3b9f06	0.045805953
108	0xbe056242	-0.13025764
109	0x3beec22c	0.0072863307
110	0x3d0f492f	0.034981903
111	0x3d00d52f	0.031453308
112	0xbcef69e0	-0.02922529
113	0xbcc80f9d	-0.024421507
114	0x3b29100b	0.0025796916
115	0x3d9d8af7	0.07692521
116	0x3dda8c21	0.10671259
117	0xbd5da69e	-0.054113977
118	0x3e1d0bae	0.15336487
119	0xbd7601f8	-0.06006047
120	0xbe093400	-0.13398743
121	0x3df0e161	0.117617376
122	0x3e1b834d	0.15186806
123	0x3c71467f	0.01472628
124	0x3e1f18ec	0.1553685
125	0x3dbfdfe1	0.093688734
126	0x3e47c12a	0.1950728
127	0xbddb905e	-0.10720895
128	0xbe3df8ec	-0.18551987
129	0xbbd5771b	-0.0065144426
130	0x3d0c3d74	0.034238294
131	0xbe48e2b8	-0.19617736
132	0xbdbdddb1	-0.092708
133	0xbdffa0f0	-0.12481868
134	0xbdd2406e	-0.10266195
135	0x3e1abedc	0.1511187
136	0x3d80a2c6	0.062810466
137	0xbda4e2f5	-0.08051101
138	0xbe1b56dc	-0.15169853
139	0x3d82f43b	0.063942395
140	0x3d3ec85b	0.046577793
141	0xbde08b86	-0.10964112
142	0xbdae429c	-0.085087985
143	0x3dfa4d88	0.12221819
144	0xb998eb31	-0.0002916693
145	0x3d10ee52	0.03538353
146	0xbda758a2	-0.08171202
147	0xbd95fc68	-0.07323533
148	0x3d89ccd2	0.067285195
149	0x3d170508	0.036870033
150	0x3d835149	0.06411988
151	0xbe30712a	-0.17230669
152	0xbd094a79	-0.03351829
153	0xbd87b91f	-0.06627106
154	0xbe28838c	-0.16456431
155	0xbe30d407	-0.17268382
156	0xbd966c69	-0.07344896
157	0xbd9e13fe	-0.07718657
158	0xbe2965ca	-0.16542736
159	0xbde6bbd7	-0.11266296
160	0xbdf27d06	-0.118402526
161	0xbd637550	-0.0555318
162	0xbe1eba9c	-0.15500873
163	0xbce79a0b	-0.028271696
164	0xbe093875	-0.13400443
165	0x3da3cd36	0.07998125
166	0xbd3577aa	-0.044303574
167	0xbe16ff4a	-0.14745823
168	0xbdae328b	-0.08505734
169	0x3d412e90	0.047163546
170	0x3d488c89	0.04896215
171	0xbd43dcba	-0.047817923
172	0x3e0a9957	0.13535057
173	0xbe1e0357	-0.15430962
174	0x3e1fb450	0.15596128
175	0xbe1d7ce6	-0.15379676
176	0xbcb47774	-0.022029616
177	0xbe35318d	-0.17694683
178	0xbcdd11ca	-0.026986022
179	0xbd8a48c2	-0.06752159
180	0xbdcd3410	-0.10019696
181	0x3c2cd782	0.010549428
182	0x3b293e08	0.0025824327
183	0xbdf3951d	-0.118936755
184	0x3dc0f8ca	0.09422453
185	0x3e31ee9e	0.17376181
186	0x3e0597e8	0.13046229
187	0x3dec87d0	0.11549342
188	0x3dc33bfe	0.09532927
189	0x3e2cd081	0.16876413
190	0x3e2d0a67	0.168985
191	0xbdc83b5b	-0.09776946
192	0x3df8f563	0.12156179
193	0x3c3652d1	0.011128143
194	0x3e22a1c5	0.15882023
195	0xbe33a4b5	-0.175433
196	0x3d3e6da1	0.04649127
197	0x3b992d75	0.0046746084
198	0xbd91980e	-0.0710908
199	0x3e16602c	0.14685124
200	0x3d666698	0.056250185
201	0x3dc31235	0.09524957
202	0x3c8c34cd	0.017115021
203	0xbd240587	-0.040044334
204	0xbde5702c	-0.11203036
205	0x3c8acdbf	0.01694381
206	0x3dbd1169	0.09231836
207	0x3cb18172	0.02166817
208	0x3be0b664	0.00685768
209	0xbe004cca	-0.12529293
210	0x3dd9b300	0.10629845
211	0x3d0e3aa3	0.03472389
212	0x3df04b58	0.11733121
213	0x3e1deffd	0.1542358
214	0xbe1e2cfb	-0.15446846
215	0x3e0c649f	0.13710259
216	0x3bd08ea1	0.006364659
217	0x3dfc95c6	0.123332545
218	0x3e079543	0.13240533
219	0xbc229033	-0.009922075
220	0x3d995fd0	0.07488978
221	0xbe3141c7	-0.17310248
222	0xbdb6f73e	-0.089338765
223	0x3e18a1f6	0.14905533
224	0xbe3ebd82	-0.18626979
225	0xbe39e981	-0.18155481
226	0xbdf4c36d	-0.11951337
227	0xbd0989f8	-0.033578843
228	0xbdfde0d6	-0.123964
229	0xbe06c226	-0.13159999
230	0xbc6e0e4a	-0.014529774
231	0xbd8b1e9e	-0.06792949
232	0xbe2caccd	-0.16862793
233	0x3b691566	0.0035565733
234	0xbe1cb4cd	-0.15303345
235	0x3e154a55	0.14579137
236	0x3d8fc869	0.07020647
237	0x3e1bf7ac	0.15231198
238	0x3e40f005	0.1884156
239	0x3d8b9fe4	0.06817606
240	0x3e1788c6	0.14798269
241	0xbc78d28c	-0.015186917
242	0xbdb3acf8	-0.087732255
243	0xbdf888db	-0.12135478
244	0xbd4d78ed	-0.050164152
245	0xbb8c0f88	-0.0042743124
246	0x3e06cc22	0.13163808
247	0x3da888a5	0.08229188
248	0xbdaf1323	-0.08548572
249	0x3d1b7f02	0.03796292
250	0xbd778bfb	-0.06043623
251	0x3dcbb12a	0.09945901
252	0x3e3c5f48	0.18395722
253	0xbcf4da78	-0.02988933
254	0xbb03db00	-0.0020119548
255	0x3bc2bc82	0.005942882

nets.1.2.bias f4 [32]
0	0x3dcd9b31	0.10039366
1	0xbdb73ffe	-0.089477524
2	0x3d64e449	0.055881772
3	0xbe0c7633	-0.13716964
4	0x3e0a1ce9	0.13487591
5	0x3e18a61b	0.14907114
6	0x3e17c0f2	0.14819697
7	0x3e157187	0.14594088
8	0x3dd74cd6	0.10512702
9	0xbe0674f6	-0.13130555
10	0xbdb2cf07	-0.087308936
11	0xbd353998	-0.04424438
12	0x3cf38687	0.029727234
13	0x3e02d303	0.12775807
14	0x3dd07e0b	0.10180291
15	0xbc5f73a3	-0.01363841
16	0x3d6d014a	0.057862557
17	0x3e072e7e	0.13201329
18	0x3d968471	0.0734948
19	0x3df24758	0.11830014
20	0x3dc80b89	0.09767825
21	0xbe40d2ed	-0.18830462
22	0x3e0b3199	0.13593139
23	0xbe1cba01	-0.1530533
24	0xbe1cae26	-0.15300807
25	0x3e17cc51	0.14824034
26	0xbdb5d189	-0.08877856
27	0x3d5fe33b	0.054660063
28	0xbd72687b	-0.05918167
29	0x3d5396d1	0.0516575
30	0x3d3b47d2	0.04572279
31	0x3cc18065	0.023620794

nets.2.0.weight f4 [32, 32, 5]
0	0xbd6e4f4f	-0.058181103
1	0x3d627a64	0.055292502
2	0xbcd85ffd	-0.026412958
3	0x3caf6eb8	0.0214151
4	0x3bb3583d	0.0054731653
5	0xbdc55753	-0.096357964
6	0x3d04e854	0.032448128
7	0x3d08514f	0.033280667
8	0xbc75add3	-0.014995056
9	0x3d48eac7	0.049052026
10	0x3c99d804	0.018779762
11	0xbd975f74	-0.07391253
12	0x3d223815	0.039604265
13	0x3cde202e	0.027114954
14	0xbc250e84	-0.010074262
15	0x3d61d32e	0.055133037
16	0x3d2cdee3	0.04220475
17	0xbd6fe4e8	-0.05856791
18	0x3c9ea4b7	0.019365652
19	0x3d619722	0.055075772
20	0xbc9e836d	-0.019349778
21	0xbc474b59	-0.01216396
22	0xbd344895	-0.044014532
23	0x3c2472be	0.010037122
24	0x3c2827c7	0.01026339
25	0xba464b6c	-0.00075643393
26	0xbd026ce7	-0.03184214
27	0x3d5d8268	0.054079443
28	0x3d3ab463	0.045582186
29	0xbdc073ab	-0.09397062
30	0x3d4299cb	0.04750995
31	0x3c95fd5a	0.018309284
32	0xbdb8fae9	-0.09032232
33	0xbd473141	-0.048630957
34	0xbda66532	-0.0812477
35	0xbd24ce0f	-0.040235575
36	0xbcd2aa84	-0.025716074
37	0x3b916fff	0.0044384
38	0xbd421060	-0.047378898
39	0xbdc4262d	-0.09577594
40	0x3cf75979	0.030194031
41	0xbca261e3	-0.019822067
42	0xbd1092a5	-0.0352961
43	0xbd9b4714	-0.075819165
44	0xbc80e32b	-0.015733322
45	0x3cd7f36e	0.026361194
46	0xb96d7fae	-0.00022649646
47	0xbd3de9b7	-0.046365466
48	0x3c8fd9d6	0.017559927
49	0xbdb47737	-0.08811801
50	0x3d3787e3	0.044807326
51	0xbd498c16	-0.049205862
52	0x3d12ee7f	0.03587198
53	0x3d16782e	0.036735706
54	0xbce58740	-0.028018594
55	0x3c98caf1	0.018651458
56	0x3c6f9554	0.014623005
57	0x3cbdd829	0.023174362
58	0xbc9436ec	-0.018092595
59	0xbb4a5a70	-0.003087666
60	0x3cab5225	0.020913193
61	0x3cf1bc50	0.02950874
62	0xbdc78870	-0.0974282
63	0xbd919d19	-0.07110042
64	0xbdb257fc	-0.08708188
65	0xbd7423a5	-0.059604306
66	0xbd1944de	-0.037419192
67	0xbd5f5bbd	-0.054530848
68	0x3cfb2c47	0.030660762
69	0xbcd42d64	-0.02590055
70	0x3b87a8a1	0.004139975
71	0x3b933eb1	0.0044935574
72	0xbc9d4c33	-0.019201374
73	0x3977dfb8	0.00023639097
74	0x3ceaa917	0.028645081
75	0xbd99ac7e	-0.075036034
76	0xbdae0a90	-0.084981084
77	0x3ca58565	0.020205209
78	0x3d0ff642	0.03514696
79	0xbca4e14b	-0.02012696
80	0xbd6660cf	-0.056244668
81	0xbd7e1766	-0.062034033
82	0x3d845cbd	0.06463001
83	0xbcfdb0f4	-0.030968167
84	0xbd74d709	-0.059775386
85	0xbc591067	-0.0132485395
86	0xbb2d910c	-0.002648416
87	0xbd9ba747	-0.07600265
88	0xbd837211	-0.06418241
89	0xbc18b5fe	-0.009320734
90	0x3d27e2e8	0.04098788
91	0xbd3394ef	-0.043843206
92	0x3d2bc59b	0.041936498
93	0xbd1a3099	-0.037644003
94	0x3d09335d	0.03349625
95	0x3b0acedc	0.0021180427
96	0x3bf0f233	0.007353091
97	0xbd2150ed	-0.039383817
98	0xbcef3bac	-0.029203258
99	0xbca73cd3	-0.020414745
100	0xbd7b9214	-0.061418608
101	0xbc3394b2	-0.010960745
102	0xbdac793a	-0.0842156
103	0xbd737d2a	-0.059445538
104	0xba8865cc	-0.0010406314
105	0xbdbabc89	-0.091179915
106	0xbd37316a	-0.04472486
107	0x3c891e9c	0.016738228
108	0xbb7d94cf	-0.0038693433
109	0x3d5a3e73	0.053282212
110	0xbcb4aba9	-0.02205451
111	0xbd61d058	-0.055130333
112	0x3a8e04e7	0.0010835201
113	0x3b60b890	0.0034289695
114	0xbd4db4e1	-0.050221328
115	0xbdc2bcc0	-0.095086575
116	0x3d1b8f74	0.037978604
117	0xbcf2c91a	-0.029636908
118	0xbdaa01fc	-0.0830116
119	0xbd882a46	-0.06648688
120	0x3db6850f	0.08912098
121	0xbcc0a360	-0.023515403
122	0xbd65a2e4	-0.056063548
123	0x3cf514d0	0.02991715
124	0xbce995ca	-0.028513808
125	0x3c810181	0.015747787
126	0x3c3f44c0	0.011674106
127	0xbd4db330	-0.050219715
128	0xbd312a43	-0.043253195
129	0x3c87a0fc	0.016556256
130	0x3dc5b272	0.09653176
131	0x3d8b3655	0.067974724
132	0x3d2c3569	0.042043123
133	0xb9bfa8b6	-0.00036556058
134	0xbd68531a	-0.056719877
135	0x3d6773e5	0.05650701
136	0xbb4d0bcc	-0.003128755
137	0x3c818259	0.015809225
138	0xbd987b60	-0.07445407
139	0xbd60051b	-0.05469237
140	0x3c404778	0.0117357895
141	0x3c534f5c	0.012897339
142	0xbc6bc405	-0.014389996
143	0x3d6ddbac	0.058070824
144	0xbc4dc107	-0.012558228
145	0xbca30ba5	-0.019903013
146	0xbdaf4dc9	-0.08559758
147	0x3c246cfe	0.010035751
148	0xbd5a163b	-0.053243857
149	0xbd9318e4	-0.07182482
150	0x3cfdb01d	0.030967766
151	0x3d30d4f2	0.04317183
152	0x3ca7750a	0.02044155
153	0x3c7fa754	0.015603859
154	0xbc9f96d0	-0.019481093
155	0xbd995ef7	-0.07488816
156	0xbdaf4233	-0.085575484
157	0x3c519c73	0.012793648
158	0x3d9a8606	0.07545094
159	0xbd9940e0	-0.07483077
160	0x3bf80a3a	0.0075695785
161	0xbd0abb2f	-0.03386992
162	0x3d455e37	0.048185553
163	0xbd625118	-0.05525312
164	0x3d59ff29	0.053221855
165	0xbd207c85	-0.03918125
166	0xbd7e63f3	-0.062107038
167	0xbdb9c9a6	-0.090716645
168	0xbdc2d1cb	-0.09512671
169	0xbd89a981	-0.067217834
170	0xbd8e25ed	-0.069408275
171	0xbcad5fec	-0.021163903
172	0xbdc93cdf	-0.09826063
173	0x3c8e34b8	0.017359123
174	0xbd1759f3	-0.036951017
175	0x3be3cb38	0.006951716
176	0xbbe3358a	-0.0069338726
177	0xbd8c6edd	-0.06857083
178	0x3c68355c	0.014172878
179	0x3c15d224	0.00914434
180	0xbdbdc25b	-0.09265586
181	0x3c71de6c	0.014762502
182	0x3d48dd78	0.049039334
183	0xbc2f2785	-0.0106905745
184	0xbd65e605	-0.056127567
185	0x3c6e7b44	0.014555756
186	0x3c793c32	0.015212106
187	0x3c75bc8e	0.014998568
188	0x3b437ddf	0.0029829664
189	0xbda60fb5	-0.08108465
190	0xbd632ce8	-0.055462748
191	0xbbe649d5	-0.0070278444
192	0xbd298ab6	-0.04139205
193	0xbcc7b4ce	-0.024378207
194	0xbc791e04	-0.01520491
195	0xbdc14987	-0.09437852
196	0xbdb63c50	-0.088982224
197	0xbd42dc28	-0.04757324
198	0xbd62cbdc	-0.055370197
199	0xbda2c783	-0.0794821
200	0x3ce94297	0.028474135
201	0xbd88c8fd	-0.066789605
202	0xbb4d8156	-0.0031357608
203	0xbd4896a2	-0.04897178
204	0xbc14ca42	-0.009081425
205	0xbbe15971	-0.0068771173
206	0xbc101430	-0.008793876
207	0xbda3dc0e	-0.080009565
208	0xbc96e501	-0.018419744
209	0x3d4cb847	0.049980428
210	0xbc7ea95c	-0.015543308
211	0xbcce5bd0	-0.025190264
212	0x3cfcbe04	0.030852325
213	0xbdbc7f82	-0.09204008
214	0xbd3fd4a7	-0.04683366
215	0xbd9831bb	-0.0743136
216	0x3d5cbfa4	0.0538937
217	0x3caf05f9	0.021365153
218	0x3d42cac8	0.04755667
219	0x3d4630f4	0.04838653
220	0xbdb3f24d	-0.087864496
221	0xbdbb4187	-0.09143358
222	0x3ccc7fdd	0.024963314
223	0x3c8cc1f9	0.017182337
224	0x3d48bbc6	0.0490072
225	0x3cab9429	0.020944672
226	0xbdc1d0a3	-0.094636224
227	0xbd90f6b3	-0.07078304
228	0xbc8e2d14	-0.01735548
229	0x3bda9435	0.0066704997
230	0xbd90f68b	-0.07078274
231	0x3d1fb410	0.03899008
232	0x3d3077a0	0.043082833
233	0x3ccef028	0.025261
234	0x3d317219	0.043321703
235	0x3d489f66	0.04898014
236	0xbc6084bb	-0.01370352
237	0xbc86c4a6	-0.016451191
238	0x3d2be3d5	0.041965324
239	0xbd9ca43f	-0.07648515
240	0xbce6f226	-0.028191637
241	0xbd108ec2	-0.035292394
242	0xbd069c8b	-0.032864135
243	0xba665298	-0.0008786111
244	0xbda2c4af	-0.07947671
245	0x3d543797	0.051810827
246	0x3d0399ac	0.032128975
247	0xbc0b4110	-0.008499399
248	0xbcc3f16e	-0.023918834
249	0x3ce42523	0.02784974
250	0xbb6b7b6e	-0.0035931724
251	0xbd1e851f	-0.038701173
252	0xbcdc2691	-0.026873859
253	0x3d511275	0.051042993
254	0xbd845b98	-0.064627826
255	0x39a7faf6	0.00032039703

nets.2.0.bias f4 [32]
0	0x3d14b33d	0.036303747
1	0xbcdf00a2	-0.027221981
2	0x3db76730	0.08955228
3	0xbd7a5373	-0.06111474
4	0xbda86c87	-0.08223825
5	0xbd03a006	-0.032135032
6	0xbd6df664	-0.058096305
7	0xbd36946e	-0.044575147
8	0xbd00fc97	-0.03149089
9	0xbcb9717c	-0.022637121
10	0xbcbc68cf	-0.022999195
11	0xba65db21	-0.00087683095
12	0x3d272da1	0.040815
13	0xbd66b7e3	-0.05632771
14	0x3daa98dc	0.08329937
15	0x3cbabf6e	0.022796359
16	0xbced484f	-0.028965143
17	0x3da615f6	0.081096575
18	0x3d67c831	0.0565874
19	0xbdb895c3	-0.0901294
20	0xbd86c02c	-0.065796226
21	0xbd271214	-0.040788725
22	0x3d2c5dcb	0.042081635
23	0x3b827777	0.0039815265
24	0xbb24feee	-0.0025176364
25	0xbdba5799	-0.09098739
26	0xbd1b14b2	-0.037861533
27	0xbd047cde	-0.032345645
28	0x3cf953f5	0.030435542
29	0xbca10b18	-0.01965861
30	0x3db452ba	0.08804841
31	0xbcc23644	-0.023707516

nets.2.2.weight f4 [32, 32, 1]
0	0x3e36fb76	0.17869362
1	0x3e0fae20	0.14031267
2	0x3e45fb00	0.1933403
3	0xbd6bd9f3	-0.0575809
4	0xbc90bab0	-0.017667145
5	0x3bbf8efd	0.005845903
6	0xbe3ac71d	-0.18240018
7	0xbe33ef1a	-0.17571679
8	0x3dcd2846	0.10017447
9	0xbc98603d	-0.018600577
10	0xbd11cb51	-0.03559429
11	0xbd60847e	-0.054813854
12	0x3d2c9931	0.042138282
13	0x3e078949	0.13235964
14	0x3e3f4d33	0.18681793
15	0x3e2434fb	0.16035835
16	0x3e20f931	0.15720059
17	0xbcba943c	-0.022775762
18	0x3d69dcd3	0.05709536
19	0xbda6a1f0	-0.08136356
20	0x3e434e0c	0.19072741
21	0x3dbb1214	0.091343075
22	0xbdbf0fb8	-0.0932917
23	0x3db774eb	0.08957847
24	0x3ce89a4a	0.028393883
25	0xbdb17a49	-0.08665902
26	0xbd1ea6c8	-0.038733274
27	0xbd186038	-0.037201136
28	0x3dc9875b	0.0984027
29	0x3de2a39f	0.110663645
30	0x3c80cc2b	0.015722355
31	0x3d9d7b6f	0.07689559
32	0x3dce5c3d	0.10076187
33	0x3dd73898	0.10508841
34	0x3a5adbbf	0.0008348785
35	0x3d57f8b8	0.05272743
36	0xbe1547c4	-0.14578158
37	0x3d05621f	0.03256428
38	0xbd7e601e	-0.062103383
39	0xbd94f646	-0.072735354
40	0x3d1cd198	0.03828582
41	0x3d6b13c5	0.0573919
42	0x3dd1338b	0.10214909
43	0xbcd77e99	-0.026305484
44	0x3c188638	0.009309344
45	0xbe0d413d	-0.13794418
46	0x3d61c30d	0.055117656
47	0x3e1a0540	0.15041065
48	0xbddd295a	-0.10798903
49	0x3e2bba84	0.16770369
50	0x3d928ca0	0.07155728
51	0x3d95d5b0	0.07316148
52	0x3dfb314d	0.12265263
53	0x3d95581d	0.07292197
54	0xbdb35bcf	-0.087577455
55	0x3d371930	0.044701755
56	0xbe0cb9dc	-0.13742775
57	0x3d1a7d82	0.03771735
58	0xbd84d2b3	-0.064855
59	0xbd46e237	-0.04855558
60	0xbe19443b	-0.14967434
61	0x3e10541b	0.14094584
62	0x3daa60d1	0.083192475
63	0xbd52112c	-0.051285908
64	0x3d6b0510	0.057377875
65	0x3dbd863f	0.09254121
66	0x3d0a0692	0.033697672
67	0x3d626370	0.055270612
68	0x3e423017	0.18963657
69	0x3e0915e5	0.13387258
70	0x3df4e2e5	0.11957339
71	0x3d3a1216	0.045427404
72	0xbd8f3ff3	-0.06994619
73	0xbd777547	-0.06041458
74	0xbd2a7ece	-0.041624837
75	0x3d6a348e	0.057179026
76	0x3d24f015	0.040268023
77	0xbdef2666	-0.11677246
78	0xbe06b0ad	-0.13153334
79	0xbde3cdd8	-0.11123246
80	0xbb839a9f	-0.004016235
81	0x3e0e551a	0.13899651
82	0xbe1e4709	-0.15456785
83	0x3e03b4cc	0.12861937
84	0xbc6a380c	-0.014295589
85	0xbdc972a3	-0.09836318
86	0x3d066bc0	0.032817602
87	0xbe37ca80	-0.17948341
88	0x3e3b936a	0.18317953
89	0x3e31da87	0.17368518
90	0xbde29be3	-0.11064889
91	0xbdceee4b	-0.101040445
92	0xbd4a8266	-0.049440764
93	0x3db3f4e2	0.08786942
94	0x3d2eba4a	0.042658128
95	0xbdefce96	-0.11709325
96	0x3e20b97e	0.1569576
97	0xbd7c7333	-0.0616333
98	0xbced70f7	-0.02898453
99	0xbca33a36	-0.019925218
100	0x3ddbef25	0.107389726
101	0x3b49a7ee	0.003077026
102	0xbdcae0fb	-0.09906193
103	0xbe3e7600	-0.18599701
104	0xbcaeee41	-0.021353843
105	0xbd583f91	-0.052794997
106	0x3cae3e63	0.021269983
107	0xbd232b18	-0.03983602
108	0xbd29a710	-0.04141909
109	0xbe25ea34	-0.16202623
110	0xbde4bf6f	-0.111693256
111	0x3e15361e	0.14571425
112	0x3bbc2001	0.00574112
113	0x3d5c4026	0.053772114
114	0xbe38e364	-0.18055493
115	0xbe4809dd	-0.19535013
116	0x3c9ae8f9	0.018909918
117	0x3df5c1cb	0.11999854
118	0xbe046232	-0.12928084
119	0x3d8decdb	0.06929942
120	0x3d9c8d19	0.076441
121	0x3d03250b	0.03201775
122	0xbdb991db	-0.09061023
123	0x3e07c340	0.13258076
124	0x3b441e7c	0.0029925397
125	0x3dec256f	0.115305774
126	0x3e2301ab	0.15918605
127	0xbd99b23c	-0.07504699
128	0x3e14fccd	0.14549561
129	0x3da16b26	0.07881765
130	0x3d999275	0.074986376
131	0x3cc83082	0.024437193
132	0x3da518f9	0.08061404
133	0xbd68e42f	-0.056858238
134	0xbd8f4224	-0.06995037
135	0x3db78398	0.089606464
136	0xb97f4d61	-0.00024347521
137	0xbdab136b	-0.08353313
138	0x3d90d5a8	0.07072002
139	0xbdca0cf7	-0.09865754
140	0x3e0439c0	0.12912655
141	0xbdf09544	-0.1174722
142	0xbe384ada	-0.17997304
143	0xbe37b2db	-0.17939322
144	0xbdaf1007	-0.08547979
145	0x3d493ef1	0.04913229
146	0xbe0b2321	-0.1358762
147	0x3e336eca	0.17522731
148	0x3e06e834	0.13174516
149	0x3db74d83	0.08950331
150	0xbdabff0a	-0.08398254
151	0x3e1274e1	0.14302398
152	0x3db64307	0.08899503
153	0x3e16cb23	0.14725928
154	0x3c9d0f63	0.019172376
155	0xbddb0d11	-0.106958516
156	0xbd0edfbb	-0.034881335
157	0xbddc776c	-0.107649654
158	0xbe3ac3ef	-0.18238805
159	0xbcf32d87	-0.029684795
160	0xbd1d8584	-0.03845741
161	0xbdb823b0	-0.08991182
162	0xbd33925e	-0.04384076
163	0xbbbccdae	-0.0057618236
164	0x3c127096	0.008937975
165	0xbdfde5fc	-0.12397382
166	0xbd0be7e6	-0.034156702
167	0xbcdb85d4	-0.026797213
168	0x3dc038fd	0.0938587
169	0xbd21c8ac	-0.039498016
170	0xbd2ab086	-0.041672252
171	0xbded84e6	-0.11597614
172	0x3d7d3d1a	0.06182585
173	0xbd149d2a	-0.036282696
174	0xbda62e88	-0.08114344
175	0x3e034017	0.12817417
176	0xbdbc2bd0	-0.09188044
177	0xbd4471a6	-0.047959946
178	0x3d938b2f	0.072042815
179	0xbdc0f385	-0.09421448
180	0x3cbde37a	0.023179758
181	0xbcf661c3	-0.030075913
182	0x3c9d271d	0.01918369
183	0x3da03f07	0.078245215
184	0x3db212e5	0.0869501
185	0x3e1164b4	0.14198571
186	0xbd09689b	-0.033547025
187	0xbd8220f2	-0.0635394
188	0x3d5e5648	0.054281503
189	0xbe096f02	-0.13421252
190	0x3e44ecba	0.19230929
191	0xbd9d4a3a	-0.07680173
192	0x3d52713e	0.051377527
193	0x3da489f3	0.08034124
194	0xbd3adc1f	-0.04562008
195	0x3e261360	0.16218328
196	0xbd2f6004	-0.042816177
197	0xbb2d0a06	-0.002640368
198	0xbc415c3b	-0.011801775
199	0xbd918408	-0.07105261
200	0xbd870462	-0.06592633
201	0xbd0dc6c8	-0.0346134
202	0xbdd36091	-0.10321153
203	0x3c7cfc41	0.015441001
204	0x3e1629bd	0.1466436
205	0xbc2365bf	-0.009972989
206	0xbdf5cd93	-0.12002101
207	0x3d986246	0.07440619
208	0xbe407de6	-0.18798026
209	0xbe49562c	-0.19661778
210	0x3cd2ff52	0.025756512
211	0xbde4ab83	-0.11165526
212	0x3d34264c	0.043981835
213	0xbd3ca9c1	-0.046060327
214	0x3e176cbb	0.14787571
215	0x3dfe749d	0.12424586
216	0xbdccdf47	-0.10003524
217	0xbde27711	-0.11057866
218	0x3dbca00a	0.092102125
219	0x3da8c0bd	0.08239887
220	0xbd8bbf1a	-0.06823559
221	0x3dd9c9e1	0.106342085
222	0xbe0bd784	-0.13656431
223	0x3dd72e9b	0.10506936
224	0xbe02a57b	-0.12758438
225	0x3df2eb3c	0.11861274
226	0x3dea50a2	0.11441161
227	0x3e1f0db5	0.15532573
228	0xbd863123	-0.06552341
229	0xbe48828e	-0.19581053
230	0xbe19d9ce	-0.15024492
231	0xbd2db6a3	-0.042410504
232	0x3cd52a9b	0.026021292
233	0xbc3d29eb	-0.011545639
234	0x3db55192	0.08853449
235	0xbd92981d	-0.071579196
236	0xbdebc5d0	-0.11512339
237	0xbe1ec168	-0.15503466
238	0x3ca9c9b5	0.020726064
239	0xbd9b0be3	-0.075706266
240	0x3e0d8a61	0.13822319
241	0xbdf7846c	-0.12085804
242	0xbd36f5fc	-0.044668183
243	0x3d0e1e08	0.03469661
244	0x3dae53a7	0.08512049
245	0xbd499e1d	-0.049223054
246	0x3dd956cf	0.106122606
247	0xbc7bb221	-0.015362293
248	0xbdddfca0	-0.108392
249	0xbe41142d	-0.18855353
250	0x3dd19801	0.102340706
251	0xbdb6c964	-0.08925131
252	0xbdc5169a	-0.096234515
253	0xbd5e22c1	-0.054232363
254	0xbdb58e2f	-0.0886501
255	0x3d62926e	0.055315427

nets.2.2.bias f4 [32]
0	0x3e01bed7	0.12670456
1	0x3e10bb84	0.14134032
2	0xbe0b737e	-0.13618276
3	0xbd19436c	-0.037417814
4	0xbc00cf03	-0.007861855
5	0x3c2df1d3	0.010616737
6	0xbe2cf0b0	-0.1688869
7	0xbdfdad44	-0.123865634
8	0x3ce2c867	0.02768345
9	0xbe43330d	-0.19062443
10	0x3ca26bfc	0.019826882
11	0xbda0380e	-0.078231916
12	0x3a87d661	0.0010363573
13	0x3e0ffb6b	0.14060752
14	0xbd8b0e15	-0.06789795
15	0x3e21f2ba	0.15815249
16	0xbc15fc8c	-0.00915445
17	0x3c229340	0.009922802
18	0xbe097a65	-0.13425596
19	0x3cfdc738	0.030978784
20	0x3c027974	0.007963527
21	0xbce06063	-0.02738971
22	0x3de6e6ee	0.11274515
23	0x3ca1b078	0.019737467
24	0xbdb84d4f	-0.089991204
25	0xbdc9b01d	-0.09848044
26	0x3e05a50b	0.1305124
27	0xbe06e986	-0.1317502
28	0x3d11cea0	0.035597444
29	0xbdc34fa5	-0.09536675
30	0x3dea840e	0.11450969
31	0x3e349f5c	0.17638916

nets.3.0.weight f4 [32, 32, 5]
0	0x3b7aaa50	0.0038248487
1	0xbd459406	-0.04823687
2	0x3d64e89d	0.0558859
3	0x3d0ebbb6	0.034846984
4	0xbdaa6acf	-0.08321153
5	0xbc20e155	-0.009819348
6	0xbc994fca	-0.018714804
7	0xbd7d7791	-0.061881606
8	0xbba75269	-0.0051062596
9	0x3d337feb	0.043823164
10	0xbd8c8c17	-0.068626575
11	0xbd2eabc5	-0.04264428
12	0xbc82405c	-0.01589983
13	0xbdb5fbc8	-0.08885914
14	0xbdc4b11d	-0.09604094
15	0xbdc6bdc8	-0.09704167
16	0x3ccdca51	0.025120886
17	0x3d27c0d6	0.040955387
18	0xbcd22cea	-0.025656182
19	0xbd495afa	-0.049159028
20	0x3d324538	0.043523043
21	0x3c918f8a	0.01776864
22	0x3c5aec46	0.013361996
23	0x3d076304	0.033053413
24	0xbd81fe48	-0.063473284
25	0x3d4d9694	0.05019243
26	0xbc0be951	-0.008539514
27	0xbc9d9cbd	-0.019239778
28	0xbdb129aa	-0.08650525
29	0x3cd662ff	0.026170252
30	0xbcd7c4d6	-0.026338976
31	0xbdc7e8ad	-0.09761176
32	0x3c9b653b	0.018969169
33	0x3be375eb	0.006941547
34	0x3cb145bd	0.0216397
35	0xbcbd0ddf	-0.023077903
36	0x3cfe226d	0.031022275
37	0xbdb75ecf	-0.0895363
38	0xbd80377e	-0.06260584
39	0x3be1519b	0.006876183
40	0x3cce99b5	0.025219778
41	0xbd0de638	-0.03464338
42	0x3d57a89d	0.052651037
43	0x3d373833	0.04473133
44	0x3d231771	0.039817277
45	0xbba69000	-0.005083084
46	0xbd1ce29b	-0.038302045
47	0x3d1bae7e	0.038008206
48	0x3cf9e828	0.030506209
49	0x3d1bc467	0.0380291
50	0xbd0b2c7c	-0.03397797
51	0xbc3781db	-0.011200394
52	0xbbbd58fd	-0.0057784305
53	0xbcfda54d	-0.03096261
54	0xbd4c9a6c	-0.049951956
55	0xbd39b6ac	-0.045340225
56	0xbd9475f9	-0.07249064
57	0xbd71db29	-0.059046898
58	0xbd6d02c4	-0.057863966
59	0x3d22b036	0.03971883
60	0xbcc0b7ab	-0.02352508
61	0x3d0e975b	0.034812313
62	0xbda8fd9d	-0.08251498
63	0x3ce5a646	0.028033387
64	0xbda0b3be	-0.07846783
65	0xbdbf5a54	-0.093434006
66	0xbdb2a7cf	-0.08723413
67	0xbc898c95	-0.016790668
68	0xbdb219a2	-0.08696295
69	0x3d2c6e10	0.04209715
70	0xbdb7a583	-0.08967116
71	0xbd657046	-0.056015275
72	0xbc0a151f	-0.008427887
73	0xbc4e1bc7	-0.012579865
74	0xbdac2f00	-0.08407402
75	0x3cebcef2	0.028785203
76	0x3ca6b4b5	0.02034984
77	0x3cfa2d08	0.03053905
78	0x3d20679e	0.039161317
79	0xbd439761	-0.047751788
80	0xbdbffc07	-0.09374242
81	0xbd4392f4	-0.047747567
82	0x3c9ed183	0.019387012
83	0xbcd41b27	-0.025891853
84	0xbb224ef9	-0.002476631
85	0x3d216036	0.039398395
86	0xbdaa959d	-0.08329318
87	0xbc02d2db	-0.007984842
88	0xbd333620	-0.04375279
89	0xbd5641c6	-0.05230882
90	0xbc71b828	-0.014753379
91	0x3cf538d3	0.029934322
92	0xbd937e05	-0.07201771
93	0xbc3466a7	-0.011010802
94	0x3cdfbd35	0.0273119
95	0x3d1c5dd8	0.038175434
96	0xbd085202	-0.033281334
97	0xba6c2925	-0.00090088166
98	0x3bccba60	0.0062478036
99	0xbc5a5f15	-0.013328333
100	0x3d5dc896	0.05414637
101	0xbd6d6fdf	-0.057968017
102	0xbc8c4553	-0.0171229
103	0xbbba1c8d	-0.005679673
104	0x3d1e7a2c	0.03869073
105	0xbdb3049e	-0.08741115
106	0x3d690790	0.056891978
107	0x3d3ca030	0.046051204
108	0xbd67781d	-0.056511033
109	0x3c0d849c	0.008637574
110	0x3d096a27	0.0335485
111	0xbdb30df6	-0.08742897
112	0xbc6ebd5b	-0.014571513
113	0xbc9a0d17	-0.01880507
114	0x3b7955b8	0.0038045477
115	0xbd74f42c	-0.059803173
116	0xbcd9457c	-0.02652239
117	0x3d650503	0.055912983
118	0x3a2e0b34	0.00066392426
119	0xbc4b8621	-0.012422116
120	0x3d42deb6	0.047575675
121	0xbcedadfa	-0.029013623
122	0xbd37875a	-0.044806816
123	0x3ce73a1e	0.028225955
124	0xbcc86a91	-0.024464877
125	0xbd5bb485	-0.053638954
126	0x3d71bca1	0.05901778
127	0xbdc47a70	-0.095936656
128	0xbd2ca982	-0.042153843
129	0xbd65c564	-0.05609645
130	0xbd7bb120	-0.061448216
131	0xba538b32	-0.0008069753
132	0xbd32a3aa	-0.043613113
133	0x3d470cfa	0.04859636
134	0x3bdfe946	0.0068332283
135	0x3b7bfd92	0.00384507
136	0xbd2f3d39	-0.042782996
137	0x3d5b1e03	0.05349542
138	0xbd88e2ed	-0.06683908
139	0x3c4a52eb	0.012348871
140	0xbd38097c	-0.04493092
141	0xbd56b367	-0.052417185
142	0x3d46bb6e	0.04851859
143	0x3bfe401f	0.0077591087
144	0xbdbd596b	-0.09245571
145	0xbc303f28	-0.010757245
146	0xbc9c4f1d	-0.019080693
147	0xbc13ee61	-0.009029002
148	0x3d251598	0.040303797
149	0xbd94ba10	-0.07262051
150	0xbdaf591d	-0.08561919
151	0xbd760839	-0.060066435
152	0xbbce8c7d	-0.0063033686
153	0xbd02dd91	-0.031949583
154	0xbc957fec	-0.018249474
155	0xbcc6a22a	-0.024247248
156	0x3d56cdcf	0.052442368
157	0xbd4bb293	-0.04973085
158	0xbd2a8063	-0.041626345
159	0xbd9a8784	-0.07545379
160	0xbd3ee59b	-0.046605688
161	0x3cc45ad5	0.023969093
162	0x3b8e172d	0.004336259
163	0xbb11d860	-0.0022254214
164	0x3d5927ea	0.05301658
165	0xbceac365	-0.028657624
166	0x3d2c0dd7	0.042005386
167	0x3d16d176	0.03682085
168	0xbc265d54	-0.010154087
169	0xbd008e88	-0.03138593
170	0xbc45bd44	-0.01206905
171	0xbc8c18f5	-0.017101744
172	0xbcde2a3f	-0.027119754
173	0x3d86678c	0.06562719
174	0xbd1c3e25	-0.038145203
175	0x3d8e65a6	0.06952982
176	0xbd1d1b00	-0.038355827
177	0x3d8b9734	0.06815949
178	0x3d3be308	0.04587081
179	0xbd50f78c	-0.05101733
180	0xbd64f8c0	-0.05590129
181	0xbd042570	-0.032262266
182	0xbd3ee8a5	-0.046608586
183	0x3d2c2472	0.042026944
184	0x3d1d25da	0.038366176
185	0xbd15007b	-0.03637741
186	0x3db01fcb	0.08599814
187	0x3d9df153	0.077120446
188	0x3d0773a7	0.03306928
189	0x3c151916	0.009100219
190	0x3dc9255d	0.098215796
191	0x3d88dbcb	0.06682547
192	0x3d90e0b2	0.07074107
193	0x3d7c1233	0.061540794
194	0xbbd3551f	-0.006449356
195	0x3c0ce67a	0.008599872
196	0x3cfc3dcd	0.030791188
197	0x3d486f0f	0.04893404
198	0xbd62037b	-0.0551791
199	0x3c0fcf6e	0.008777482
200	0x3dad1c98	0.084527194
201	0x3da5826d	0.08081517
202	0x3d10987d	0.035301674
203	0x3c9362c6	0.017991435
204	0x3da522da	0.08063288
205	0x3d15c245	0.036562223
206	0xbc9d80ca	-0.01922645
207	0xbdb02309	-0.086004324
208	0x372472e1	9.801909e-06
209	0xbd66941b	-0.056293588
210	0xbce341ac	-0.027741276
211	0xbca60cb9	-0.020269739
212	0xbc9a4d04	-0.018835552
213	0x3d498776	0.04920145
214	0x3d734674	0.05939336
215	0x3cd2c94a	0.025730748
216	0x3d20e07f	0.039276596
217	0xbcd55228	-0.026040152
218	0x3cf5041b	0.029909184
219	0x3da0cca8	0.07851535
220	0x3c0c80c0	0.008575618
221	0xbcd5aec2	-0.026084308
222	0xbccb5094	-0.024818696
223	0x3d329523	0.04359926
224	0xbb9f8cc0	-0.0048690736
225	0xbc8a6410	-0.016893417
226	0x3c6ae9d4	0.0143379755
227	0x3c435110	0.011921182
228	0x3c9c02df	0.019044338
229	0x3d1cf766	0.038321875
230	0x3d9e285a	0.0772254
231	0xbb817486	-0.0039506583
232	0xbcd8c05d	-0.026458913
233	0xbd38b51e	-0.0450946
234	0xbd50f48f	-0.05101448
235	0x3d4cac07	0.049968746
236	0x3cd04b8e	0.025426652
237	0x3d8bfe55	0.06835619
238	0x3da3c0c7	0.07995754
239	0xbafa2a2d	-0.0019086056
240	0x3bf796ec	0.007555833
241	0xbcf58c17	-0.029974027
242	0x3db7866f	0.08961188
243	0x3cd5d753	0.026103651
244	0x3d6b3de2	0.057432063
245	0xbc6a1584	-0.014287356
246	0xbd58519f	-0.052812215
247	0xbcbf83bd	-0.023378247
248	0xbc5fbe40	-0.013656199
249	0x3d5f296f	0.054482874
250	0xbcb7dcbd	-0.022444123
251	0x3dbe21e5	0.092838086
252	0x3c9e7eb2	0.019347522
253	0xbd54ffde	-0.052001826
254	0xbd136373	-0.035983514
255	0xbd3f1089	-0.04664663

nets.3.0.bias f4 [32]
0	0xbd2cafa1	-0.04215968
1	0xbc752577	-0.014962546
2	0x3da0f3bd	0.078589894
3	0x3d1ab861	0.037773494
4	0xbd0be09a	-0.034149744
5	0xbd95c18d	-0.073123075
6	0xbc4125dd	-0.0117888125
7	0x3dabb63f	0.0838437
8	0x3d8567b6	0.06513922
9	0x3cb4aa24	0.022053786
10	0xbce94e24	-0.028479643
11	0x3cac6226	0.021042895
12	0x3d1a05be	0.037603132
13	0xbda301a4	-0.07959297
14	0x3c4963f0	0.012291893
15	0x3cd881cb	0.026429078
16	0x3cd69955	0.026196161
17	0xbd9ddbcd	-0.07707939
18	0x3cf2cf25	0.02963979
19	0x3c6de49c	0.014519837
20	0xbd475605	-0.04866602
21	0xbd9655cf	-0.073405854
22	0x3c76defa	0.01506781
23	0x3cecdd33	0.02891407
24	0x3d9a30ad	0.075288154
25	0x3d0e7c80	0.0347867
26	0xbcb8654f	-0.022509245
27	0xbd6ee5c0	-0.058324575
28	0x3d0d79cb	0.03453998
29	0xbcef22d2	-0.029191408
30	0xbc0ee49c	-0.008721497
31	0xbdb7541b	-0.08951589
