scalar_lattice/ar_2d.pth (torch, 104946 bytes, 32 tensors)

nets.0.0.weight f4 [32, 2, 3]
0	0xbe891f98	-0.26781917
1	0xbea0ccb6	-0.31406182
2	0x3e55fa5d	0.20896287
3	0xbe9be58b	-0.30448565
4	0xbe6aa462	-0.2291427
5	0x3d6221b1	0.055207912
6	0x3eebc362	0.46047503
7	0xbe1d1ed4	-0.15343791
8	0x3d182e16	0.037153326
9	0xbd21d496	-0.03950938
10	0x3ef26616	0.4734351
11	0xbdd1d665	-0.10245971
12	0xbdb13fb3	-0.08654728
13	0xbe86c271	-0.26320222
14	0xbe8acf34	-0.27111208
15	0x3e3c5ba4	0.18394333
16	0xbce5bdce	-0.028044607
17	0xbeafd2f1	-0.34340623
18	0xbee8d86c	-0.45477617
19	0xbea9f99c	-0.3319825
20	0xbe9df353	-0.30849704
21	0xbaf51ec4	-0.0018701185
22	0x3e69447e	0.22780034
23	0xbcd90ff0	-0.026496857
24	0x3e9361cd	0.28785554
25	0xbe20ca19	-0.15702094
26	0xbe56ac9a	-0.2096428
27	0x3ede6030	0.4343276
28	0xbc99a171	-0.01875374
29	0xbe8d7b2a	-0.2763303
30	0x3e168ee8	0.14702952
31	0x3d39faf4	0.045405343
32	0xbe8f0b29	-0.27938202
33	0x3d674465	0.05646171
34	0x3e299ccd	0.16563721
35	0x3de7829c	0.11304209
36	0x3ea53520	0.32267094
37	0xbea55ef8	-0.32299018
38	0xbec00c64	-0.37509453
39	0xbe441247	-0.19147597
40	0x3ef77f28	0.483392
41	0xbe9606cf	-0.2930207
42	0xbe9deca6	-0.3084461
43	0xbef01b24	-0.46895707
44	0xbda2646e	-0.07929312
45	0xbd8589c2	-0.06520416
46	0x3df5eea8	0.12008411
47	0xbefe6211	-0.49684194
48	0x3e6be2da	0.23035756
49	0x3a00a7c6	0.00049078127
50	0xbd834ed0	-0.06411517
51	0x3e878426	0.2646801
52	0xb98b3eca	-0.00026558927
53	0x3d3a6192	0.045503207
54	0x3db76347	0.089544825
55	0xbe466a93	-0.19376592
56	0xbe8c2fb1	-0.27380136
57	0x3dd3f790	0.10349953
58	0x3e509b28	0.20371687
59	0xbe85f606	-0.26164263
60	0x3e025529	0.12727799
61	0xbd1dbce0	-0.038510203
62	0x3e40f83e	0.18844697
63	0xbd8534ec	-0.06504235
64	0xbca4188e	-0.02003124
65	0xbe836a58	-0.2566707
66	0x3ee00578	0.43754172
67	0x3ea3be46	0.31981105
68	0x3d0a40c0	0.033753157
69	0x3e970e4e	0.295031
70	0x3e511d30	0.2042129
71	0xbe793407	-0.24336253
72	0x3e78dbfb	0.24302666
73	0xbd649254	-0.055803612
74	0xbe84b7e4	-0.25921547
75	0x3e4470db	0.19183676
76	0xbe094895	-0.13406594
77	0x3e5138ea	0.20431867
78	0x3d53cd9e	0.051709764
79	0xbe8dc8a4	-0.2769214
80	0xbdeb16d5	-0.11478964
81	0xbeaba1e4	-0.3352195
82	0xbd6c5738	-0.057700366
83	0x3de645f6	0.11243813
84	0x3d663fae	0.056213073
85	0xbe527a62	-0.20554498
86	0xbe82da9e	-0.25557417
87	0xbe5c29af	-0.21500276
88	0x3d96172c	0.073286384
89	0x3e5112bc	0.20417303
90	0x3e57f18d	0.21088238
91	0x3ebb9a50	0.3664117
92	0xbca67cc5	-0.020323167
93	0xbe8e7d21	-0.2782984
94	0xbe2f982c	-0.17147893
95	0x3e0e6f1d	0.13909574
96	0x3cd8249c	0.026384644
97	0xbe7c6606	-0.24648294
98	0x3d83bb2f	0.06432187
99	0x3ec23f39	0.3793886
100	0xbe1789b3	-0.14798622
101	0x3e3cc917	0.18436085
102	0x3de79693	0.11308017
103	0xbea57e25	-0.32322803
104	0xbe132a38	-0.14371574
105	0x3e776556	0.2415975
106	0xbe8f0f7e	-0.27941507
107	0x3e438d5c	0.19096893
108	0x3e98c392	0.29836708
109	0xbec476fd	-0.3837203
110	0x3cc75855	0.024334112
111	0xbe554adc	-0.20829338
112	0x3df7f300	0.121068954
113	0xbecdd079	-0.40198115
114	0x3d9e9a56	0.07744281
115	0x3ec2b2f0	0.38027143
116	0x3ed34954	0.41266882
117	0xbe14a15a	-0.14514676
118	0x3c7723ea	0.015084246
119	0xbe43cd39	-0.19121255
120	0x3e61d2a5	0.22053011
121	0x3e93035a	0.28713495
122	0xbe8d31c7	-0.2757704
123	0x3e29e23d	0.1659021
124	0x3e8e2e33	0.27769622
125	0xbd9426e1	-0.07233978
126	0xbe28d453	-0.16487245
127	0xbd8e0e14	-0.06936279
128	0xbd221492	-0.0395704
129	0xbeab77b2	-0.33489758
130	0x3e1b9600	0.15193939
131	0x3dced3b0	0.1009897
132	0x3ebb4fc6	0.365843
133	0xbe1194d6	-0.14216933
134	0xbea53f47	-0.3227484
135	0x3da9feee	0.08300577
136	0x3e89c1e3	0.26905736
137	0x3ebc4482	0.36771017
138	0xbec4f22d	-0.38466015
139	0x3d19aaf8	0.037516564
140	0x3ece4d33	0.40293273
141	0xbe9546c8	-0.29155564
142	0x3d91b9aa	0.07115491
143	0xbe245478	-0.16047847
144	0x3deb23fc	0.11481473
145	0x3e5b7b9a	0.21433869
146	0x3ea68726	0.32524985
147	0x3eea9905	0.4581987
148	0x3ecfb260	0.40565777
149	0x3e9ae747	0.30254576
150	0xbe585f3b	-0.21130078
151	0xbe2d40e2	-0.16919282
152	0x3eaf4a91	0.34236577
153	0xbddb78d4	-0.107164055
154	0x3e414ab3	0.18876152
155	0xbea00833	-0.31256256
156	0x3e831e5f	0.2560911
157	0xbc9beb47	-0.019033087
158	0xbec74a4c	-0.38923872
159	0xbed46018	-0.41479564
160	0xbe633901	-0.22189714
161	0x3e57582a	0.21029726
162	0xbe1d158a	-0.15340248
163	0xbe514c72	-0.20439318
164	0xbe80be3b	-0.25145134
165	0x3e71aa31	0.23600079
166	0x3e685794	0.22689658
167	0x3e925da4	0.28587067
168	0x3eb0cc46	0.34530848
169	0x3d260f80	0.040542126
170	0xbe6341b3	-0.22193031
171	0x3eb046bf	0.34428975
172	0xbe9430d1	-0.28943494
173	0xbe88168a	-0.26579696
174	0x3e613247	0.21991836
175	0xbd5cf877	-0.053947892
176	0xbe5c40c2	-0.21509078
177	0xbe15c033	-0.146241
178	0xbeafbe1d	-0.34324732
179	0x3e889416	0.2667548
180	0xbd408cbd	-0.04700922
181	0x3d85c97b	0.0653257
182	0xbee59241	-0.44838145
183	0x3e8a4177	0.2700307
184	0xbe38761c	-0.18013805
185	0xbe6f5b09	-0.23374571
186	0x3c9edd3f	0.019392608
187	0x3e82e778	0.25567222
188	0xbed1ee76	-0.41002244
189	0x3c8ae912	0.01695684
190	0x3e99bb1c	0.30025566
191	0xbe97f53a	-0.2967928

nets.0.0.bias f4 [32]
0	0x3de2155d	0.11039231
1	0xbd70a52b	-0.058751266
2	0xbdbb210c	-0.091371626
3	0x3e526b1f	0.20548676
4	0xbe7a000f	-0.24414085
5	0x3e5c84e0	0.21535063
6	0xbd884619	-0.06653995
7	0x3df2f9ce	0.11864053
8	0x3de156ad	0.1100286
9	0x3ec1ff51	0.37890103
10	0xbebe8094	-0.37207472
11	0xbdd9a43b	-0.106270276
12	0xbca73a31	-0.02041349
13	0xbc70323a	-0.014660412
14	0xbec01738	-0.37517715
15	0x3e5e3286	0.2169896
16	0x3e018008	0.12646496
17	0x3e868f74	0.2628132
18	0x3e34362f	0.17598794
19	0x3eb9dd72	0.36301762
20	0xbe5d4565	-0.21608503
21	0xbec34796	-0.38140553
22	0xbe132e97	-0.14373241
23	0x3e44e2de	0.19227168
24	0x3e3cb018	0.1842655
25	0x3e94b27a	0.29042417
26	0xbdd9ff3b	-0.106443845
27	0xbc83e23e	-0.016099092
28	0xbe5df076	-0.2167376
29	0x3ecb0f39	0.3966005
30	0x3ebf3d54	0.37351477
31	0xbe63f208	-0.22260296

nets.1.conv.weight f4 [16, 32, 3]
0	0x3dade4ef	0.08490931
1	0xbdcdb9fe	-0.10045241
2	0xbde5ffad	-0.11230407
3	0x3dbe1b72	0.092825785
4	0xbd88be49	-0.06676919
5	0x3e0e093b	0.13870709
6	0xbc99cbeb	-0.018773993
7	0x3c102888	0.008798726
8	0xbcf9408b	-0.030426284
9	0xbe09e8b5	-0.13467677
10	0x3df49bc8	0.119437754
11	0xbd9fe8b5	-0.07808057
12	0xbd5c4ceb	-0.053784292
13	0x3d911c7c	0.07085511
14	0x3e1a86ea	0.15090528
15	0xbdd33330	-0.103124976
16	0x3d87a3a7	0.06623011
17	0x3db25faa	0.08709653
18	0xbd1d2c12	-0.038372107
19	0x3cb989bc	0.022648685
20	0x3dfa5b02	0.122243896
21	0x3cbf85df	0.023379264
22	0xbdd4eeab	-0.10397085
23	0xbda9e3b7	-0.08295386
24	0x3bd1d997	0.0064041126
25	0xbca3e761	-0.020007791
26	0x3e394a4c	0.18094748
27	0xbdac3ef6	-0.08410446
28	0xbd4a77bd	-0.049430598
29	0x3d91b003	0.0711365
30	0x3e27df7c	0.16393846
31	0xbe2c17a8	-0.16805899
32	0x3d31c061	0.043396357
33	0xbdb5fd74	-0.08886233
34	0x3d156c76	0.03648039
35	0x3e0a4e17	0.13506351
36	0x3c94e637	0.018176181
37	0x3d888022	0.066650644
38	0x3dabb22a	0.083835915
39	0x3d90ccf2	0.0707034
40	0x3d705ea5	0.05868401
41	0x3ce6cf50	0.028175026
42	0x3d00fac2	0.03148914
43	0x3d51bd4d	0.051205922
44	0x3e27b057	0.16375862
45	0x3d536dd1	0.0516184
46	0x3dae4fd7	0.08511322
47	0x3d28801f	0.04113781
48	0x3c5b84dd	0.013398376
49	0x3d37bb4a	0.044856347
50	0x3d8d5d10	0.06902516
51	0x3d7b2481	0.06131411
52	0xbdcd8134	-0.10034409
53	0x3daae0db	0.08343669
54	0x3de0e185	0.109805144
55	0xbd1bc2fa	-0.03802774
56	0x3e18322b	0.14862888
57	0x3db502c1	0.08838416
58	0xbb4f8956	-0.0031667552
59	0xbe085883	-0.13315015
60	0xbdb3e689	-0.087842055
61	0x3e46f9de	0.19431254
62	0x3b35c581	0.002773613
63	0x3d15cae9	0.036570463
64	0x3e35ea82	0.17765239
65	0x3db04e37	0.08608668
66	0x3dd88916	0.10573022
67	0xbc954409	-0.018220918
68	0x3e0df061	0.13861229
69	0x3d843261	0.064549215
70	0x3c22c5ef	0.009934886
71	0x3c57b3a8	0.013165392
72	0x3e2ae243	0.16687874
73	0x3dfaa683	0.12238791
74	0xbcf5254f	-0.029925017
75	0x3d333e15	0.043760378
76	0x3b514f15	0.0031938006
77	0xbe04ae44	-0.12957102
78	0xbd2a2028	-0.041534573
79	0x3dd8c48c	0.10584363
80	0x3e0894bf	0.13337992
81	0xbded58fd	-0.11589239
82	0x3c866178	0.016403899
83	0x3d8b3e62	0.06799008
84	0xbd9450f5	-0.07242004
85	0xbd830270	-0.06396949
86	0xb6aa28d6	-5.0711487e-06
87	0xbc89d5b0	-0.016825527
88	0x3cf2a346	0.02961887
89	0x3c4b70eb	0.012417058
90	0xbe0617c1	-0.13094999
91	0x3df09bd0	0.11748469
92	0x3d169078	0.03675887
93	0xbda1d170	-0.07901275
94	0x3d36b4b7	0.044605937
95	0x3df647cd	0.12025414
96	0x3d390288	0.04516843
97	0x3e245479	0.16047849
98	0xbdfa1194	-0.12210384
99	0xbde51d36	-0.11187212
100	0xbd0e2dc3	-0.03471161
101	0xbdb64826	-0.0890048
102	0x3e15088f	0.14554046
103	0x3d25b16c	0.040452406
104	0xbe0a6ebf	-0.13518809
105	0x3dbe2ee0	0.092862844
106	0x3e571e50	0.21007657
107	0x3e4237d2	0.18966606
108	0x3e04cf98	0.12969816
109	0x3d89add1	0.06722606
110	0xbd2b28ed	-0.041787077
111	0x3e043034	0.12909013
112	0xbd41a6c2	-0.047278173
113	0x3dc52cae	0.096276626
114	0xbd47a720	-0.048743367
115	0xbcc5a607	-0.02412702
116	0xbb7781a4	-0.003776648
117	0xbd2bf53f	-0.04198193
118	0x3d882582	0.06647779
119	0xbcb79e65	-0.022414396
120	0x3daf22a6	0.085515305
121	0xbc97fd2c	-0.018553339
122	0x3c3aa01b	0.011390711
123	0x3e07cc81	0.13261606
124	0x3cb4a64d	0.022051955
125	0xbdca00a1	-0.09863401
126	0xbd51e818	-0.051246732
127	0xbdf640de	-0.12024091
128	0xbda7f633	-0.08201256
129	0xbca8ccff	-0.020605562
130	0x3d8706e8	0.06593114
131	0xbdaafcd9	-0.08349008
132	0x3d8707aa	0.06593259
133	0x3c98c83e	0.01865017
134	0xbe089c0b	-0.13340776
135	0x3db63acf	0.088979356
136	0x3e142c71	0.14470078
137	0x3bc42fdb	0.00598715
138	0x3e51cf16	0.20489153
139	0xbdcfd508	-0.10148054
140	0xbe0e6768	-0.13906634
141	0xbd1254dc	-0.03572546
142	0xbd85f528	-0.065409005
143	0xbe19ebf6	-0.15031418
144	0x3d00179c	0.031272516
145	0x3da59447	0.08084922
146	0x3d934f4d	0.0719286
147	0x3ccf9798	0.02534084
148	0xbcf258f7	-0.029583437
149	0x3d095da3	0.033536565
150	0xbcd95809	-0.026531236
151	0xbb0be013	-0.0021343275
152	0xbd0301d5	-0.03198417
153	0xbd92d988	-0.07170397
154	0xbd66e049	-0.05636624
155	0xbcc74af3	-0.02432773
156	0x3c697e55	0.014251311
157	0xbd35f4b6	-0.044422828
158	0xbd0a64d7	-0.033787575
159	0x3d5ed52e	0.054402523
160	0xbd7c7b0f	-0.061640795
161	0x3a778983	0.0009442793
162	0x3d813400	0.06308746
163	0x3da55626	0.08073072
164	0x3c4af538	0.012387566
165	0x3c6e2f0d	0.014537585
166	0x3dba8350	0.09107077
167	0x3e10da36	0.14145741
168	0xbb6019d2	-0.0034195078
169	0x3d804c80	0.06264591
170	0x3e5e8844	0.21731669
171	0xbd3f8206	-0.04675486
172	0xbd42bca8	-0.047543198
173	0x3d89b7a3	0.06724479
174	0x3da777ea	0.08177169
175	0xbd790ebe	-0.060805075
176	0xbe3372f3	-0.17524318
177	0x3e81b01b	0.2532967
178	0x3e3431a1	0.17597057
179	0x3e75be72	0.2399843
180	0x3d5f24a0	0.054478288
181	0x3d7ed3a0	0.06221354
182	0xbd3e3fc4	-0.04644753
183	0x3de91ded	0.11382661
184	0xbe0a23ef	-0.1349027
185	0xbe24b0b3	-0.1608303
186	0x3d3d8a4a	0.04627446
187	0xbbe258c6	-0.0069075553
188	0xbe0fc163	-0.14038615
189	0x3d31e974	0.04343553
190	0x3b72f17c	0.0037070205
191	0xbc1268ac	-0.0089360885
192	0xbe0f2728	-0.1397978
193	0x3cbe45bb	0.02322661
194	0x3d697ded	0.057004858
195	0x3c487529	0.012234964
196	0x3e2047d2	0.15652397
197	0xbe343c8d	-0.17601223
198	0x3da2cd77	0.079493456
199	0x3c811ea2	0.015761677
200	0x3e0c2417	0.13685642
201	0xbcba5876	-0.02274726
202	0xbc441a2a	-0.011969129
203	0x3e61658f	0.22011398
204	0x3d51e8b1	0.051247302
205	0x3d1c811a	0.03820906
206	0x3c2216f2	0.009893166
207	0x3ddb0b97	0.1069557
208	0x3df9448b	0.12171277
209	0x3d13c8ef	0.036080297
210	0xbdf5613a	-0.11981435
211	0x3dcef471	0.10105217
212	0x3cae21e8	0.021256402
213	0x3db9925b	0.09061118
214	0x3dbbc7e2	0.09168984
215	0x3e0f16f7	0.13973604
216	0xbc110a15	-0.008852501
217	0x3d499627	0.049215462
218	0xbddeeece	-0.10885392
219	0x3c702f60	0.014659733
220	0x3e3b7a51	0.18308379
221	0x3d1bee02	0.03806878
222	0xbdee03fb	-0.11621853
223	0x3cdcad98	0.026938245
224	0xbdd13fb4	-0.102172285
225	0xbd9727f2	-0.07380666
226	0xbd68f97e	-0.05687856
227	0xbc7a64ee	-0.015282853
228	0x3da92c6b	0.08260425
229	0x3dd3222c	0.10309252
230	0xbd84c3b9	-0.06482644
231	0x3cff36c3	0.031154042
232	0x3e1cc013	0.15307645
233	0x3db64e0e	0.089016065
234	0x3dcaef7b	0.099089585
235	0x3ce3ecf8	0.027822956
236	0x3dda8c76	0.10671322
237	0x3db4b69f	0.08823895
238	0xbe2ac9c5	-0.16678531
239	0xbe280fe1	-0.16412307
240	0x3d7fe1ae	0.062471084
241	0xbbdcd343	-0.0067390515
242	0xbc420a86	-0.011843329
243	0xbd88e0b2	-0.06683482
244	0x3e4a6ee7	0.19768868
245	0x3e05663f	0.13027285
246	0xbdba39f0	-0.09093082
247	0x3e18ae65	0.14910276
248	0xbbc81915	-0.0061065056
249	0xbd08a97e	-0.033364765
250	0xbe0634a1	-0.13106014
251	0xbe09f740	-0.13473225
252	0x3de8bcb9	0.11364121
253	0x3d8ef548	0.069803774
254	0xbda750d3	-0.08169713
255	0x3c96dc6a	0.018415648

nets.1.conv.bias f4 [16]
0	0x3e05ff6e	0.1308572
1	0x3e118aef	0.14213155
2	0xbe2c3236	-0.16816029
3	0xbd6e90cb	-0.058243554
4	0x3ce0eccb	0.027456662
5	0x3e214da7	0.15752278
6	0x3e36b904	0.17844015
7	0xbda58061	-0.08081127
8	0x3ccaae18	0.024741217
9	0x3da6742a	0.08127625
10	0x3dd4a673	0.1038331
11	0xbe8d8f5e	-0.27648443
12	0x3d9e9a5d	0.07744286
13	0x3e0ceabe	0.13761422
14	0x3db9c9de	0.09071706
15	0xbd8d5591	-0.06901086

nets.1.bn.weight f4 [16]
0	0x3f7a7cde	0.9784678
1	0x3f8e718f	1.1128405
2	0x3f8ad0bd	1.0844952
3	0x3f8aa720	1.0832253
4	0x3f7e467a	0.9932629
5	0x3f7606ca	0.9610411
6	0x3f622c0e	0.8834847
7	0x3f8602e1	1.0469629
8	0x3f7330cf	0.9499635
9	0x3f8719b0	1.0554714
10	0x3f90aa1a	1.1301911
11	0x3f657ad9	0.89640576
12	0x3f6c5706	0.9232029
13	0x3f81039c	1.0079226
14	0x3f8b29e5	1.087216
15	0x3f71b7ba	0.9442097

nets.1.bn.bias f4 [16]
0	0x3d227e62	0.03967131
1	0xbb74ad62	-0.003733479
2	0xbd241355	-0.0400575
3	0xbdba70bd	-0.09103534
4	0x3db7fb52	0.089834824
5	0xbd426292	-0.047457285
6	0xbd1b6713	-0.037940096
7	0x3d452b7e	0.04813718
8	0xbdef0a2d	-0.11671863
9	0xbe1c5d14	-0.15269881
10	0xbdc0ea02	-0.094196334
11	0x3c38c484	0.011277322
12	0xbdcd6c2a	-0.10030396
13	0xbcb9e4ba	-0.022692073
14	0xbd18f323	-0.03734125
15	0x3c0f1792	0.008733647

nets.1.bn.running_mean f4 [16]
0	0x3d5726cd	0.052527238
1	0x3f27e0e0	0.65577507
2	0xbd2cdc0a	-0.042202033
3	0xbe79c8a2	-0.24392942
4	0x3d7b1d94	0.061307505
5	0x3e3f72b9	0.18696107
6	0x3e7c2b7e	0.24625966
7	0xbdb5f059	-0.08883733
8	0xbe0506fd	-0.12990947
9	0xbe983204	-0.2972566
10	0xbe249611	-0.16072871
11	0xbeb304b1	-0.34964517
12	0xbdf223d2	-0.118232384
13	0x3f6fbef3	0.9365074
14	0xbe0f37ac	-0.13986081
15	0xbe217d9a	-0.1577057

nets.1.bn.running_var f4 [16]
0	0x3e567464	0.20942837
1	0x3ea9dcac	0.33176172
2	0x3ec2908a	0.380009
3	0x3e21829a	0.15772477
4	0x3ebf591f	0.37372681
5	0x3e6dddb2	0.23229101
6	0x3ea49480	0.32144547
7	0x3eb05aec	0.34444368
8	0x3e7e74eb	0.24849288
9	0x3e826fa5	0.25475803
10	0x3ea0b9a0	0.3139162
11	0x3ee03f7a	0.4379843
12	0x3ebd9e33	0.3703476
13	0x3ebe5d03	0.37180337
14	0x3e9d4e72	0.30723912
15	0x3e99b463	0.30020437

nets.1.conv2.weight f4 [64, 32, 3]
0	0xbe69f3b8	-0.22846878
1	0xbc17b8a8	-0.009260334
2	0xbd2df3be	-0.04246878
3	0xbe0af320	-0.13569307
4	0xbdf6b60c	-0.120464414
5	0xbdbae224	-0.09125164
6	0x3cd53f6e	0.026031222
7	0xbdd7ed22	-0.10543276
8	0x3ac1061f	0.0014726556
9	0x3df1af80	0.11801052
10	0xbde5b4ba	-0.112161115
11	0xbd1cab0f	-0.03824907
12	0xbc2c68cb	-0.0105230315
13	0xbe0300f5	-0.12793334
14	0xbdf47f93	-0.11938395
15	0x3db1db05	0.08684353
16	0x3cc1aa4b	0.023640772
17	0xbdcb4a87	-0.09926324
18	0x3de9da0f	0.114185445
19	0x3c8578a4	0.016292877
20	0x3d931ab5	0.07182828
21	0xbdc2bac9	-0.09508283
22	0xbd135486	-0.03596928
23	0x3d8f967c	0.070111245
24	0x3d4b64e5	0.049656767
25	0x3da60b52	0.08107628
26	0x3dc1849c	0.09449121
27	0x3cbd0838	0.023075208
28	0xbdbc4bdf	-0.09194159
29	0xbd8bcca4	-0.068261415
30	0x3d69475f	0.05695283
31	0x3dc39be6	0.0955122
32	0x3e2eb255	0.17060216
33	0xbdc6eda3	-0.09713294
34	0x3cbdf0dc	0.02318614
35	0xbd137eac	-0.036009476
36	0xbdafe34f	-0.085882775
37	0x3e296d56	0.16545615
38	0xbd0969d3	-0.033548187
39	0xbe315d3a	-0.1732072
40	0xbe1fffb8	-0.15624893
41	0x3d3e4f39	0.04646227
42	0x3d90b5ba	0.070659116
43	0xbe0f3882	-0.139864
44	0x3e2cd6e7	0.16878854
45	0xbd9cfc30	-0.076652884
46	0x3d3fc051	0.046814267
47	0xbda997a7	-0.082808785
48	0x3db1738a	0.086646155
49	0x3e1ecb33	0.15507202
50	0x3e346d60	0.17619848
51	0xbcee2721	-0.029071392
52	0x3e2ae1ae	0.16687652
53	0x3e031efe	0.12804791
54	0x3b96214a	0.004581605
55	0x3e38f84c	0.18063468
56	0x3dc1b02b	0.094574295
57	0xbd582e6e	-0.052778654
58	0x3e192098	0.1495384
59	0x3d9ed316	0.07755105
60	0x3e02027e	0.12696263
61	0x3e0f79f6	0.14011368
62	0x3d4ac970	0.049508512
63	0xbe16b4d5	-0.1471742
64	0x3d88ed38	0.06685871
65	0x3cf13256	0.029442947
66	0x3d866f36	0.065641806
67	0x3d8491b1	0.06473101
68	0x3d3dd3bb	0.0463445
69	0x3dba0614	0.090831906
70	0xbca454c4	-0.02005995
71	0xbe07c96a	-0.13260427
72	0xbd2d95aa	-0.04237906
73	0xbd0a76ea	-0.03380481
74	0x3c995c7a	0.018720854
75	0x3dc066c8	0.09394604
76	0xbbfdb6fd	-0.007742761
77	0xbd82042e	-0.063484535
78	0xbdbeaa7e	-0.093098626
79	0xbd2d6c7a	-0.04233978
80	0xbe0d499b	-0.1379761
81	0x3d9bf296	0.07614629
82	0xbd117862	-0.035515197
83	0x3d859875	0.065232195
84	0x3cfbadf0	0.030722588
85	0xbe5d7acf	-0.21628879
86	0x3c839dd6	0.016066473
87	0x3e0c1948	0.13681519
88	0x3e47ae46	0.19500074
89	0xbc0b0a87	-0.008486397
90	0x3c7ebffe	0.015548704
91	0x3d0dcc4b	0.034618657
92	0xbe294656	-0.16530737
93	0x3de5e283	0.11224844
94	0x3d5921d2	0.05301077
95	0x3d35f6f6	0.044424973
96	0x3e344061	0.17602684
97	0x3d736a9c	0.059427842
98	0x3d9e5e02	0.07732774
99	0x3e11cd1e	0.14238402
100	0x3daa41ae	0.08313309
101	0xbbdd5152	-0.006754079
102	0x3dfb3d74	0.12267581
103	0xbd26a665	-0.04068603
104	0x3debed14	0.115198284
105	0x3dc84a4a	0.097797945
106	0xbcb29a63	-0.021802133
107	0x3d721b55	0.059108097
108	0xbcc1ae4a	-0.023642678
109	0x3ddee0d9	0.1088273
110	0xbdf3508b	-0.11880597
111	0xbc91f7e7	-0.017818404
112	0xbd86b44c	-0.06577358
113	0x3c51a5b7	0.012795857
114	0x3e5f9fa9	0.2183825
115	0xbd51f7f9	-0.051261876
116	0xbd87959e	-0.06620334
117	0x3e02ae45	0.12761791
118	0x3d93950c	0.07206163
119	0x3d93c593	0.07215419
120	0xbdc62d6d	-0.09676633
121	0xbd91c2a2	-0.071172014
122	0xbd3ad462	-0.0456127
123	0x3e1d616d	0.15369196
124	0x3de499df	0.11162161
125	0xbdabe5da	-0.0839345
126	0x3d54490a	0.051827468
127	0xb9e0a48c	-0.00042847206
128	0xbc2fe833	-0.010736513
129	0x3c0e7b93	0.008696455
130	0x3dc7f28b	0.09763058
131	0xbd413c6c	-0.047176763
132	0xbd466dfd	-0.048444737
133	0xbbd7fe3a	-0.0065915855
134	0x3dce217f	0.100649826
135	0x3ddac865	0.106827535
136	0x3d289fe7	0.04116812
137	0x3d74fcaf	0.05981129
138	0x3db21cd0	0.08696902
139	0x3c8f4c76	0.017492514
140	0x3df41883	0.11918738
141	0xbe0edb9c	-0.13950962
142	0xbc6f5322	-0.014607223
143	0xbded38c0	-0.1158309
144	0xbdea6671	-0.114453204
145	0x3d0e1907	0.034691837
146	0xbe0f83e8	-0.14015162
147	0xbd6ecfe4	-0.05830373
148	0xbdc194aa	-0.094521835
149	0xbdcc98d8	-0.0999009
150	0xbc95a55b	-0.018267324
151	0x3c1da856	0.009622654
152	0x3b8242f6	0.0039752675
153	0x3e222921	0.15836002
154	0xbe1c3fba	-0.15258685
155	0x3dbe1017	0.09280413
156	0x3dd7b851	0.105332024
157	0x3d8708a5	0.06593446
158	0xbd8de82b	-0.06929048
159	0x3ce85178	0.02835916
160	0xbcee2dfe	-0.029074665
161	0x3d87c7e1	0.06629921
162	0xbd4a279f	-0.049354192
163	0x3e1ff9a6	0.15622577
164	0x3ddb3ab6	0.107045576
165	0xbc867a7b	-0.016415825
166	0x3d892382	0.06696226
167	0xbe228f44	-0.15874964
168	0x3dc678db	0.0969102
169	0x3dec53c3	0.11539414
170	0x3dfe4ce5	0.1241701
171	0xbd53dfc2	-0.051727064
172	0x3d18e3c2	0.03732658
173	0xbd026324	-0.03183283
174	0xbcfaeaec	-0.030629598
175	0x3da4719a	0.0802948
176	0xbd9aff94	-0.07568279
177	0x3d3ca77b	0.04605816
178	0x3d034f23	0.032057893
179	0xbd6cfd6c	-0.05785887
180	0x3e24b8f5	0.1608618
181	0x3dc9d8e1	0.098558195
182	0xbde0eedc	-0.10983059
183	0xbe213745	-0.1574374
184	0xbdf29072	-0.11843957
185	0xbcc448ab	-0.023960432
186	0xbd23449d	-0.039860357
187	0x3da3cbc2	0.07997848
188	0xbd5eb49c	-0.05437146
189	0x3e5ebd3e	0.21751878
190	0xbd4108b3	-0.047127437
191	0x3dc4033d	0.0957093
192	0x3d0581f6	0.032594644
193	0xbd3edc4a	-0.046596803
194	0xbdf149a8	-0.11781627
195	0xbd0f291d	-0.034951318
196	0xbe06c520	-0.13161135
197	0xbdfcafbe	-0.12338208
198	0xbb21719b	-0.0024634365
199	0xbdcf09b8	-0.101092756
200	0xbcc8d264	-0.024514385
201	0xbdb4baf4	-0.08824721
202	0xbdae94d1	-0.08524478
203	0xbe25b6f2	-0.1618307
204	0xbe28548c	-0.16438502
205	0x3d458561	0.048222903
206	0xbcae8ffe	-0.021308895
207	0x3d800ab8	0.062520444
208	0x3be0b1e5	0.006857144
209	0x3d42221f	0.04739582
210	0x3d88cddc	0.066798896
211	0xbc93009e	-0.01794463
212	0x3d54c836	0.05194875
213	0x3ba41ef4	0.0050085727
214	0xbc8c1958	-0.017101929
215	0xbd51d480	-0.051228046
216	0x3b55261e	0.003252394
217	0x3d95e0a2	0.07318236
218	0x3c7a01f6	0.015259257
219	0xbe112879	-0.14175595
220	0xbe285787	-0.16439639
221	0x3d4ae86a	0.049538054
222	0xbdcc3a15	-0.09972016
223	0xbcc860a2	-0.02446014
224	0xbc84ec4d	-0.016225958
225	0xbdc5945a	-0.096474364
226	0xbe103392	-0.14082173
227	0x3dd2d662	0.102947965
228	0xbd965652	-0.07340683
229	0xbc9b6451	-0.018968733
230	0x3cdeb76b	0.02718707
231	0x3e1164d5	0.1419862
232	0xbc2c7e90	-0.010528222
233	0xbe1d000c	-0.15332049
234	0xbe10775d	-0.14108033
235	0xbcefefae	-0.029289093
236	0xbd978739	-0.073988385
237	0xbd2afa41	-0.041742567
238	0x3da41186	0.08011155
239	0x3bf5b2b9	0.007498112
240	0x3dcd1ddd	0.100154616
241	0xbd6cb10b	-0.05778603
242	0x3d600fec	0.054702684
243	0x3e051def	0.129997
244	0x3e154d99	0.14580382
245	0x3d5f791e	0.054558866
246	0xbd63c42a	-0.055607
247	0xbd04445b	-0.03229175
248	0xbc183203	-0.0092892675
249	0x3da12bbe	0.07869671
250	0x3d9eb0dd	0.07748578
251	0x3e0e13f6	0.13874802
252	0x3db81a12	0.089893475
253	0xbe1e7961	-0.1547599
254	0xbd3764a3	-0.04477371
255	0xbd6674b7	-0.05626365

nets.1.conv2.bias f4 [64]
0	0x3a464d0c	0.00075645815
1	0x3e173e2f	0.14769815
2	0x3d2018b9	0.039086077
3	0x3d2d8db3	0.042371463
4	0x3e2ef642	0.17086127
5	0x3e25cb34	0.16190797
6	0x3db80a9d	0.08986399
7	0x3cc67207	0.024224294
8	0x3a67ce18	0.0008842661
9	0x3d4de383	0.0502658
10	0xb97d3c5c	-0.00024150446
11	0x3cf38985	0.02972866
12	0xbd695cf4	-0.056973413
13	0xbd13af11	-0.03605563
14	0x3d2aa138	0.041657656
15	0x3daef106	0.08542065
16	0xbb8b3bbb	-0.004249064
17	0xbd4dc589	-0.050237212
18	0xbc73647b	-0.014855499
19	0xbd8ae0a6	-0.067811295
20	0xbe3190c3	-0.17340378
21	0x3d2b74ec	0.041859552
22	0x3d128056	0.035766922
23	0xbca0e16e	-0.019638743
24	0x3e61fe34	0.22069627
25	0x3d02085d	0.031746257
26	0xbd9b5eda	-0.07586451
27	0xbdbd54b5	-0.09244672
28	0x3d53eb0a	0.051737823
29	0x3d0567d7	0.032569733
30	0x3e0eaa93	0.13932256
31	0x3d51c061	0.051208857
32	0x3e3d2029	0.184693
33	0x3e13ae59	0.14421977
34	0x3c6a1e10	0.014289394
35	0xbcc10d95	-0.023566047
36	0xbbb8c7cb	-0.0056390516
37	0x3d9e3c18	0.07726306
38	0xbd309702	-0.043112762
39	0x3d70f7f3	0.058830213
40	0x3c33b5fb	0.0109686805
41	0x3cfaed09	0.030630605
42	0x3d8469e4	0.064655095
43	0x3cb7f003	0.022453314
44	0xbe15343b	-0.14570706
45	0x3dedd0bd	0.11612079
46	0x3d8d8c39	0.06911511
47	0x3d80608e	0.06268416
48	0xbd0b4a67	-0.034006502
49	0x3dbd2a45	0.09236578
50	0xbc8c8595	-0.01715354
51	0x3d283f20	0.041075826
52	0x3cd293b0	0.025705189
53	0xbd9edc59	-0.07756872
54	0xbd83535d	-0.06412385
55	0xbe039304	-0.12849051
56	0x3d9d199d	0.07670901
57	0x3cb671a3	0.022270983
58	0x3dcda3c4	0.100410014
59	0xbd87b185	-0.06625656
60	0xbb2d8df9	-0.0026482327
61	0xbdba23a8	-0.09088832
62	0x3e483ccb	0.1955444
63	0x396bf673	0.00022503156

nets.2.0.weight f4 [32, 32, 3]
0	0x3bd9acca	0.0066429125
1	0x3dc65894	0.09684864
2	0x3e287d57	0.16454063
3	0xbda51a23	-0.08061626
4	0xbde92ea9	-0.11385853
5	0xbe602bbe	-0.21891686
6	0x3da26645	0.079296626
7	0x3c1b55ef	0.009480937
8	0xbe2f6989	-0.17130102
9	0x3e1d99c3	0.15390687
10	0x3e02ebd9	0.12785281
11	0x3dfaa666	0.12238769
12	0xbdb2ed65	-0.08736686
13	0x3e056665	0.13027342
14	0xbdaf5053	-0.085602425
15	0x3db27882	0.08714391
16	0xbd59835e	-0.053103797
17	0x3d124922	0.035714276
18	0x3db76646	0.08955054
19	0x3d49782d	0.049186874
20	0x3d103951	0.03521091
21	0x3df26690	0.118359685
22	0xbc707da7	-0.014678395
23	0x3d47bf2f	0.04876631
24	0x3dc2ef14	0.09518257
25	0x3d97bbb7	0.07408851
26	0xbd75d89c	-0.060021028
27	0x3d612be7	0.05497351
28	0x3e5b3aa0	0.21409082
29	0xbcfbd8c8	-0.030743018
30	0xbdb3c6fb	-0.08778187
31	0xbe5e54b4	-0.21711999
32	0x3cc3b5ca	0.023890395
33	0xbd11551f	-0.03548157
34	0xbdb149fc	-0.086566895
35	0xbdac5b22	-0.0841582
36	0x3d49b0a2	0.049240716
37	0xbdcd75e7	-0.10032254
38	0x3d84b42a	0.06479676
39	0xbd9ec74a	-0.07752855
40	0x3e12d261	0.14338066
41	0xbe3dafe6	-0.18524131
42	0xbdb43c82	-0.088006034
43	0xbdd24a4e	-0.10268079
44	0xbe03e9cb	-0.12882154
45	0xbd5b1652	-0.053488083
46	0x3dd48f57	0.103789024
47	0xbe18a33b	-0.14906017
48	0xbcf54949	-0.029942172
49	0x3d33dbd9	0.043910835
50	0xbd8bc5e1	-0.06824852
51	0xbd10cc80	-0.035351276
52	0x3d51c00c	0.05120854
53	0x3c638625	0.013886963
54	0x3d5b1dd1	0.053495232
55	0x3d5b1472	0.053486295
56	0xbda43e8a	-0.08019741
57	0xbba3911c	-0.0049916636
58	0xbdf74e68	-0.12075502
59	0x3da4a919	0.08040065
60	0xbda91690	-0.082562566
61	0xbdbb18c4	-0.09135583
62	0xbc600433	-0.013672876
63	0x3dff134e	0.12454854
64	0xbd75e398	-0.060031503
65	0x3d9e3f6d	0.07726941
66	0x3d2cf7fa	0.042228676
67	0x3cc5be77	0.024138672
68	0xbce82002	-0.028335575
69	0xbc026a29	-0.007959881
70	0xbd718513	-0.0589648
71	0x3dec0726	0.11524801
72	0xbceb3544	-0.028711922
73	0xbd507f94	-0.050902918
74	0xbddfd98a	-0.10930164
75	0xbdf20c4b	-0.11818751
76	0x3dcbecfc	0.099573106
77	0x3db92a04	0.09041217
78	0x3caa2717	0.020770593
79	0x3de04f4c	0.10952625
80	0xbd7ccc28	-0.061718136
81	0x3e171c26	0.14756832
82	0x3df1a0bc	0.11798236
83	0x3d263eeb	0.040587347
84	0xbe2743db	-0.16334479
85	0xbdd5d920	-0.10441804
86	0xbd63bdbe	-0.055600874
87	0xbdaead73	-0.085291766
88	0xbd5d0fb4	-0.053970054
89	0x3d057dde	0.03259074
90	0x3e04af4f	0.129575
91	0x3e1a7fb6	0.1508778
92	0xbd2d3d8e	-0.04229503
93	0xbc2073bd	-0.009793219
94	0xbe09c933	-0.13455658
95	0xbda6fc43	-0.08153584
96	0x3deea649	0.1165281
97	0x3d41129e	0.047136895
98	0xbd63aeb1	-0.05558652
99	0xbd5c0525	-0.053715844
100	0xbc408edd	-0.011752811
101	0x3e588daf	0.21147798
102	0xbe0724cb	-0.13197629
103	0xbe48103d	-0.19537444
104	0x3dd56134	0.10418931
105	0x3d342c2d	0.04398744
106	0xbe34b8de	-0.17648646
107	0xbcd76500	-0.026293278
108	0x3c9b4a7f	0.018956421
109	0xbe01a56f	-0.12660764
110	0x3e08f3e8	0.13374293
111	0xbdc6f18a	-0.09714039
112	0x3dea7862	0.114487424
113	0x3d9519e0	0.07280326
114	0xbda06c8a	-0.07833202
115	0x3d20db5e	0.039271705
116	0xbd0667a0	-0.03281367
117	0xbe0f7966	-0.14011154
118	0x3c23bbaf	0.009993478
119	0xbd9e535f	-0.077307455
120	0xbdc145c5	-0.094371356
121	0xbd5764e0	-0.052586436
122	0xbca06b69	-0.019582467
123	0x3e027520	0.12739992
124	0xbe0a2715	-0.13491471
125	0xbe10077b	-0.14065354
126	0xbd5d01a9	-0.05395666
127	0x3c13dd84	0.009024981
128	0x3d975ec9	0.07391126
129	0xbe553518	-0.20821035
130	0xbcc5307b	-0.024070969
131	0x3da2c84a	0.07948358
132	0xbbf22572	-0.0073897177
133	0xbceb56ab	-0.02872785
134	0x3e1d6222	0.15369466
135	0xbcb725f3	-0.022356963
136	0xbd25eb2d	-0.040507484
137	0xbd7f779e	-0.062369935
138	0xbe61f668	-0.22066653
139	0x3d0d10f3	0.034439992
140	0xbe24da33	-0.16098861
141	0xbd3bdac4	-0.045862928
142	0x3d3400f0	0.043946207
143	0x3d907a9a	0.070546344
144	0x3e035334	0.12824708
145	0x3d6fd4f7	0.05855271
146	0xbcb8bc60	-0.022550762
147	0xbd6b3b95	-0.05742987
148	0x3cfd520e	0.030922916
149	0xbc3b4124	-0.011429105
150	0xbdfd699b	-0.12373658
151	0xbd2b7ffa	-0.041870095
152	0xbd4b8968	-0.049691588
153	0xbb8b2470	-0.004246287
154	0x3e0ea105	0.13928612
155	0x3e1c4064	0.15258938
156	0x3db6ed27	0.08931952
157	0x3d8d07a1	0.06886221
158	0x3dd29c66	0.10283737
159	0x3d8a719e	0.06759952
160	0xbd80730a	-0.06271942
161	0xbe4503fb	-0.192398
162	0xbe12a276	-0.14319786
163	0xbbea42cd	-0.0071490766
164	0x3e1b335a	0.15156308
165	0x3e1d8dda	0.15386143
166	0xbd260843	-0.040535223
167	0xbd84e200	-0.064884186
168	0x3a1ce0bd	0.00059844163
169	0x3de739f8	0.112903535
170	0x3da770e8	0.08175832
171	0x3e553867	0.20822297
172	0xbdb1ec86	-0.086876914
173	0xbc9a487a	-0.018833388
174	0xbd6712ef	-0.05641454
175	0xbc9b2eb2	-0.018943164
176	0x3d5d41fe	0.054018013
177	0xbd9cdef1	-0.0765971
178	0xbd9fcd19	-0.07802791
179	0xbca24998	-0.019810483
180	0xbe04bdbd	-0.12963004
181	0x3db3edcd	0.08785591
182	0x3e439c2d	0.19102545
183	0xbd801f12	-0.06255926
184	0x3db1348b	0.086526
185	0x3e21a888	0.15786946
186	0xbe4e8091	-0.20166232
187	0xbe2a6250	-0.16639066
188	0x3deeb4dd	0.11655591
189	0xbce10df5	-0.027472476
190	0x3d9643d8	0.07337159
191	0x3c1125f8	0.00885915
192	0xbe11f6eb	-0.14254348
193	0xbda2037e	-0.07910822
194	0xbcb0bccc	-0.0215744
195	0x3e08464d	0.13308068
196	0x3c296f38	0.010341458
197	0xbe45742e	-0.192826
198	0x3c0625c3	0.008187714
199	0x3e272027	0.16320859
200	0x3c2108cc	0.0098287575
201	0x3dae851e	0.08521484
202	0xbb0231da	-0.001986614
203	0x3c1c1774	0.009527076
204	0x3d120622	0.03565038
205	0xbce43c29	-0.027860718
206	0xbd5a4bf6	-0.0532951
207	0x3df99aad	0.12187705
208	0xbc9ac134	-0.018890955
209	0x3dc7894b	0.097429834
210	0x3e0de912	0.1385844
211	0x3ded878e	0.11598121
212	0xbcda33f6	-0.026636105
213	0xbd522f75	-0.05131479
214	0x3de07cd7	0.10961311
215	0x3e09a2e4	0.13441044
216	0x3c5e42aa	0.013565699
217	0x3dd3126c	0.10306248
218	0x3e0c7870	0.13717818
219	0xbd910d62	-0.07082631
220	0x3df0bfdc	0.11755344
221	0xbbea3dc3	-0.007148476
222	0xbd921020	-0.07131982
223	0xbe07b995	-0.13254388
224	0x3cb4de8f	0.02207878
225	0x3cca306f	0.024681298
226	0xbd996a91	-0.07491029
227	0xbd1bc6cd	-0.038031388
228	0x3cf50d75	0.029913643
229	0x3d9eda70	0.077565074
230	0xbcbef81e	-0.02331167
231	0x3e3acb98	0.18241727
232	0x3cdc31e8	0.026879266
233	0x3e094d62	0.13408425
234	0x3dc1b60f	0.09458553
235	0x3e629389	0.22126593
236	0x3dc66269	0.09686739
237	0x3e253335	0.16132815
238	0x3d9c5dc8	0.07635075
239	0xbcf21c51	-0.029554518
240	0xbd991a7c	-0.074757546
241	0x3e288e9a	0.16460648
242	0x3d3f8e85	0.046766777
243	0x3e016238	0.12635124
244	0xbd8d4b56	-0.06899135
245	0xbd87fb96	-0.06639783
246	0x3d4fb0f1	0.050705854
247	0x3d3349bc	0.04377149
248	0xbd032e04	-0.032026306
249	0xbd233489	-0.039845023
250	0x3b92421e	0.004463448
251	0x3be82dfb	0.0070855594
252	0x3d45c087	0.04827931
253	0xbe7bdbc4	-0.24595553
254	0xbe19ee2d	-0.15032263
255	0x3da305ef	0.07960116

nets.2.0.bias f4 [32]
0	0x3da9a7e2	0.08283974
1	0x3d88fe4d	0.06689129
2	0x3d8fa802	0.07014467
3	0x3de34ef1	0.11099041
4	0x3e063194	0.1310485
5	0x3d0d340e	0.03447347
6	0x3c846dcb	0.016165635
7	0x3b1d15e5	0.002396935
8	0x3c98d91e	0.018658217
9	0x3d506856	0.050880753
10	0xbc8ef98e	-0.017452981
11	0x3ad169d3	0.0015976973
12	0x3d79bcb1	0.060970966
13	0x3d8d5a12	0.06901945
14	0xbd3680c0	-0.04455638
15	0xbbba1ec5	-0.0056799375
16	0x3db92b11	0.090414174
17	0xbce30012	-0.027709994
18	0xbca64164	-0.020294853
19	0xbdcfb059	-0.101410575
20	0x3b8f551b	0.004374159
21	0xbe196fac	-0.14984006
22	0x3d533630	0.05156535
23	0xbe1c776c	-0.15279931
24	0x3e4b7914	0.19870406
25	0x3dc76b0f	0.09737217
26	0x3c0192c0	0.007908523
27	0x3d85299e	0.065020785
28	0xbe0893be	-0.13337609
29	0x3d8d9162	0.06912495
30	0x3ab95abf	0.0014141424
31	0xbcb8d9ef	-0.022564856

nets.3.conv.weight f4 [16, 32, 3]
0	0x3daad1d2	0.08340801
1	0xbd7682da	-0.060183384
2	0x3c5a3b63	0.013319823
3	0xbd87c62e	-0.06629597
4	0x3d044578	0.032292813
5	0xbdb584d8	-0.088632286
6	0xbd36aabe	-0.044596426
7	0xbdfda29f	-0.12384533
8	0xbbcb42b4	-0.00620302
9	0x3e1f8daa	0.15581384
10	0xbbd12986	-0.006383124
11	0x3e0696f1	0.13143517
12	0x3e321598	0.1739105
13	0xbd6f6915	-0.058449823
14	0x3cc3ea12	0.023915324
15	0xbd5a00ce	-0.053223424
16	0xbe119fe3	-0.14221148
17	0xbd789e6f	-0.06069797
18	0xbe3e8c6d	-0.18608256
19	0xbc9e0870	-0.019291133
20	0xbc848963	-0.016178792
21	0xbc3ab06f	-0.011394604
22	0x3cfc1333	0.030770874
23	0x3c4db1d6	0.012554606
24	0xbcbdb3ed	-0.023157084
25	0x3ce366ae	0.027758922
26	0x3db997bb	0.090621434
27	0xbc9e80d1	-0.019348534
28	0x3db0372e	0.08604275
29	0x3be2cf08	0.0069216527
30	0xbcaf5201	-0.021401407
31	0x3cd5ae77	0.026084168
32	0xbe239185	-0.1597348
33	0x3c5b9217	0.01340153
34	0xbd5a403d	-0.05328392
35	0xbd1bcb9d	-0.038035978
36	0x3e085cd5	0.13316663
37	0xbe52dad4	-0.20591289
38	0x3d927174	0.07150546
39	0x3c575d71	0.013144837
40	0x3de843bf	0.113410465
41	0x3d482d88	0.048871547
42	0x3d1c9f14	0.038237646
43	0xbda067c0	-0.07832289
44	0x3dae5afb	0.08513447
45	0xbc9c67aa	-0.0190924
46	0x3c2b7721	0.010465414
47	0xbe26671b	-0.16250269
48	0xbd3e7715	-0.046500284
49	0xbcd92994	-0.026509084
50	0x3e0bf6a7	0.13668309
51	0xbda304a0	-0.079598665
52	0xbdaf6962	-0.08565022
53	0x3dafd07c	0.08584687
54	0x3d995451	0.07486785
55	0x3d1137f2	0.035453744
56	0xbc9a1fef	-0.018814055
57	0xbd5f2756	-0.054480873
58	0x3d1b2a94	0.037882403
59	0xbd42928f	-0.04750305
60	0xbe477a71	-0.19480301
61	0x3da6646b	0.08124622
62	0xbdc959aa	-0.09831555
63	0x3e055dfb	0.13024132
64	0xbc8c248c	-0.01710727
65	0xbddf0e3d	-0.108913876
66	0xb88e9905	-6.79959e-05
67	0xbd9e7bb8	-0.07738441
68	0x3daefdb4	0.08544484
69	0xbddd3e0c	-0.1080285
70	0x3cd339ea	0.025784452
71	0xbcc54ad2	-0.024083529
72	0xbd918de0	-0.07107139
73	0xbdc5d921	-0.09660555
74	0xbe08efd3	-0.13372736
75	0x3e122c85	0.14274795
76	0x3d568c2d	0.052379776
77	0x3da6356c	0.08115658
78	0xbe36fbcc	-0.1786949
79	0x3de9af87	0.11410432
80	0xbe1dfa6d	-0.15427561
81	0x3caea36d	0.021318162
82	0xbc1df8a9	-0.009641805
83	0x3d9b1a58	0.07573384
84	0xbdf45ffd	-0.11932371
85	0x3e2f2cb6	0.171069
86	0xbe181428	-0.14851439
87	0x3c3f4330	0.011673734
88	0x3d60c054	0.05487092
89	0x3d83e3e8	0.06439954
90	0x3dea9e64	0.11455992
91	0xbe035eb2	-0.12829092
92	0x3d057c7b	0.032589417
93	0xbdf98c0c	-0.12184915
94	0x3daaa7b7	0.0833277
95	0xbdd7e4b7	-0.10541671
96	0xbe4e26a2	-0.20131925
97	0xbdfd2b60	-0.12361789
98	0x3e0caef3	0.13738613
99	0x3d6f9b8f	0.05849796
100	0x3e1bdd4b	0.15221135
101	0xbd5a8e8a	-0.053358592
102	0x3c3ab9c8	0.011396833
103	0x3cdb8a13	0.026799237
104	0xbd8215a4	-0.06351784
105	0xbd80f87c	-0.06297395
106	0x3cdc1952	0.026867542
107	0x3d304b2b	0.043040436
108	0xbd64940a	-0.055805244
109	0x3ba856f9	0.005137321
110	0x3e128724	0.14309365
111	0x3e509c71	0.20372178
112	0xbc60464e	-0.013688637
113	0xbd607272	-0.054796644
114	0x3d46e8cd	0.04856186
115	0x3d8fabfc	0.07015225
116	0xbd9f425e	-0.077763304
117	0xbe225023	-0.15850882
118	0xbc0de7a8	-0.008661188
119	0x3e198ac4	0.14994341
120	0x3b475190	0.0030413605
121	0xbd22e92a	-0.039773144
122	0xbc062123	-0.008186611
123	0xbe03effc	-0.12884516
124	0xbd9db61b	-0.077007495
125	0xbd002fd3	-0.03129561
126	0x3e2c2a8e	0.16813108
127	0x3d8247b7	0.06361335
128	0x3d8f026d	0.069828846
129	0x3df94ce1	0.121728666
130	0xbbde03d1	-0.0067753573
131	0x3d0eeff3	0.034896802
132	0xbd8f8f0c	-0.07009706
133	0xbe0996c8	-0.13436425
134	0x3bb2fe59	0.0054624495
135	0x3c5d3b52	0.013502913
136	0xba55685b	-0.00081408554
137	0xbdd355c8	-0.10319096
138	0xbd464688	-0.048407108
139	0xbd1bffc3	-0.03808571
140	0xbbba3148	-0.0056821443
141	0x3c65e6b5	0.014032056
142	0x3d825014	0.0636293
143	0xbe3223a9	-0.17396416
144	0xbdc44ac8	-0.09584576
145	0xbc29a21a	-0.010353589
146	0x3d023918	0.03179273
147	0x3d5cf270	0.053942144
148	0xbe08566b	-0.13314216
149	0xbc8f4c11	-0.017492326
150	0x3d0e8c0f	0.03480154
151	0x3d8ffd43	0.07030728
152	0xbdc38fc0	-0.095489025
153	0xbbd72de6	-0.006566751
154	0x3d46c181	0.048524383
155	0x3dd7933c	0.105261296
156	0x3e5730da	0.21014729
157	0x3cf47a3f	0.029843448
158	0xbc5df436	-0.013546994
159	0x3c63ff31	0.013915823
160	0xbe3525a9	-0.17690147
161	0x3e486ce2	0.19572785
162	0xbe3256fd	-0.17415996
163	0xbc9bc338	-0.019013986
164	0x3daaed9a	0.083461
165	0x3d42e68e	0.047583155
166	0x3df426e5	0.11921481
167	0xbdafeec4	-0.08590463
168	0x3d1852b7	0.037188258
169	0x3d3cf17b	0.04612873
170	0x3e048c29	0.12944092
171	0x3dc7db1c	0.09758589
172	0x3d3a6a7f	0.04551172
173	0x3e224a25	0.15848596
174	0x3d014dc6	0.03156831
175	0x3e0541d7	0.13013397
176	0xbd1be1d9	-0.038057182
177	0xbe516d35	-0.20451815
178	0xbe06dbd0	-0.1316979
179	0x3dc020bd	0.09381244
180	0x3dbc5712	0.09196295
181	0xbd8ef66d	-0.06980596
182	0xbbe8d9cb	-0.007106041
183	0x3e13d5b2	0.14436987
184	0xbd6aed66	-0.057355307
185	0x3d36b1f1	0.044603292
186	0xbe0e8a06	-0.1391984
187	0x3dab928a	0.083775595
188	0x3d8237bb	0.06358286
189	0x3d8e03aa	0.069342926
190	0x3d5e829f	0.05432379
191	0xbdfbe63e	-0.122997746
192	0x3da9ddb3	0.08294239
193	0x3e36f62e	0.17867348
194	0xbdaa06f2	-0.08302106
195	0xbd7df779	-0.062003586
196	0x3d112e02	0.035444267
197	0xbddb3844	-0.10704091
198	0x3db7c891	0.08973802
199	0xbc23b789	-0.009992489
200	0x3df0a7ba	0.11750741
201	0x3e07e46c	0.1327073
202	0x3ba6f779	0.005095419
203	0x3e38ae44	0.18035227
204	0x3cfb2506	0.030657303
205	0x3c48bb13	0.012251633
206	0x3dd3457a	0.10315986
207	0x3d4c268f	0.04984146
208	0x3d2f1685	0.042746086
209	0x3e08d6ba	0.13363162
210	0xbdb8232b	-0.08991083
211	0x3d221873	0.039574098
212	0x3e019f6a	0.12658468
213	0x3e413708	0.18868649
214	0xbc3cb348	-0.011517353
215	0x3e04900c	0.12945575
216	0x3d9bce72	0.07607736
217	0x3c708681	0.014680506
218	0xbd29aead	-0.04142635
219	0xbde5eaed	-0.11226449
220	0xbdf90c58	-0.121605575
221	0xbe20c372	-0.15699556
222	0xbe21003e	-0.15722749
223	0x3d3acefe	0.04560756
224	0x3d962535	0.073313154
225	0x3cb7a9e1	0.022419872
226	0x3e1a345d	0.15059038
227	0x3e5f42c4	0.21802813
228	0x3de8dcc2	0.11370231
229	0xbddf0eac	-0.1089147
230	0x3dac0c6b	0.08400806
231	0xbdae8351	-0.0852114
232	0xbd2666f8	-0.040625542
233	0x3cebc6af	0.028781263
234	0x3d11fff7	0.035644498
235	0xbdc25af3	-0.094900034
236	0xbd0e2f0d	-0.03471284
237	0xbdff7b38	-0.12474674
238	0x3c4bb917	0.012434266
239	0xbe369ea6	-0.17833957
240	0x3da7a2d2	0.081853524
241	0xbe31e180	-0.17371178
242	0xbc934b2e	-0.017980184
243	0x3e663235	0.2248009
244	0x3d25e265	0.04049911
245	0xbd65a293	-0.056063246
246	0x3e072eba	0.13201419
247	0x3cfbf97f	0.030758617
248	0xbc97055c	-0.018435173
249	0xbc895cb6	-0.01676784
250	0x3da3ce3b	0.0799832
251	0xbb9f8b96	-0.004868935
252	0xbc09b36f	-0.008404597
253	0xbc85f7d2	-0.016353521
254	0xbdeddbb7	-0.11614173
255	0x3c6d0b59	0.0144680375

nets.3.conv.bias f4 [16]
0	0x3db0deb5	0.08636228
1	0xbbbf3460	-0.005835101
2	0x3e2864ef	0.16444753
3	0x3e1ac048	0.15112412
4	0xbde340c9	-0.11096341
5	0x3dad8987	0.08473497
6	0x3cf6e4eb	0.030138453
7	0x3e68f994	0.22751456
8	0xbd02ee59	-0.031965587
9	0x3d38de83	0.04513408
10	0x3dab6822	0.08369471
11	0xbdcd0cfe	-0.10012244
12	0xbd428899	-0.04749355
13	0xbda5a302	-0.08087732
14	0xbda4bc87	-0.08043771
15	0x3d34d4f0	0.044148386

nets.3.bn.weight f4 [16]
0	0x3f859332	1.0435545
1	0x3f895fd6	1.0732372
2	0x3f89d3c7	1.0767754
3	0x3f87abf8	1.0599356
4	0x3f6ff732	0.93736565
5	0x3f8cd2a9	1.1001788
6	0x3f7cea23	0.98794764
7	0x3f8b70bf	1.0893782
8	0x3f84cc69	1.0374881
9	0x3f80de6c	1.0067878
10	0x3f7daeeb	0.9909503
11	0x3f79f0a7	0.9763283
12	0x3f7e67c6	0.99377096
13	0x3f808a50	1.004221
14	0x3f76f9e5	0.9647506
15	0x3f7e33e2	0.99297917

nets.3.bn.bias f4 [16]
0	0x3c4224ea	0.011849621
1	0xbd7e1432	-0.06203098
2	0x3b5f275f	0.0034050567
3	0xbd2e3471	-0.04253048
4	0x3bac2573	0.0052534877
5	0x3b15aba8	0.002283791
6	0x3d2d1580	0.042256832
7	0x3d39e305	0.04538252
8	0xbb8a8de8	-0.0042283423
9	0xbcee5644	-0.029093869
10	0xbd80e49e	-0.06293605
11	0xbde2ae04	-0.11068347
12	0xbd2e925e	-0.042620055
13	0xbd62c49b	-0.05536328
14	0x3da56b47	0.08077102
15	0xba4b5a65	-0.0007757305

nets.3.bn.running_mean f4 [16]
0	0xbfe93455	-1.8219095
1	0xbc2b2036	-0.010444691
2	0x3f105eda	0.5639473
3	0xc035177b	-2.8295581
4	0xbf7dd3ca	-0.9915129
5	0x3f98add1	1.1928045
6	0x3e69c809	0.22830214
7	0xbd3ae250	-0.045625985
8	0x3e440bd7	0.19145142
9	0xbeb78ce8	-0.3584969
10	0xbe8f675b	-0.2800854
11	0xbfa6ca2a	-1.3030446
12	0x3fe83ac2	1.8142931
13	0xbfd04d89	-1.6273662
14	0x3ff48c58	1.910533
15	0x40064a62	2.09829

nets.3.bn.running_var f4 [16]
0	0x41939dfb	18.452139
1	0x41d1f9dc	26.247002
2	0x413603a4	11.375889
3	0x4168e52c	14.55595
4	0x41897833	17.183691
5	0x415c9eeb	13.788798
6	0x4128f3b5	10.559499
7	0x42016927	32.352688
8	0x41eafd71	29.37375
9	0x4191b916	18.215374
10	0x41204fb8	10.019463
11	0x4128fc64	10.561619
12	0x4105ac28	8.35453
13	0x41ae64d3	21.79923
14	0x4132d702	11.177492
15	0x4114d580	9.302124

nets.3.skip_net.weight f4 [16, 32, 1]
0	0x3e26abb2	0.16276434
1	0xbe96072f	-0.29302356
2	0x3bc3e1f8	0.0059778653
3	0xbd968fbf	-0.07351636
4	0xbe5645f3	-0.20925121
5	0xbe71d850	-0.23617673
6	0xbd603b37	-0.05474397
7	0xbe58b03b	-0.21160977
8	0xbe23a7d4	-0.1598199
9	0xbcd4f2a9	-0.025994616
10	0x3dd1c530	0.10242689
11	0xba717e93	-0.00092122814
12	0xbb41c7a2	-0.0029568453
13	0xbdc1b129	-0.09457619
14	0xbe7f39a5	-0.24924333
15	0xbdb03fb3	-0.086059
16	0x3d9030b3	0.07040539
17	0xbca7179a	-0.020396996
18	0xbdd7b2f3	-0.10532179
19	0x3dbb7987	0.09154039
20	0xbae48f78	-0.0017437777
21	0xbe166576	-0.14687142
22	0xbdb82d85	-0.08993057
23	0xbbfc58db	-0.007701022
24	0xbd8ccd5e	-0.06875108
25	0x3e8a6299	0.2702835
26	0xbe1d5245	-0.15363415
27	0xbe4e47ba	-0.20144549
28	0xbe6add80	-0.22936058
29	0x3dde1c46	0.108452365
30	0xbcc98e82	-0.024604086
31	0xbe844167	-0.25831148
32	0x3dcd098a	0.10011585
33	0xbd20820c	-0.039186522
34	0xbc57a24d	-0.013161254
35	0x3cca6537	0.024706466
36	0xbdb6e459	-0.089302726
37	0xbdb54e1b	-0.08852788
38	0x3d60324f	0.054735478
39	0x3cf55f5e	0.029952701
40	0x3d6d8d83	0.057996284
41	0x3cf268e6	0.029591035
42	0x3d499fb0	0.049224555
43	0x3b9685a8	0.00459357
44	0x3dd4eac4	0.103963405
45	0xbdc82913	-0.09773459
46	0xbe151fb9	-0.14562882
47	0xbe173da1	-0.14769603
48	0xbd8e464a	-0.06947
49	0x3c659319	0.014012122
50	0xbdaab59d	-0.08335421
51	0x3c855484	0.016275652
52	0xbdb2eb84	-0.08736327
53	0x3df38c09	0.11891944
54	0xbdda6d23	-0.106653474
55	0x3d517a1e	0.05114185
56	0xbe01c573	-0.12672977
57	0xbe27bd3b	-0.1638078
58	0xbb99050a	-0.00466979
59	0x3dc8e769	0.09809763
60	0xbc50367c	-0.012708303
61	0xbe2c0586	-0.16798982
62	0xbe161173	-0.14655094
63	0xbd93d13f	-0.07217645
64	0xbd3d62be	-0.046236746
65	0xbdc3cfc0	-0.095611095
66	0xbc84371d	-0.016139561
67	0x3c15039a	0.009095097
68	0x3dfa96c7	0.1223579
69	0xbe36fa48	-0.17868912
70	0x3dabeea0	0.083951235
71	0xbc31a40f	-0.010842337
72	0x3e1b6f70	0.15179229
73	0x3e0fc114	0.14038497
74	0xbdbd186d	-0.092331745
75	0xbc8bd588	-0.017069593
76	0x3c1bf88f	0.00951971
77	0xbdd55f24	-0.10418537
78	0xbe4325b3	-0.1905735
79	0xbc4150fe	-0.011799095
80	0x3d99e743	0.07514813
81	0xbe3be1c0	-0.18347836
82	0xbdac4a78	-0.08412641
83	0xbde04562	-0.10950734
84	0x3ce25138	0.027626619
85	0x3d5f04ae	0.054447822
86	0xbe74e302	-0.23914722
87	0xbda7ce90	-0.081936955
88	0x3dad1475	0.084511675
89	0x3dab64f9	0.083688684
90	0xbcc48fd4	-0.023994364
91	0xbe212757	-0.15737663
92	0xbcc1c3f7	-0.023653014
93	0xbd8b8448	-0.0681234
94	0xbd223463	-0.03960074
95	0x3b573bd7	0.0032842064
96	0xbd2ffa07	-0.042963054
97	0xbe02b996	-0.12766108
98	0xbe8fac42	-0.2806111
99	0xbe4312e8	-0.19050181
100	0xbe9a6d41	-0.3016148
101	0xbdf407ba	-0.11915536
102	0xbb71cc51	-0.0036895464
103	0xbe9230e3	-0.28552923
104	0xbda2a742	-0.07942058
105	0x3d4ca6df	0.04996383
106	0xbe077ba9	-0.13230766
107	0xbdbcfff7	-0.09228509
108	0xbde80c75	-0.11330501
109	0xbdd8c96a	-0.10585292
110	0xbe4fcc0f	-0.20292686
111	0xbe63d703	-0.22249989
112	0x3c15f781	0.009153248
113	0xbc87ac19	-0.016561555
114	0xbe426098	-0.1898216
115	0x3e15ccaf	0.14628862
116	0x3ce43814	0.027858771
117	0x3c2e37a8	0.010633387
118	0xbe279a0a	-0.16367355
119	0x3df8f9fd	0.121570565
120	0xbba2c69d	-0.004967524
121	0xbe2139a9	-0.15744652
122	0x3de958ac	0.11393866
123	0x3de8896f	0.113543384
124	0xbc554d28	-0.013018884
125	0xbe023b88	-0.12718022
126	0xbea0346d	-0.31289998
127	0x3d860f56	0.06545894
128	0x3eb29163	0.34876546
129	0x3de21390	0.110388875
130	0x3e070df0	0.1318891
131	0x3e1bf645	0.15230663
132	0x3e608f58	0.21929681
133	0xbe813a13	-0.2523962
134	0x3c1daab4	0.009623218
135	0xbd111aaf	-0.035425838
136	0xbd901883	-0.07035925
137	0xbceea929	-0.029133396
138	0x3e346c04	0.1761933
139	0x3d220abe	0.039561026
140	0x3dbff787	0.09373384
141	0x3c9b2481	0.018938305
142	0x3ca73ecf	0.020415692
143	0x3e2e036b	0.16993491
144	0x3e2a025b	0.16602461
145	0xbea6e7fa	-0.3259886
146	0xb9ac6ae3	-0.00032886033
147	0xbe8fa1fe	-0.28053278
148	0xbddba0a5	-0.10724
149	0x3dcc22e7	0.099675946
150	0xbe117bd0	-0.14207387
151	0xbc745c51	-0.014914588
152	0xbd88fc58	-0.06688756
153	0x3d7ac478	0.061222523
154	0xbe76d9c5	-0.2410651
155	0x3da7a592	0.08185877
156	0xbb89ab3a	-0.00420132
157	0xbd918866	-0.07106094
158	0xbe1e3fb1	-0.15453984
159	0xbdd89ba8	-0.10576564
160	0x3d7d7881	0.0618825
161	0xbe21a5c9	-0.15785898
162	0x3c51c14b	0.012802432
163	0x3d8d60d4	0.06903234
164	0xbe737221	-0.23774005
165	0x3dfc6db7	0.12325614
166	0xbda06fdd	-0.07833836
167	0xbd8f8ab1	-0.07008875
168	0x3dace89b	0.084428035
169	0xbe5733a2	-0.2101579
170	0xbda5bb6f	-0.08092391
171	0xbe0c03e9	-0.13673367
172	0xbdc0907b	-0.094025575
173	0xbe8db73d	-0.27678862
174	0xbcdd1127	-0.026985718
175	0xbd74c886	-0.059761547
176	0xbe28faa9	-0.1650187
177	0x3d8269d2	0.0636784
178	0x3e16eb03	0.14738087
179	0x3e9a1c25	0.30099598
180	0x3d693e9a	0.056944467
181	0x3e5eae81	0.21746255
182	0x3d19b45d	0.037525523
183	0xbdd29ee7	-0.102842145
184	0xbc9308f2	-0.017948601
185	0x3de91596	0.1138107
186	0xbda0d18d	-0.07852469
187	0xbe1ed01f	-0.1550908
188	0x3e1fec33	0.15617447
189	0x3e07873a	0.13235179
190	0xbda2eda6	-0.07955484
191	0x3dc001a5	0.09375314
192	0x3e3cf8a5	0.18454225
193	0x3bcbdaa5	0.006221133
194	0xbdaee023	-0.085388444
195	0xbe0363ba	-0.12831011
196	0x3d0db603	0.034597408
197	0x3e0ee00b	0.13952653
198	0xbd2b07ca	-0.041755475
199	0xbd88a8fc	-0.06672856
200	0xbd161476	-0.036640607
201	0x3baad194	0.005212972
202	0x3e0c2644	0.13686472
203	0x3e4bcb99	0.19901885
204	0x3e5a84ae	0.21339676
205	0xbc5a0c43	-0.0133085875
206	0xbdae7478	-0.085183084
207	0xbcc1453e	-0.023592588
208	0x3d8c60d5	0.06854407
209	0xbd4f4677	-0.05060431
210	0x3e4bdbc7	0.19908057
211	0x3a94e853	0.0011360742
212	0xbe3035f7	-0.17208086
213	0x3dd82154	0.10553232
214	0x3e736a03	0.23770909
215	0xbe0b70d9	-0.13617267
216	0xbdb892e7	-0.090123944
217	0x3e0922be	0.1339216
218	0x3dc39c66	0.09551315
219	0x3dbd5241	0.09244204
220	0x3d843d8e	0.06457053
221	0xbdcb8aae	-0.099385604
222	0x3d4f8364	0.050662413
223	0xbd6abd52	-0.057309456
224	0x3e3d3425	0.18476923
225	0xbe14f16e	-0.14545223
226	0x3e926188	0.28590035
227	0xbe0d54b3	-0.13801841
228	0xbd232892	-0.039833613
229	0x3d80354b	0.06260165
230	0x3daf0252	0.085453644
231	0x3d5c437d	0.0537753
232	0xbdad87d6	-0.08473174
233	0x3d5d100a	0.053970374
234	0x3e42bd27	0.19017468
235	0xbd9f64bc	-0.077828854
236	0xbe657336	-0.2240723
237	0xbe171f66	-0.14758071
238	0x3d3fdc47	0.046840932
239	0x3df3040e	0.11866008
240	0xbdfc25c6	-0.12311892
241	0xbe594866	-0.21219024
242	0xbe297122	-0.16547063
243	0xbe21f030	-0.1581428
244	0xbdbf6adc	-0.09346554
245	0x3cb33409	0.021875398
246	0x3e363156	0.17792258
247	0xbe1d85f7	-0.15383135
248	0x3e1f9125	0.15582712
249	0xbd0cf792	-0.03441579
250	0x3d3178f9	0.04332826
251	0xbd9d81a7	-0.07690745
252	0x3db9e5d3	0.090770386
253	0xbc86e4dc	-0.01646655
254	0xbe007e2a	-0.12548128
255	0xbd91cf60	-0.07119632

nets.3.skip_net.bias f4 [16]
0	0x3dec47f2	0.1153716
1	0xbbdc574c	-0.006724274
2	0xbe154093	-0.14575414
3	0xbe60701c	-0.21917766
4	0xbc82ed35	-0.01598225
5	0xbd27bb31	-0.040950004
6	0x3e215180	0.15753746
7	0xbcf3f6f7	-0.029780848
8	0xbdd9a54e	-0.106272325
9	0x3ba8a4f0	0.005146615
10	0x3d398ee3	0.045302283
11	0x3b700e90	0.0036629774
12	0xbdbae542	-0.09125759
13	0x3dbeda89	0.09319026
14	0x3e196e86	0.14983568
15	0x3c131eae	0.008979483
