scalar_lattice/ar_gauss_2d_chkpt.pth (torch, 112878 bytes, 32 tensors)

nets.0.0.weight f4 [32, 4, 3]
0	0xbda1d4d2	-0.079019204
1	0x3d61785e	0.05504643
2	0xbdd06c23	-0.101768754
3	0x3b90ddee	0.0044209873
4	0xbe7530f1	-0.23944451
5	0x3e3bc95b	0.1833853
6	0xbe952bff	-0.2913513
7	0x3e0faf85	0.14031799
8	0x3d0415f3	0.032247495
9	0xbe759f41	-0.23986532
10	0xbe501ec6	-0.20324239
11	0xbd82bd07	-0.0638371
12	0xbe0e5525	-0.13899668
13	0xbd951f26	-0.07281332
14	0x3afb87d0	0.0019190256
15	0xbe7431cb	-0.2384712
16	0x3ef29c6b	0.47384962
17	0x3d6d36ca	0.05791358
18	0x3eb299a9	0.34882858
19	0xbe8f8fce	-0.28039402
20	0xbe7ab5f4	-0.24483472
21	0x3e1ac724	0.15115029
22	0xbe1a55bb	-0.15071766
23	0xbcb5c737	-0.02218972
24	0xbe893f8d	-0.26806298
25	0xbdb886a8	-0.09010059
26	0x3e30a0ab	0.1724879
27	0xbe688e6f	-0.22710584
28	0xbdbf0ec4	-0.09328988
29	0xbd46fd6e	-0.048581533
30	0xbe5dbf5b	-0.21655028
31	0xbd8fd75e	-0.070235
32	0x3e4513a6	0.19245777
33	0xbe6304c8	-0.22169793
34	0xbad31f01	-0.0016107262
35	0x3e5d897c	0.21634477
36	0x3d5b67ac	0.053565666
37	0xbe011306	-0.12604913
38	0x3da2348a	0.07920177
39	0xbe1e1f25	-0.15441568
40	0x3c3223a9	0.01087276
41	0xbe037b75	-0.12840064
42	0x3dd1b76d	0.10240064
43	0x3e398087	0.18115436
44	0xbec538e9	-0.38519982
45	0xbd944510	-0.07239735
46	0x3bcab94b	0.0061866394
47	0xbb5c6cc7	-0.0033634172
48	0xbd75cb40	-0.060008287
49	0xbdfb3b9e	-0.122672305
50	0xbc85743e	-0.01629078
51	0x3d9e2991	0.07722772
52	0x3d190d7a	0.037366368
53	0xbd21ffa7	-0.03955045
54	0xbe90563f	-0.281908
55	0xbe1a8a94	-0.15091926
56	0x3e7276f2	0.23678187
57	0x3d966753	0.07343926
58	0x3d0fc5b8	0.03510067
59	0xbe8403ba	-0.25784093
60	0xbd2bad31	-0.041913215
61	0x3d4edf11	0.0505057
62	0x3e0cbded	0.13744326
63	0xbde6d970	-0.11271942
64	0x3ef276bf	0.4735622
65	0xbe01c31d	-0.12672086
66	0xbd0598de	-0.03261649
67	0xbeb44b99	-0.35213926
68	0xbd5cd892	-0.053917475
69	0x3e39ef55	0.18157704
70	0xbcf9f3f5	-0.030511836
71	0xbe455755	-0.19271596
72	0x3ce690b1	0.028145166
73	0x3daca4d7	0.08429878
74	0x3cc7a8b9	0.024372445
75	0x3ddc78e2	0.10765244
76	0xbe89d83d	-0.2692279
77	0x3dfbce7d	0.12295244
78	0xbe1e4e53	-0.15459566
79	0xbcd47dc8	-0.025938883
80	0x3d55ed12	0.05222804
81	0x3e3a06fa	0.18166724
82	0x3cd5b5e8	0.026087716
83	0xbe050179	-0.12988843
84	0x3d5a4e3a	0.05329726
85	0x3ea43670	0.32072783
86	0xbd70a160	-0.05874765
87	0x3e4cb717	0.19991718
88	0xbe9d4bd1	-0.30721906
89	0xbd8a4c7a	-0.06752868
90	0xbe725a4d	-0.2366726
91	0x3df7cfa9	0.12100155
92	0x3d1cf7d2	0.038322277
93	0x3e2064b0	0.15663409
94	0x3e096b3e	0.13419816
95	0xbc0b23c7	-0.008492417
96	0xbb7217a2	-0.0036940356
97	0x3eac5c47	0.33664152
98	0xbcb8f6ed	-0.02257868
99	0xbec4faab	-0.38472494
100	0xbec7b965	-0.39008632
101	0x3db933ab	0.09043058
102	0xbc786009	-0.015159615
103	0x3df91143	0.121614955
104	0xbdb04e77	-0.08608716
105	0xbea2db7b	-0.31808075
106	0x3da43917	0.080187015
107	0x3cc15dd2	0.023604307
108	0x3c0c1c8e	0.00855173
109	0xbec01c39	-0.37521532
110	0xbe17d3de	-0.14826915
111	0xbf01d2db	-0.50712365
112	0xbe709cd5	-0.23497327
113	0xbd3400a4	-0.043945923
114	0x3d9499b5	0.0725588
115	0xbd4878c0	-0.04894328
116	0xbe0d3747	-0.13790618
117	0xbe87ab7d	-0.26498023
118	0xbe6ac22b	-0.22925632
119	0x3daadc77	0.083428316
120	0xbe031fd0	-0.12805104
121	0x3ed93096	0.4241988
122	0x3e015fe7	0.1263424
123	0xbf20c576	-0.628013
124	0xbdd6d433	-0.104896925
125	0x3e58d22a	0.21173921
126	0x3e194ab1	0.14969899
127	0xbcf0de22	-0.029402796
128	0x3e3d8835	0.1850899
129	0xbe3fe319	-0.18738975
130	0x3d14db25	0.036341805
131	0x3e3a7cdb	0.18211691
132	0xbe41f87f	-0.1894245
133	0xbe20d385	-0.15705688
134	0xbd1e3669	-0.03862611
135	0xbe4d4e5e	-0.20049426
136	0x3ede4228	0.43409848
137	0x3c0a2f52	0.008434134
138	0x3e19aaa2	0.15006498
139	0xbe0af1f8	-0.13568866
140	0x3e245247	0.16047011
141	0x3e76bf6f	0.24096464
142	0xbe41f7d1	-0.1894219
143	0xbe163d77	-0.14671884
144	0xbd441f9b	-0.047881704
145	0x3e3d87e4	0.1850887
146	0x3e40edf1	0.18840767
147	0xbd8a8a66	-0.06764679
148	0xbdff5a59	-0.12468404
149	0x3e2d9bde	0.1695399
150	0xbe109649	-0.14119829
151	0xbe544cbc	-0.20732397
152	0xbd840651	-0.06446517
153	0xbe456c6f	-0.19279645
154	0xbdd9265c	-0.106030196
155	0x3e810f4f	0.25206992
156	0xbe648746	-0.22317228
157	0xbe71ced4	-0.23614055
158	0x3e193f3d	0.1496553
159	0x3ec5932a	0.3858884
160	0xbd59ba11	-0.053155962
161	0x3dedd96a	0.11613734
162	0x3dfe1f49	0.12408311
163	0x3e3f58ae	0.18686172
164	0xbd0751b3	-0.0330369
165	0xbc88cdc0	-0.016699672
166	0x3d70b38a	0.05876497
167	0xbcd398b6	-0.025829654
168	0x3d405357	0.04695448
169	0xbda09811	-0.07841504
170	0x3e3c0bb5	0.18363841
171	0xbdfe7a39	-0.12425656
172	0xbe8aa520	-0.27079105
173	0x3e8e70a1	0.27820304
174	0xbd7acbf7	-0.061229672
175	0xbe9d20c8	-0.30689073
176	0x3db1b66d	0.08677373
177	0xbe132e40	-0.14373112
178	0xbd93aead	-0.07211051
179	0xbddfe115	-0.10931603
180	0x3b7fea57	0.003904959
181	0xbe9257a2	-0.28582484
182	0x3da0e6ad	0.07856498
183	0x3e67ca6c	0.22635812
184	0x3e234213	0.15943174
185	0xbe3304b4	-0.17482263
186	0x3da0e004	0.078552276
187	0xbdc456b7	-0.09586852
188	0xbe68490d	-0.22684117
189	0x3db7cd72	0.089747325
190	0xbd3c3bd0	-0.04595548
191	0x3e5de1b9	0.21668138
192	0x3e3c9568	0.18416369
193	0xbd5210e2	-0.051285632
194	0xbdda77e0	-0.106673956
195	0x3d123964	0.035699263
196	0x3e30b2b3	0.17255668
197	0x3e3f9567	0.18709336
198	0xbd98fd80	-0.07470226
199	0xbe3aa536	-0.18227085
200	0x3e53b945	0.20676143
201	0x3d8c1203	0.06839373
202	0x3d83ef09	0.06442077
203	0x3e6852be	0.22687814
204	0xbe117421	-0.14204456
205	0x3ea2e35c	0.31814086
206	0xbc799092	-0.015232222
207	0xbe261bf6	-0.16221604
208	0x3e3de854	0.18545657
209	0xbe1d34fa	-0.1535224
210	0xbe2715b6	-0.16316876
211	0x3e697a55	0.22800572
212	0xbe83650c	-0.2566303
213	0x3e65d912	0.22446087
214	0x3e403468	0.18769991
215	0x3c662ae6	0.014048314
216	0x3e039fed	0.12853976
217	0x3e13d6c4	0.14437395
218	0x3e8114aa	0.25211078
219	0x3eac3f1d	0.33641902
220	0x3ef546cf	0.47905585
221	0x3e309e11	0.17247798
222	0x3e8f8997	0.2803466
223	0x3e481ce4	0.19542271
224	0x3e32a773	0.1744669
225	0x3d8b8003	0.06811526
226	0xbe595eb6	-0.21227536
227	0xbc118bbd	-0.008883414
228	0x3d8c8c1c	0.06862661
229	0xbe83a7e2	-0.25714022
230	0x3d28aa87	0.041178253
231	0xbe7964e1	-0.24354888
232	0x3e6eaf8b	0.23309152
233	0xbdc10fe7	-0.09426861
234	0xbe02b4e4	-0.12764317
235	0xbaf00a9b	-0.0018313708
236	0x3e32365f	0.17403553
237	0xbec51e4c	-0.38499677
238	0x3e7d6a29	0.24747528
239	0x3cc2c983	0.023777729
240	0xbe71b2e8	-0.23603404
241	0xbec1789c	-0.3778733
242	0xbe439c83	-0.19102673
243	0xbe936ad5	-0.28792444
244	0xbdf5399e	-0.1197388
245	0xbd5a4a76	-0.053293668
246	0x3e21a0d9	0.15784015
247	0xbdfca593	-0.12336268
248	0xbde41c1c	-0.11138174
249	0x3dc45d3a	0.09588094
250	0x3deca3a0	0.115546465
251	0x3e1007f1	0.1406553
252	0x3f12a017	0.5727553
253	0xbd17bae3	-0.037043463
254	0xbddd62ba	-0.10809846
255	0xbeff1b96	-0.49825734

nets.0.0.bias f4 [32]
0	0xbedc8147	-0.4306738
1	0x3d871f56	0.06597774
2	0x3d8cacf5	0.068689264
3	0x3dd8b217	0.10580843
4	0x3e166486	0.14686784
5	0xbec8fcc7	-0.39255354
6	0x3cbd7a32	0.023129556
7	0xbe433950	-0.19064832
8	0x3bb3f5eb	0.005491962
9	0x3c7d7c44	0.015471522
10	0xbe826706	-0.25469226
11	0xbd82fee5	-0.063962735
12	0xbe2dd066	-0.16974029
13	0xbd5c4631	-0.053777877
14	0x3e8247fe	0.2544555
15	0x3d9b2716	0.075758144
16	0xbe16a49d	-0.14711232
17	0xbe4f0de3	-0.20220141
18	0xbe83c905	-0.25739303
19	0x3d829451	0.06375945
20	0xbeb1b6fa	-0.34709913
21	0xbe1d8203	-0.15381627
22	0xbdb431ef	-0.087985866
23	0x3e4e08e7	0.20120583
24	0x3ebfad8f	0.37437102
25	0xbd896386	-0.06708436
26	0xbc636a36	-0.013880303
27	0xbde9a1b4	-0.114077955
28	0x3c2dcaf1	0.010607467
29	0x3d7c4057	0.061584797
30	0xbd33bba5	-0.043880124
31	0x3d348954	0.04407628

nets.1.conv.weight f4 [16, 32, 3]
0	0x3be6b744	0.00704089
1	0x3d72efa7	0.05931058
2	0x3cede514	0.029039897
3	0x3e3ef4e7	0.1864811
4	0x3e2849a9	0.16434349
5	0xbe62e93f	-0.22159289
6	0xbe941059	-0.28918722
7	0x3d9cc2cc	0.07654342
8	0x3df59c1d	0.11992667
9	0xbcb508d9	-0.022098945
10	0xbd2c7a7c	-0.042108998
11	0xbda05042	-0.07827808
12	0x3e3e5752	0.18587998
13	0x3c0f6142	0.008751215
14	0x3d260138	0.040528506
15	0xbad4567e	-0.0016200093
16	0x3e4bd61a	0.19905892
17	0xbe2584fa	-0.16164008
18	0xbe143e36	-0.14476857
19	0xbd91e8b6	-0.07124464
20	0xbd4f95ff	-0.050680157
21	0xbe31493a	-0.1731309
22	0xbca42bcb	-0.020040413
23	0x3dcfcd64	0.10146597
24	0xbee46ee0	-0.4461584
25	0xbe5520ad	-0.20813246
26	0x3cda2adf	0.02663177
27	0x3db555c7	0.08854251
28	0xbce49704	-0.027904041
29	0xbce1e7ca	-0.027576346
30	0xbedbe695	-0.42949358
31	0xbd1e6174	-0.038667157
32	0xbc9c16a2	-0.01905376
33	0x3dd59cc8	0.10430294
34	0x3db9bf12	0.09069647
35	0xbd18747a	-0.037220456
36	0xbe07723e	-0.13227174
37	0x3e8a229e	0.26979536
38	0x3dbe8a2b	0.09303697
39	0x3e192bb2	0.14958075
40	0x3edbb8f8	0.42914557
41	0x3d8e55d9	0.06949968
42	0xbcca1186	-0.024666559
43	0xbcc5cf33	-0.024146652
44	0xbdd18767	-0.10230904
45	0x3dde93f5	0.10868064
46	0x3e8cb801	0.27484134
47	0xbce11d15	-0.027479688
48	0x3e1869b1	0.14884068
49	0x3d60982c	0.054832622
50	0x3b548262	0.0032426347
51	0xbe55f8c5	-0.2089568
52	0x3d7d4c9f	0.06184065
53	0x3dff285d	0.124588706
54	0xbdc38efd	-0.09548757
55	0x3c854340	0.016267419
56	0xbe1e5f44	-0.15466028
57	0x3dbe2470	0.09284294
58	0x3d5277cb	0.051383775
59	0xbdfcbc58	-0.12340611
60	0x3e283f81	0.16430475
61	0x3e0a8d6a	0.13530508
62	0x3d5ef732	0.054434963
63	0x3e20a680	0.15688515
64	0xbf0065ee	-0.5015553
65	0xbe8a9d77	-0.2707326
66	0x3e9d584c	0.30731428
67	0x3e36184e	0.17782709
68	0xbd6d7a74	-0.05797811
69	0x3e24cba7	0.16093312
70	0x3d57438f	0.052554663
71	0x3dc93833	0.09825172
72	0xbcd077b2	-0.0254477
73	0x3e27c4fe	0.1638374
74	0xbe0a767f	-0.13521765
75	0xbe435ffb	-0.19079582
76	0x3d602c61	0.054729823
77	0x3e451ffe	0.19250485
78	0xbe48c904	-0.19607931
79	0xbccaf325	-0.024774143
80	0x3cf8ea73	0.030385232
81	0xbd0cd3b8	-0.0343816
82	0xbcc1a3a6	-0.023637604
83	0x3d9f4d44	0.07778409
84	0xbe0af270	-0.13569045
85	0xbd143276	-0.036180936
86	0x3d580601	0.0527401
87	0xbd746e7a	-0.05967567
88	0x3e1f0b31	0.15531613
89	0xbd6aaa60	-0.05729139
90	0x3e33b6a9	0.17550148
91	0x3d02664e	0.031835847
92	0x3e149125	0.14508493
93	0x3d9be243	0.076115154
94	0x3d8fcad5	0.07021109
95	0xbd758e74	-0.059950307
96	0xbe4e819a	-0.20166627
97	0xbc0098a4	-0.007848892
98	0xbe8439ee	-0.25825447
99	0xbd9e92d3	-0.07742848
100	0xbdfc99b9	-0.12334008
101	0x3e574623	0.21022849
102	0x3d870903	0.06593516
103	0xbd43a8c6	-0.047768377
104	0xbc242d41	-0.010020555
105	0xbcfe014b	-0.031006476
106	0x3db915f0	0.09037387
107	0x3e708877	0.23489557
108	0x3d618a66	0.055063628
109	0x3d89d611	0.06730283
110	0x3e2b1f82	0.16711238
111	0xbd27388c	-0.04082541
112	0xbf03b8ab	-0.51453656
113	0xbdd20a73	-0.10255899
114	0x3d134124	0.035950795
115	0x3d8aea36	0.067829534
116	0xbe0c56a0	-0.1370492
117	0x3e89f343	0.26943406
118	0x3e296d2b	0.1654555
119	0xbe4d7bd3	-0.20066766
120	0xbe1b7cf9	-0.15184392
121	0x3ccfdac7	0.025372876
122	0xbcdb72b3	-0.026788091
123	0x3cc039f3	0.023465132
124	0x3e6cf2d4	0.23139507
125	0x3dd2db32	0.102957144
126	0xbdc0fa3b	-0.09422728
127	0xbd729b2a	-0.059230007
128	0x3d50b9a6	0.0509583
129	0xbd9ae1b4	-0.07562581
130	0xbd807399	-0.062720485
131	0x3d82857e	0.06373118
132	0xbe807929	-0.25092438
133	0xbea3462d	-0.31889477
134	0xbe4ccda6	-0.20000324
135	0xbdd49967	-0.10380822
136	0xbe450fce	-0.1924431
137	0xbc390fe1	-0.01129529
138	0xbe53c696	-0.20681223
139	0xbc9400be	-0.01806676
140	0x3cc58b47	0.024114264
141	0x3d8070f1	0.06271542
142	0xbd946e0c	-0.07247552
143	0x3d63a8c9	0.055580888
144	0x3de0d58c	0.10978231
145	0x3e39795c	0.18112701
146	0xba741b44	-0.0009311924
147	0x3e28bfa0	0.16479349
148	0x3d8dab68	0.06917459
149	0x3d556689	0.05209974
150	0xbd1c640e	-0.038181357
151	0xbea4d568	-0.32194066
152	0xbe6d4e28	-0.23174345
153	0x3d99905c	0.074982375
154	0xbe8b5fdd	-0.27221575
155	0x3bb7ca52	0.0056088353
156	0x3e257157	0.16156517
157	0x3e9dccca	0.30820304
158	0x3ebe7c1c	0.37204063
159	0x3de4ae51	0.11166061
160	0x3df72183	0.12066939
161	0x3e06fea9	0.13183083
162	0x3dfc00db	0.12304851
163	0xbdc1ee0a	-0.094692305
164	0x3e1f8d58	0.15581262
165	0x3df9626b	0.12176975
166	0x3e70f70e	0.23531744
167	0xbe10b441	-0.14131261
168	0xbe1fc9b3	-0.15604286
169	0x3d80e4d2	0.06293644
170	0x3e4ce74f	0.20010112
171	0xbccae3cd	-0.024766827
172	0xbd8d2159	-0.06891126
173	0x3d2dcdbc	0.04243253
174	0x3b87dcec	0.004146209
175	0xbb8696f5	-0.004107351
176	0xbdf493cb	-0.11942252
177	0x3e1b34a4	0.151568
178	0xbdd4bb24	-0.10387257
179	0x3e25a089	0.1617452
180	0xbbf1b9a4	-0.0073768664
181	0xbe76d237	-0.24103628
182	0x3e02bb21	0.12766697
183	0xbde1bb7e	-0.110220894
184	0xbe393e34	-0.18090135
185	0x3ad92787	0.0016567566
186	0x3da77f38	0.08178562
187	0xbe74c64d	-0.2390377
188	0xbe7c65cd	-0.24648209
189	0xbccac82d	-0.024753654
190	0xbd2d7734	-0.04235001
191	0x3e6a5d0b	0.22887056
192	0x3e876b78	0.2644918
193	0xbd6157bc	-0.05501531
194	0x3e928888	0.2861979
195	0x3ce7cddd	0.028296405
196	0x3e02598e	0.12729475
197	0xbec4f8bf	-0.38471028
198	0xbd4e31db	-0.050340515
199	0xbbde3063	-0.0067806705
200	0xbce88e58	-0.028388187
201	0x3cd89aa4	0.026440926
202	0x3c3c26de	0.011483876
203	0xbe2d0c7b	-0.16899292
204	0xbd1de069	-0.038544092
205	0xbe2644f2	-0.16237238
206	0x3e37c932	0.17947844
207	0xbd422e5d	-0.047407497
208	0x3f09e687	0.5386738
209	0xbc852feb	-0.0162582
210	0x3e0d526b	0.13800971
211	0xbe801b29	-0.25020722
212	0xbccd2a65	-0.02504463
213	0xbe15e482	-0.1463795
214	0xbe07f2c6	-0.13276204
215	0x3df12cb6	0.11776106
216	0x3e8920f0	0.26782942
217	0xbd4230ca	-0.04740981
218	0x3e4a021c	0.19727367
219	0x3dd6ae44	0.10482457
220	0xbb595e6c	-0.0033167852
221	0xbd612a0c	-0.05497174
222	0x3de87226	0.11349897
223	0x3e2459ec	0.16049927
224	0xbc63a186	-0.013893491
225	0xbc510784	-0.0127581395
226	0x3dbbf58c	0.09177694
227	0x3b5dac77	0.003382472
228	0x3dfc3d01	0.12316323
229	0x3dd6bd81	0.10485364
230	0x3e75bda6	0.23998126
231	0xbe520d51	-0.20512892
232	0x3de15e7a	0.11004348
233	0x3cdbe01d	0.026840264
234	0x3e7e52e7	0.24836312
235	0x3e1364be	0.14393899
236	0xbcdc5d55	-0.026899973
237	0xbe60f698	-0.21969068
238	0xbc2aa698	-0.010415696
239	0xbe5a79ad	-0.21335478
240	0xbe12661c	-0.14296764
241	0xbd2d4b32	-0.04230804
242	0xbe4fe10a	-0.2030069
243	0xbde308c3	-0.110856555
244	0xbcb982d6	-0.022645395
245	0xbe8f3a2c	-0.2797407
246	0xbcbd9d7b	-0.023146382
247	0x3e76618e	0.24060652
248	0xbc962b65	-0.018331239
249	0x3da317e3	0.079635404
250	0x3e419526	0.18904552
251	0x3e51b949	0.20480837
252	0x3d074dc7	0.03303316
253	0xbdc90514	-0.09815422
254	0xbe0fc9e7	-0.14041863
255	0x3cb6cf68	0.022315696

nets.1.conv.bias f4 [16]
0	0xbe15fde2	-0.1464763
1	0xbd00b9f6	-0.031427346
2	0xbd25397c	-0.040338024
3	0x3df7de19	0.12102909
4	0x3e1bfb5b	0.15232603
5	0xbdeec66e	-0.11658941
6	0xbe661eb4	-0.2247265
7	0xbe84003c	-0.2578143
8	0x3e2a20f1	0.16614129
9	0x3e3f0160	0.18652868
10	0xbe994d21	-0.29941657
11	0x3d8f6f38	0.07003635
12	0xbeb4f395	-0.35342088
13	0xbda8ab7d	-0.08235834
14	0x3d673d08	0.05645469
15	0x3e9b8353	0.3037363

nets.1.bn.weight f4 [16]
0	0x3f38f97b	0.72255677
1	0x3f4e6a8a	0.80631316
2	0x3f61bb37	0.8817629
3	0x3f7e5c13	0.99359244
4	0x3f753db7	0.95797294
5	0x3f661d9a	0.8988892
6	0x3f296b38	0.6617923
7	0x3f75da3d	0.9603613
8	0x3f40869d	0.75205404
9	0x3f5a7cc5	0.85346633
10	0x3f4fd082	0.8117753
11	0x3f7adcec	0.9799335
12	0x3f619d46	0.88130605
13	0x3f84ccce	1.0375001
14	0x3f7850f9	0.96998554
15	0x3f4f2620	0.8091755

nets.1.bn.bias f4 [16]
0	0xbecd198f	-0.40058562
1	0x3de1a6c6	0.11018138
2	0xbe0a0353	-0.1347783
3	0xbe5b1e7b	-0.21398346
4	0x3d8ce85e	0.06880258
5	0xbd821bd2	-0.063529626
6	0x3db54a3c	0.0885205
7	0x3e64aa7b	0.22330658
8	0xbe879d78	-0.26487327
9	0x3c60c1c5	0.013718073
10	0xbd85a3c2	-0.06525375
11	0xbe4eb45a	-0.20185986
12	0xbcb2e13d	-0.021835918
13	0xbd61cd67	-0.055127528
14	0xbe672ea2	-0.22576383
15	0xbe7eb4f6	-0.24873719

nets.1.bn.running_mean f4 [16]
0	0xbd96707a	-0.07345672
1	0x3efa200b	0.48852572
2	0xbf8a384f	-1.0798434
3	0x3ed8baeb	0.42330107
4	0x3d98f345	0.07468275
5	0xbd7d9983	-0.06191398
6	0x3ebee0ab	0.37280783
7	0xbd2b9a1b	-0.041895013
8	0xbe0ec44e	-0.13942072
9	0xbebf583d	-0.37372008
10	0xbeb9ffad	-0.36327878
11	0xbea258e2	-0.31708437
12	0x3f57beb0	0.8427534
13	0xbdb171d3	-0.08664288
14	0x3f18ed07	0.59736675
15	0x3eb29699	0.34880522

nets.1.bn.running_var f4 [16]
0	0x3f6c917e	0.92409503
1	0x3f46687e	0.7750319
2	0x3ea95ba0	0.33077717
3	0x3e6fbca8	0.2341181
4	0x3f3ad334	0.7297852
5	0x3ede3721	0.43401435
6	0x3fa2559e	1.2682378
7	0x3e399cfb	0.1812629
8	0x3f385e52	0.7201892
9	0x3e877340	0.26455116
10	0x3e88328a	0.26601058
11	0x3f28fa2b	0.66006726
12	0x3f9aa768	1.2082338
13	0x3f08cbeb	0.53436154
14	0x3f826451	1.0186864
15	0x3f1a6b2f	0.603198

nets.1.conv2.weight f4 [64, 32, 3]
0	0xbd493ea1	-0.049131993
1	0xbe0d1281	-0.1377659
2	0x3d70249e	0.05862867
3	0xbd7a29b5	-0.06107493
4	0x3dc0ed6f	0.09420287
5	0x3b400ce3	0.0029304556
6	0x3d105682	0.03523875
7	0x3a582d91	0.0008246536
8	0xbe20b4df	-0.15693997
9	0xbe02e80e	-0.12783834
10	0xbdb313a8	-0.087439835
11	0xbe2539d1	-0.16135336
12	0xbd8e4ccc	-0.069482416
13	0xbdd48e6f	-0.103787296
14	0x3dc5a7c2	0.09651138
15	0xbd304a7a	-0.043039776
16	0x3d4cdb73	0.05001397
17	0xbe120f46	-0.14263639
18	0xbe2c48c2	-0.1682463
19	0x3da93b4b	0.08263262
20	0x3e6b6d46	0.22990903
21	0xbd88a83b	-0.066727124
22	0x3e03d648	0.1287471
23	0x3d361328	0.044451863
24	0x3d47d2c4	0.048784986
25	0xbd08d85f	-0.033409473
26	0xbb89bed4	-0.0042036567
27	0xbda219f9	-0.0791511
28	0xbe5c850a	-0.21535125
29	0xbca597a5	-0.020213911
30	0x3d8031e3	0.06259515
31	0x3dabe2d9	0.08392877
32	0xbcbc63b3	-0.022996759
33	0xbd9709c8	-0.073749125
34	0xbc0cddaf	-0.008597775
35	0xbe4910c4	-0.19635302
36	0x3d3fbd91	0.046811644
37	0xbdfdd98d	-0.1239501
38	0x3dcc0c98	0.099633396
39	0xbe70b6e3	-0.23507266
40	0xbc9edd32	-0.019392584
41	0x3d1029e4	0.0351962
42	0x3dd77e1e	0.10522102
43	0xbcc78500	-0.024355412
44	0xbc19097c	-0.00934064
45	0x3dfb1e5e	0.122616515
46	0xbbb3a76c	-0.0054826047
47	0x3c13b2c2	0.009014787
48	0x3d01f988	0.031732112
49	0x39989801	0.0002910495
50	0x3c3ae330	0.011406705
51	0x3d247a4e	0.0401557
52	0xbd10e320	-0.035372853
53	0xbd6a798a	-0.057244815
54	0xbc9061ef	-0.017624823
55	0xbde957c3	-0.11393692
56	0xbce21ba8	-0.027601078
57	0x3db66e64	0.08907774
58	0x3b9a8ec2	0.004716725
59	0x3e57b834	0.21066362
60	0x3d84c3bf	0.06482648
61	0x3d855395	0.06510083
62	0xbe297fbb	-0.16552632
63	0xbc82ef76	-0.015983324
64	0x3dfbb077	0.122895174
65	0x3b89121d	0.0041830675
66	0x3e3bde4b	0.18346517
67	0xbe2356f0	-0.15951133
68	0xbe6a21fe	-0.2286453
69	0xbd4478fb	-0.04796694
70	0xbdfb372e	-0.12266384
71	0xbdd71a8a	-0.10503109
72	0x3de3b223	0.11117961
73	0xbe257cc1	-0.16160871
74	0xbcb58ace	-0.022160914
75	0xbc9c89ab	-0.019108614
76	0xbde066a0	-0.10957074
77	0xbdb28578	-0.087168634
78	0x3d24db93	0.040248465
79	0xbd9317f9	-0.07182307
80	0xbde2692f	-0.110552184
81	0x3da1c300	0.078985214
82	0x3d365151	0.044511143
83	0x3dc0f5f9	0.094219156
84	0x3cbeb4e8	0.023279622
85	0x3d100293	0.035158705
86	0xbe43f5ab	-0.19136684
87	0x3e7e71ed	0.24848147
88	0x3c1c0820	0.0095234215
89	0x3d021fe0	0.03176868
90	0x3cdbe79c	0.026843838
91	0x3de7ad0a	0.113123015
92	0xbe225afc	-0.1585502
93	0xbdab2305	-0.08356289
94	0x3e12b783	0.14327817
95	0x3d83c23a	0.0643353
96	0x3ddcd932	0.10783614
97	0x3dc766b8	0.09736389
98	0xbc6d08a2	-0.01446739
99	0xbe1c4bd2	-0.15263298
100	0x3c99bc09	0.01876642
101	0xbe19bb43	-0.15012841
102	0x3d8fa014	0.07012954
103	0xbdd67257	-0.10471027
104	0x3c3ba3fc	0.011452671
105	0x3d820b09	0.06349761
106	0x3e36b9be	0.17844293
107	0x3e2fcd8e	0.17168257
108	0x3d8ab23a	0.06772275
109	0xbe1c2f9c	-0.15252537
110	0xbe2bf5e7	-0.16793023
111	0x3bed05ef	0.0072333734
112	0x3e039e27	0.12853299
113	0x3d02d09f	0.031937238
114	0xbe2a0f44	-0.16607386
115	0xbd53aa33	-0.051675986
116	0xbed25af1	-0.41085008
117	0xbdc84cfe	-0.0978031
118	0xbe24bcb5	-0.16087611
119	0xbe6a1913	-0.22861128
120	0x3debe90e	0.11519061
121	0xbe27b433	-0.16377334
122	0x3bf1720d	0.0073683322
123	0xbbd0916c	-0.006364992
124	0xbd9c52ef	-0.07633006
125	0x3da8f62b	0.08250078
126	0xbd9b85fc	-0.07593915
127	0x3bd38146	0.0064546196
128	0x3d607e54	0.054807976
129	0xbde34209	-0.110965796
130	0xbd6d4f6b	-0.057937067
131	0xbc8523eb	-0.016252479
132	0x3d80cf79	0.06289572
133	0xbbaead79	-0.005330738
134	0x3dbf422c	0.09338793
135	0x3ce1ad87	0.027548565
136	0xbd18c64b	-0.037298482
137	0xbd8fe581	-0.07026196
138	0xbbeb0880	-0.007172644
139	0xbbc5cddd	-0.0060365037
140	0x3e48e710	0.19619393
141	0x3d855a44	0.065113574
142	0x3ddb8bff	0.107200615
143	0xbdb955dc	-0.090495795
144	0xbe7ccdca	-0.24687877
145	0xbe34deca	-0.17663112
146	0xbe130b94	-0.14359885
147	0x3d209681	0.03920603
148	0x3e1e5352	0.15461472
149	0x3dc462b3	0.09589138
150	0xbe0183e8	-0.12647974
151	0xbdde36fc	-0.10850331
152	0x3d466ced	0.048443723
153	0xbe33b935	-0.1755112
154	0xbea59e0f	-0.32347152
155	0xbe9a4e77	-0.3013799
156	0xbea50611	-0.3223119
157	0xbd253bdd	-0.040340293
158	0x3e417895	0.18893655
159	0x3d09942c	0.033588573
160	0xbe4fd7d8	-0.20297182
161	0xbd389d65	-0.045071978
162	0x3c1fe2d1	0.009758667
163	0x3e4c3fcd	0.19946213
164	0x3ebcf79c	0.3690766
165	0x3ddfef14	0.109342724
166	0x3d8780e6	0.06616382
167	0x3e62b16d	0.22137995
168	0xbe31b8dc	-0.17355675
169	0xbd2cfb55	-0.042231876
170	0x3d3b0782	0.045661457
171	0x3cee7f64	0.029113479
172	0xbe265693	-0.16243963
173	0x3dc2f6d1	0.09519733
174	0x3cde2019	0.027114915
175	0xbced1129	-0.028938847
176	0xbde2ab37	-0.11067813
177	0x3d448f71	0.04798836
178	0xbd8834ae	-0.06650673
179	0x3d22e515	0.03976925
180	0xbe170cff	-0.14751051
181	0xbe89f8e2	-0.26947695
182	0xbd1bd36b	-0.03804342
183	0xbea7bd36	-0.32761544
184	0x3e6760d3	0.2259553
185	0x3db60388	0.08887392
186	0xbd139583	-0.036031257
187	0xbe3c7ae0	-0.18406248
188	0xbe85d7e7	-0.26141283
189	0xbe17895d	-0.14798494
190	0xbe981932	-0.29706722
191	0xbe0a4751	-0.13503768
192	0x3dc30c01	0.09523774
193	0xbd5ea0ff	-0.054352757
194	0x3c985bc0	0.018598437
195	0xbdc79832	-0.09745826
196	0xbd8cb0cf	-0.06869661
197	0xbdd68d8f	-0.10476219
198	0x3d18be89	0.037291083
199	0xbcbbc5cb	-0.022921463
200	0x3deafdcb	0.114741884
201	0x3d4c43b5	0.049869258
202	0x3cd76e0a	0.026297588
203	0x3e838b92	0.2569242
204	0x3da3b145	0.07992796
205	0xbdcbf8af	-0.09959542
206	0xbe7f8634	-0.24953538
207	0xbda2aecc	-0.07943496
208	0x3d87c1b7	0.06628745
209	0xbd8d69a1	-0.06904913
210	0xbd05842d	-0.032596756
211	0x3d29010f	0.041260775
212	0xbe9ce2c6	-0.30641764
213	0x3e2af85d	0.16696306
214	0xbe280d71	-0.16411377
215	0x3cad0323	0.02111966
216	0x3cebb28b	0.02877166
217	0x3cf9d2f6	0.030496102
218	0xbe0ea162	-0.1392875
219	0xbc3cc21e	-0.0115208905
220	0x3e9ae9f2	0.3025661
221	0xbd3618c7	-0.044457223
222	0x3df53b45	0.119741954
223	0x3c2942a7	0.010330833
224	0x3e4a2361	0.19740058
225	0xba10efd1	-0.00055288995
226	0xbb03457c	-0.002003043
227	0x3d8364a5	0.06415681
228	0x3d84a1ba	0.064761594
229	0x3da87ed4	0.082273155
230	0xbde8b1bd	-0.11362026
231	0x3df71257	0.12064045
232	0xbdc2cc53	-0.09511628
233	0xbcecdab5	-0.028912881
234	0x3e05f5ad	0.13081999
235	0x3c27afde	0.010234801
236	0xbe1cf1a3	-0.15326552
237	0xbc96521f	-0.018349705
238	0x3d4417a3	0.047874104
239	0xbb0c4245	-0.0021401804
240	0xbd960412	-0.07324995
241	0xbe39a805	-0.181305
242	0x3dc80097	0.097657375
243	0x3ca55f24	0.020186968
244	0x3de36fc9	0.11105306
245	0x3df31770	0.11869705
246	0x3d1a3c95	0.03765543
247	0xbe01883f	-0.1264963
248	0xbdf40e17	-0.1191675
249	0x3d679478	0.056538075
250	0xbafdbeaf	-0.0019359196
251	0xbe153295	-0.14570077
252	0xbe04eb97	-0.12980495
253	0x3d86772c	0.06565699
254	0x3e3680bf	0.1782255
255	0xbd293964	-0.041314498

nets.1.conv2.bias f4 [64]
0	0x3e978591	0.2959409
1	0xbe44c96e	-0.19217464
2	0x3d7d69fe	0.06186866
3	0xbd25fe7a	-0.04052589
4	0x3db25ef3	0.087095164
5	0xbe0d1964	-0.13779217
6	0x3e13b71d	0.14425321
7	0xbdaa1621	-0.08305002
8	0xbd9569d5	-0.072955765
9	0x3d3b6390	0.045749247
10	0x3d995599	0.074870296
11	0xbbd656ee	-0.0065411245
12	0x3d61798e	0.055047564
13	0xbdb2d089	-0.08731181
14	0xbcc4da9c	-0.024030022
15	0x3e18946e	0.14900371
16	0x3e954b5f	0.29159066
17	0xbd25bc13	-0.040462565
18	0x3d6e3e35	0.058164794
19	0xbd3fda1f	-0.046838876
20	0x3dc891ff	0.097934715
21	0x3cdb305e	0.026756462
22	0xbd73cc05	-0.05952074
23	0xbdbc99f9	-0.092090555
24	0x3e0758db	0.1321749
25	0xbc30427f	-0.010758041
26	0x3bb39c6c	0.0054812934
27	0xbcdf6418	-0.027269408
28	0x3cb10722	0.021609847
29	0xbc01a54d	-0.007912946
30	0x3e2a2999	0.16617431
31	0x3e1e286f	0.15445112
32	0xbe7fd6b2	-0.24984244
33	0x3defe0f4	0.11712828
34	0xbd877e40	-0.06615877
35	0xbece75f8	-0.40324378
36	0xbd4b2ef0	-0.04960531
37	0xbe0ff728	-0.14059126
38	0xbe2ffc52	-0.17186096
39	0xbe79d62e	-0.2439811
40	0xbd11ccab	-0.035595577
41	0xbe8c714b	-0.27430186
42	0x3e8964ed	0.26834813
43	0xbde10524	-0.109873086
44	0xbe676633	-0.2259758
45	0xbe294e01	-0.16533662
46	0xbeba8a5f	-0.36433694
47	0xbd4c9fe2	-0.049957164
48	0x3e451b97	0.19248806
49	0xbe669fb2	-0.22521856
50	0xbe952821	-0.29132178
51	0xbd75414d	-0.05987673
52	0xbeab8e17	-0.33506843
53	0xbe93c533	-0.2886139
54	0xbeb5825b	-0.35451016
55	0xbda314c2	-0.079629436
56	0xbe823354	-0.25429785
57	0x3db56a1b	0.08858129
58	0xbe708285	-0.23487289
59	0x3bd9fbee	0.006652347
60	0xbe82106a	-0.25403148
61	0xbeb0e239	-0.34547594
62	0x3e2d002c	0.16894597
63	0x3d084b84	0.033275142

nets.2.0.weight f4 [32, 32, 3]
0	0x3e0418f8	0.1290015
1	0x3d1526ea	0.036414064
2	0xbd88ef43	-0.066862606
3	0x3dcc78c2	0.0998397
4	0x3dab8d74	0.083765894
5	0x3d74af38	0.059737414
6	0xbdf3897e	-0.11891459
7	0x3db494d8	0.08817452
8	0xbc589ae3	-0.013220522
9	0x3e7a09db	0.24417822
10	0x3df20dbc	0.11819026
11	0xbd8fac7d	-0.070153214
12	0xbe42490a	-0.18973175
13	0xbdc9e541	-0.0985818
14	0xbdc24fae	-0.09487854
15	0x3dadcfc5	0.084868945
16	0x3d34ec43	0.04417063
17	0x3c4222c1	0.011849106
18	0xbcef9e6f	-0.029250352
19	0xbe1acd86	-0.15117463
20	0x3d2e801f	0.042602655
21	0xbe21de83	-0.15807538
22	0xbdd3551d	-0.103189684
23	0x3dd421f2	0.10358037
24	0xbc75d8da	-0.015005315
25	0x3dc060c6	0.09393458
26	0xbe2fa3e6	-0.17152366
27	0x3dab4607	0.08362966
28	0xbdc9b815	-0.09849564
29	0xbe1837f3	-0.14865093
30	0xbe0fa349	-0.14027132
31	0xbd1a598f	-0.037683066
32	0x3dd3ea50	0.10347426
33	0x3eaf615e	0.34253973
34	0x3dd26a63	0.10274198
35	0xbdcc052c	-0.09961924
36	0xbe24a2ab	-0.16077678
37	0x3d9b510d	0.075838186
38	0x3d9e9c10	0.0774461
39	0xbc82807e	-0.01593041
40	0x3e44b7ca	0.19210735
41	0xbb990ef4	-0.004670972
42	0x3cbb03a6	0.022828888
43	0x3d29fa07	0.04149821
44	0xbe2cb676	-0.16866478
45	0x3d9bf64e	0.07615338
46	0x3d48b1d1	0.048997704
47	0xbe8cafa8	-0.27477765
48	0x3d9b9ef7	0.075986795
49	0xbddc5897	-0.10759085
50	0x3e3cfa11	0.18454768
51	0xbe1e685a	-0.15469494
52	0x3df944b7	0.121713094
53	0x3d1fffa1	0.039062146
54	0x3d638d0c	0.055554435
55	0x3a742e0b	0.0009314722
56	0x3e1cc82b	0.15310733
57	0xbca1ec1a	-0.019765902
58	0xbd717858	-0.05895266
59	0x3e4346ce	0.19069979
60	0xbc9d11d7	-0.019173546
61	0x3e3637a7	0.17794667
62	0xbda321ba	-0.07965417
63	0x3daae2bb	0.08344027
64	0xbe57ac73	-0.21061878
65	0xbe65461f	-0.2239003
66	0xbcdd8f0d	-0.027045751
67	0xbdd886ec	-0.10572609
68	0xbe276237	-0.1634606
69	0xbdddec82	-0.10836126
70	0xbdf47e68	-0.119381726
71	0xbe71f1d6	-0.2362741
72	0xbd400b7f	-0.046885964
73	0xbd8ebd30	-0.069696784
74	0xbe86ee23	-0.2635356
75	0xbe7f357b	-0.24922745
76	0xbe0b3e17	-0.13597904
77	0x3e1e68c4	0.15469652
78	0xbdbf86ab	-0.09351858
79	0x3e1f278b	0.15542428
80	0xbdfc8482	-0.12329961
81	0x3dd63a77	0.1046037
82	0x3dd2afba	0.102874234
83	0xbe6b8e2c	-0.23003453
84	0x3e1d7109	0.1537515
85	0x3e6ad3d2	0.22932366
86	0xbdbaf67b	-0.09129044
87	0xbdf3abde	-0.118980154
88	0xbe1be350	-0.15223432
89	0xbc1c00ad	-0.0095216455
90	0xbe5a51db	-0.21320288
91	0xbe1b9211	-0.15192439
92	0x3d26541c	0.040607557
93	0xbd9d5183	-0.07681563
94	0x3e3d3e13	0.1848071
95	0x3c52f777	0.012876383
96	0x3e2d0353	0.168958
97	0xbe19eccf	-0.15031742
98	0xbdb6973d	-0.08915565
99	0xbd083e31	-0.033262435
100	0x3e9d84fc	0.30765522
101	0x3dd8b93e	0.10582207
102	0x3b16a5b9	0.0022986962
103	0x3e45e84f	0.193269
104	0x3e481fde	0.19543406
105	0xbdaa8a4d	-0.0832716
106	0xbe53fabc	-0.20701116
107	0xbe396477	-0.1810473
108	0xbd6d0052	-0.057861634
109	0xbe48fb8f	-0.19627212
110	0xbe282688	-0.16420949
111	0x3d91cba1	0.07118917
112	0x3d79a97d	0.060952652
113	0x3c69f301	0.014279128
114	0x3da72525	0.08161382
115	0xbdb22696	-0.08698766
116	0xbe65d81f	-0.22445725
117	0x3e52d99a	0.20590821
118	0x3dcb8aeb	0.09938606
119	0x3e30f473	0.1728075
120	0x3e5579e4	0.20847279
121	0x3e9530c1	0.2913876
122	0xbd57294e	-0.052529626
123	0x3e07f212	0.13275936
124	0x3d08282f	0.033241447
125	0xbd6367bb	-0.055518847
126	0xbe103193	-0.14081411
127	0x3d8bae99	0.06820411
128	0x3dc11c9e	0.094292864
129	0xbdf88d5c	-0.12136337
130	0xbe536869	-0.20645298
131	0x3d2e2d54	0.042523697
132	0xbe3529f2	-0.17691782
133	0x3e11896a	0.14212576
134	0x3eb0c46a	0.34524852
135	0xbd533bdb	-0.051570754
136	0x3e7e8d88	0.24858677
137	0xbd07c908	-0.033150703
138	0xbe37a92c	-0.17935628
139	0xbe921173	-0.28528938
140	0xbd10ac75	-0.035320718
141	0xbe0f3304	-0.13984305
142	0xbd11c518	-0.035588354
143	0xbe263eef	-0.16234945
144	0xbdcaad6b	-0.09896358
145	0xbd78e0f1	-0.060761396
146	0x3d2c16f4	0.042014077
147	0xbe120ff0	-0.14263892
148	0xbdbd6ea9	-0.092496224
149	0x3d8ebffc	0.06970212
150	0xbc6f7d5f	-0.014617293
151	0xbb8df4a3	-0.0043321415
152	0xbcbfbfd2	-0.023406897
153	0x3d2b9399	0.041888807
154	0xbd6e4f40	-0.058181047
155	0x3e56771d	0.20943876
156	0x3d290988	0.041268855
157	0x3e51443e	0.20436189
158	0xbe4215d9	-0.18953647
159	0x3e201963	0.15634684
160	0x3e0b2661	0.13588859
161	0x3c457e9c	0.012054112
162	0x3e102f23	0.14080481
163	0x3d034172	0.032044835
164	0x3e71a495	0.2359794
165	0x3dc8fee7	0.09814244
166	0x3dffd73a	0.12492223
167	0x3e5b9b8f	0.2144606
168	0xbdc2854a	-0.09498079
169	0xbd1ae179	-0.037812684
170	0xbe67943c	-0.2261514
171	0xbe7e6024	-0.24841362
172	0xbccdfafb	-0.02514409
173	0x3e08ae43	0.13347726
174	0x3d0e3a73	0.03472371
175	0xbe1f7d24	-0.15575081
176	0x3d7fcb02	0.062449463
177	0x3e2ac0aa	0.16675058
178	0x3d14aa6c	0.03629534
179	0xbdd022b5	-0.1016287
180	0xbd018b75	-0.031627137
181	0xbd4f2e98	-0.050581545
182	0xbd4f6d64	-0.050641432
183	0x3e1ad59a	0.15120545
184	0x3e71cbd2	0.23612908
185	0x3dda16fa	0.10648914
186	0xbea442e1	-0.32082275
187	0xbe6f52c5	-0.23371418
188	0x3e8f0c7e	0.27939218
189	0x3b93c7aa	0.004509886
190	0x3c1f9b75	0.009741654
191	0x3d0cd3a0	0.03438151
192	0x3cd55759	0.026042627
193	0xbdde9a22	-0.10869242
194	0x3d578f15	0.052626688
195	0x3e038dbb	0.12847035
196	0x3c8f00e9	0.017456489
197	0x3ea2039a	0.31643373
198	0xbd91b62f	-0.07114827
199	0x3d375e00	0.04476738
200	0xbc01cacd	-0.007921887
201	0xbe386a57	-0.18009315
202	0xbd219967	-0.039452937
203	0x3ce92766	0.02846117
204	0x3cec3bd8	0.02883713
205	0xbe25f1ce	-0.16205522
206	0xbc4f247b	-0.012642975
207	0x3ed7f978	0.42182517
208	0x3d9a9b43	0.07549145
209	0x3d0be731	0.03415603
210	0x3db3249c	0.08747217
211	0x3a8ee25c	0.0010901201
212	0xbcc800f4	-0.024414517
213	0x3d46f12e	0.04856985
214	0xbcf7e361	-0.03025979
215	0xbd0c05b5	-0.03418513
216	0x3d9f1d8e	0.07769309
217	0xbe058b37	-0.13041387
218	0xbecda527	-0.40165064
219	0xbe40f895	-0.18844827
220	0x3dd90123	0.1059592
221	0xbe056d6d	-0.13030024
222	0x3dbeac20	0.09310174
223	0xbc930037	-0.017944438
224	0xbc344233	-0.011002111
225	0xbdfa9c00	-0.12236786
226	0xbdc95f9b	-0.098326884
227	0x3e23e0c0	0.16003704
228	0x3da4bb33	0.08043518
229	0xbe4e7d0b	-0.20164888
230	0xbd87b934	-0.066271216
231	0xbd9ecd5c	-0.07754013
232	0xbd1e8ddc	-0.038709506
233	0x3e271e62	0.16320184
234	0x3e4127cc	0.18862838
235	0x3e14f157	0.14545189
236	0xbc633121	-0.013866694
237	0x3dfef485	0.12448982
238	0x3e561833	0.20907669
239	0x3e4b5381	0.19856073
240	0x3b4f684d	0.0031647861
241	0x3d387599	0.045034025
242	0x3e1eb68a	0.1549932
243	0xbe32e449	-0.17469896
244	0xbce9b5ad	-0.028529013
245	0x3e58c2ac	0.21168011
246	0xbe4bd006	-0.19903573
247	0xbcdbe43e	-0.026842233
248	0x3e225460	0.15852499
249	0x3e3fe273	0.18738727
250	0x3e1f9edf	0.15587948
251	0x3d87cd96	0.06631009
252	0xbd05f90b	-0.03270821
253	0xbe304d60	-0.17217016
254	0xbe173158	-0.14764917
255	0xbe4d10f1	-0.20025994

nets.2.0.bias f4 [32]
0	0xbdd434a0	-0.103616
1	0xbd7d6c99	-0.061871145
2	0x3d5474cb	0.051869195
3	0xbea7978a	-0.32732803
4	0xbe0d9f5e	-0.13830325
5	0x3dd94d17	0.10610407
6	0xbea8b8e8	-0.32953572
7	0x3e722573	0.23647098
8	0x3e315913	0.17319135
9	0xbd9dd089	-0.077057905
10	0x3e9811d3	0.297011
11	0x3db253e6	0.087074086
12	0x3df73da7	0.12072306
13	0xbe7f3017	-0.24920689
14	0x3d2afc42	0.041744478
15	0x3e80d805	0.2516481
16	0x3d5440bb	0.051819544
17	0x3e9a74d1	0.3016725
18	0xbe03f656	-0.12886938
19	0xbbda1e0a	-0.006656413
20	0xbda5ed55	-0.08101908
21	0x3e8beea5	0.2733051
22	0xbeebbd84	-0.46043026
23	0x3e989092	0.29797798
24	0xbec7b5a6	-0.39005774
25	0x3ccf61e6	0.025315236
26	0x3dc92962	0.09822346
27	0xbeced855	-0.40399423
28	0x3e0dd0ef	0.13849233
29	0xbdaafaa7	-0.083485894
30	0x3dfa7a78	0.1223039
31	0x3c98340c	0.018579505

nets.3.conv.weight f4 [16, 32, 3]
0	0xbe5d4df9	-0.21611775
1	0xbdaec7dd	-0.08534215
2	0x3d847d18	0.06469172
3	0xbd23d2d3	-0.03999598
4	0xbc4869d9	-0.012232267
5	0x3d2bb40d	0.041919757
6	0x3d16ccc7	0.036816385
7	0x3e649187	0.2232114
8	0xbe21b556	-0.1579183
9	0x3e89cb2f	0.2691283
10	0x3db65b4d	0.08904133
11	0x3cca0cad	0.024664247
12	0xbe5bf12b	-0.21478717
13	0xbe4712b1	-0.19440724
14	0x3dd686ee	0.104749545
15	0x3e510ce8	0.2041508
16	0x3dc80023	0.09765651
17	0xbdd95e4d	-0.106136896
18	0x3e2581d7	0.16162811
19	0xbe75a70f	-0.23989509
20	0x3ddc9101	0.10769845
21	0x3e10d0a9	0.14142098
22	0xbd97a1a1	-0.07403875
23	0xbdce330b	-0.100683294
24	0xbd66c154	-0.056336716
25	0x3ddc48f6	0.10756104
26	0x3c7ba7fd	0.015359876
27	0xbe0b7ec6	-0.13622579
28	0x3db3c9ba	0.08778711
29	0x3eaeaf4b	0.34118113
30	0x3d342f2c	0.0439903
31	0xbe592417	-0.21205173
32	0x3dc041d4	0.09387556
33	0x3e327369	0.17426838
34	0x3e25737c	0.16157335
35	0xbe71c03c	-0.23608488
36	0x3e365b94	0.17808372
37	0xbc85b6a1	-0.016322436
38	0xbe48e841	-0.19619848
39	0x3db937e3	0.09043863
40	0xbe21cc2a	-0.15800539
41	0xbd18d2c1	-0.037310366
42	0xbdbeeb73	-0.09322252
43	0x3e8b3d83	0.27195367
44	0xbe096e11	-0.13420893
45	0x3e00d256	0.12580237
46	0x3ea1dabb	0.3161219
47	0xbe601958	-0.21884668
48	0xbd9915b0	-0.0747484
49	0x3d209845	0.039207716
50	0x3cb2901f	0.021797238
51	0xbd4c7824	-0.049919263
52	0xbe418b05	-0.18900688
53	0x3e2c3b24	0.16819435
54	0xbc12a6eb	-0.008950929
55	0x3cb57490	0.022150308
56	0x3d2d3d87	0.042295005
57	0x3e2e01aa	0.16992822
58	0x3daf0fb2	0.085479155
59	0xbca2d3f1	-0.019876452
60	0x3e3365ec	0.17519349
61	0xbdeb9f1e	-0.115049586
62	0x3cb0d151	0.021584185
63	0xbd594561	-0.05304468
64	0xbe61aec5	-0.22039326
65	0x3ddbf180	0.10739422
66	0xbc5b8b52	-0.013399916
67	0xbe21b02c	-0.1578986
68	0xbd8eaf71	-0.069670565
69	0x3e07c9a1	0.13260509
70	0xbe2db0f2	-0.1696203
71	0x3de7e52a	0.113230065
72	0xbb93ade4	-0.0045068134
73	0x3de19796	0.11015241
74	0xbeaa57d5	-0.33270136
75	0xbe94652a	-0.28983432
76	0xbd944b8e	-0.072409734
77	0x3d21f253	0.03953774
78	0x3df36046	0.11883597
79	0x3bf38fd2	0.007432916
80	0x3da73c08	0.08165747
81	0x3dfd1750	0.12357962
82	0xbd232847	-0.039833333
83	0xbdaeaf13	-0.085294865
84	0xbd03ba2e	-0.032159977
85	0xbe8e4d84	-0.27793515
86	0x3d871be3	0.06597116
87	0x3d05af91	0.032638136
88	0xbdc314c6	-0.095254466
89	0x3d9a4acd	0.07533798
90	0xbd9288ee	-0.071550235
91	0xbdcb8c6d	-0.099388935
92	0xbdefc1f1	-0.11706913
93	0xbe0ff48f	-0.14058135
94	0x3d57c69d	0.052679647
95	0x3e16055a	0.14650479
96	0xbd98a274	-0.074528605
97	0x3e3e23cb	0.18568341
98	0xbe29296b	-0.16519706
99	0xbd8538ab	-0.06504949
100	0x3e9b2139	0.30298784
101	0xbc3d5725	-0.011556421
102	0x3e2bf687	0.16793261
103	0x3c31f172	0.010860788
104	0x3dc38300	0.09546471
105	0x3cb4ff4e	0.022094395
106	0x3d05578a	0.032554187
107	0x3c2d6f53	0.010585624
108	0xbdbf0e02	-0.09328844
109	0x3e82ee5d	0.25572482
110	0x3b96707e	0.004591047
111	0xbdede997	-0.11616819
112	0xbdb98b46	-0.090597674
113	0xbd52dbd4	-0.051479176
114	0x3dea14d9	0.114297576
115	0xbd6c4cc9	-0.057690416
116	0xbe39b2c6	-0.18134603
117	0x3d0f7d8e	0.035031848
118	0x3e2ba203	0.16761021
119	0xbd81d03b	-0.06338545
120	0x3e214a0b	0.15750901
121	0xbec6ff46	-0.38866633
122	0x3d2438e2	0.04009331
123	0x3e262cc2	0.16228011
124	0x3ee77b70	0.45211363
125	0x3db3d92f	0.08781659
126	0xbd9a497a	-0.07533546
127	0xbc8cede3	-0.017203277
128	0xbe796721	-0.24355747
129	0x3d336d5d	0.04380547
130	0xbddfc675	-0.109265245
131	0x3e85cda0	0.26133442
132	0x3dc06b72	0.093954936
133	0xbcd2a7ba	-0.025714744
134	0x3d8c684a	0.06855829
135	0xbdd68944	-0.104754
136	0x3e0a005e	0.13476703
137	0xbe1f0c92	-0.15532139
138	0x3e0b650b	0.13612764
139	0xbea37f44	-0.31933033
140	0x3dd16158	0.10223645
141	0x3cb3f6e1	0.021968307
142	0xbdfa22cf	-0.122136705
143	0x3e875260	0.26430035
144	0x3e0c542c	0.13703984
145	0xbe48fb33	-0.19627075
146	0x3e0c7c40	0.13719273
147	0x3a0b950c	0.0005324639
148	0xbe1b4963	-0.15164714
149	0xbe053af1	-0.13010766
150	0x3d56a338	0.05240175
151	0xbe474bfb	-0.19462578
152	0x3e91533b	0.28383812
153	0xbc58c041	-0.013229431
154	0xbd5401de	-0.051759593
155	0x3da7b5e8	0.08188993
156	0x3cf8650d	0.030321622
157	0x3dbed5de	0.09318136
158	0xbe4619b2	-0.1934574
159	0x3d851744	0.06498578
160	0x3e82b366	0.25527495
161	0xbedeba4e	-0.43501514
162	0xbcce8aa0	-0.025212586
163	0x3df72596	0.12067716
164	0x3e464fff	0.19366454
165	0xbdf95125	-0.1217368
166	0x3c29fa52	0.010374622
167	0xbdd5d284	-0.10440543
168	0x3d8a6364	0.067572385
169	0x39376338	0.00017489202
170	0x3e636165	0.22205122
171	0xbddbb3ff	-0.10727691
172	0x3d88d815	0.066818394
173	0xbdfb3e72	-0.1226777
174	0x3d7aa477	0.061192002
175	0x3e01c54e	0.12672922
176	0xbe24ff4d	-0.16113015
177	0x3ae368e4	0.0017349985
178	0xbdd39e87	-0.10332971
179	0xbe1358dc	-0.14389366
180	0x3d271bf5	0.040798146
181	0x3e6647e4	0.22488362
182	0xbe936bbb	-0.2879313
183	0x3e1f5f99	0.15563811
184	0x3dbf6fd5	0.09347502
185	0xbddfc040	-0.10925341
186	0xbcd124e6	-0.02553029
187	0xbdf1b2d4	-0.11801687
188	0x3d992af7	0.07478898
189	0x3d3dd8c3	0.0463493
190	0xbde5c3fe	-0.11219023
191	0x3d358130	0.044312656
192	0xbc57d9ef	-0.013174518
193	0x3e24ff7b	0.16113083
194	0xbe8268a4	-0.2547046
195	0xbc733541	-0.01484424
196	0x3e3b1693	0.1827033
197	0xbe7ddd3d	-0.24791427
198	0x3cc062d8	0.023484632
199	0x3db98f20	0.09060502
200	0x3e727e4e	0.23680994
201	0xbdc1f223	-0.09470012
202	0xbe2b41d5	-0.16724332
203	0x3c4d30cb	0.01252384
204	0xbd9ce392	-0.07660593
205	0x3de8c91e	0.11366485
206	0xbeba3663	-0.3636962
207	0x3d38027f	0.044924255
208	0xbe04e742	-0.12978843
209	0x3e08b2ab	0.13349406
210	0xbc7f6e9f	-0.015590339
211	0x3d673f69	0.056456957
212	0xbde9ca50	-0.11415541
213	0xbe0298e3	-0.12753634
214	0x3dabfe51	0.083981164
215	0xbe18f803	-0.14938359
216	0x3d985813	0.07438674
217	0xbd61610e	-0.0550242
218	0xbd698cd0	-0.057019055
219	0xbe29b052	-0.16571167
220	0xbc126327	-0.008934773
221	0xbe9086d8	-0.28227878
222	0xbe5c4d05	-0.21513756
223	0x3e3b5df7	0.18297563
224	0x3d33143a	0.04372046
225	0xbdb60a3c	-0.08888671
226	0xbdd3b034	-0.103363425
227	0x3d9aaa9a	0.07552071
228	0x3d22a788	0.03971055
229	0xbee29a89	-0.44258526
230	0x3e7c0881	0.24612619
231	0xbd0564d7	-0.03256687
232	0x3c87ea24	0.01659114
233	0xbdf9a2a8	-0.12189227
234	0xbdbf0911	-0.09327901
235	0xbeadbe99	-0.33934477
236	0x3e9c45da	0.30522043
237	0xbd5b6541	-0.05356336
238	0xbeba1977	-0.36347553
239	0x3e7777c4	0.2416678
240	0xbd825cfc	-0.063653916
241	0x3e2d8b07	0.16947566
242	0x3d37c193	0.04486234
243	0x3dc0c798	0.094130695
244	0xbe240e8d	-0.16021176
245	0xbcb36fac	-0.021903835
246	0xbdc4922c	-0.095981926
247	0xbe5d2987	-0.21597873
248	0xbda1fbff	-0.079093926
249	0xbda397eb	-0.079879604
250	0xbe22b1a5	-0.15888079
251	0x3dd84106	0.10559277
252	0xbdf08ac7	-0.1174522
253	0x3e2779a9	0.16355003
254	0xbe830fd3	-0.2559801
255	0xbcd12539	-0.025530444

nets.3.conv.bias f4 [16]
0	0x3d15bd80	0.036557674
1	0x3e493946	0.19650754
2	0x3cc197ab	0.023631891
3	0x3e3765e7	0.17909966
4	0xbe4e7d93	-0.2016509
5	0x3e336a2e	0.17520973
6	0xbe2e9f00	-0.17052841
7	0xbdce7cb9	-0.10082383
8	0xbc76925a	-0.015049541
9	0x3dab0961	0.08351398
10	0xbd70e817	-0.058815088
11	0xbddb89c8	-0.10719639
12	0x3da8bc4b	0.08239039
13	0xbd0b251b	-0.033970933
14	0x3e05d50f	0.13069557
15	0xbe422f0b	-0.18963258

nets.3.bn.weight f4 [16]
0	0x3f7e52b6	0.99344957
1	0x3f7d3a44	0.9891703
2	0x3f7fa8e3	0.99867076
3	0x3f50b58c	0.8152702
4	0x3f7f61f6	0.9975885
5	0x3f52e252	0.8237659
6	0x3f7208c1	0.9454461
7	0x3f68244b	0.9068038
8	0x3f777c84	0.9667437
9	0x3f85fb05	1.046723
10	0x3f8299d0	1.020319
11	0x3f754f6b	0.9582431
12	0x3f79a16e	0.9751195
13	0x3f737c34	0.95111394
14	0x3f6dba96	0.9286283
15	0x3f9478cd	1.1599365

nets.3.bn.bias f4 [16]
0	0xbda03231	-0.07822073
1	0xbe039696	-0.12850413
2	0xbe25a961	-0.16177894
3	0xbd1d560d	-0.038412143
4	0x3e38eb3f	0.1805849
5	0xbde06696	-0.10957067
6	0xbde1d365	-0.110266484
7	0xbe5d5881	-0.21615793
8	0x3db12ae0	0.08650756
9	0xbe283af1	-0.16428734
10	0xbe262dc5	-0.16228397
11	0x3c502e54	0.012706358
12	0x3d1309d3	0.03589804
13	0xbdb55c26	-0.088554665
14	0x3e28bd61	0.16478492
15	0x3d342f6e	0.043990545

nets.3.bn.running_mean f4 [16]
0	0x403aeb8f	2.9206274
1	0xc0680c1a	-3.6257386
2	0xc0b4bfc8	-5.648411
3	0xc12dae73	-10.85509
4	0xc110142a	-9.004923
5	0xc088d0fe	-4.2755117
6	0xbf6bea78	-0.92154646
7	0x413d736d	11.84068
8	0xc0d72c16	-6.7241316
9	0x406d7bb7	3.710676
10	0x413d2913	11.822528
11	0x3fb6620c	1.4248672
12	0xc0ed9c87	-7.4253573
13	0x408a7bef	4.3276286
14	0xc085279d	-4.1610856
15	0x3f9de2f9	1.2334892

nets.3.bn.running_var f4 [16]
0	0x431a150b	154.0822
1	0x42ddf09d	110.96995
2	0x4307eb6c	135.91962
3	0x43b13a87	354.45724
4	0x433d3008	189.18762
5	0x43965a55	300.70572
6	0x4372b42f	242.70384
7	0x42a8f178	84.47162
8	0x4338243f	184.14159
9	0x4309d9a2	137.85013
10	0x4283e21b	65.94161
11	0x43d3dc0a	423.71906
12	0x427b9467	62.894924
13	0x42ed0956	118.518234
14	0x43a84267	336.51877
15	0x43647301	228.44923

nets.3.skip_net.weight f4 [16, 32, 1]
0	0x3e017985	0.12644012
1	0xbdb47b0e	-0.08812533
2	0xbe54260e	-0.20717642
3	0xbc42cd51	-0.011889772
4	0xbd87f2c9	-0.066381045
5	0x3e232611	0.1593249
6	0xbd9ecaf5	-0.07753555
7	0x3eb855df	0.36003014
8	0xbc965e61	-0.01835555
9	0x3e70ffc1	0.23535062
10	0x3d0dc7f4	0.03461452
11	0xbddfaaed	-0.109212734
12	0xbd9ad563	-0.075602315
13	0xbe155c37	-0.14585958
14	0x3e531035	0.20611651
15	0x3e3f7b63	0.18699412
16	0xbe164551	-0.1467488
17	0x3dbb4245	0.09143499
18	0x3e5fff07	0.21874629
19	0x3e2940c1	0.16528608
20	0x3df30ad6	0.11867301
21	0x3c524c59	0.0128355855
22	0x3e14fc29	0.14549316
23	0x3e515a54	0.20444614
24	0x3d373c73	0.044735383
25	0x3e9b8b55	0.3037974
26	0xbe02b7d5	-0.12765439
27	0x3e93f17f	0.28895184
28	0x3dca23ec	0.09870133
29	0xbd81e8f1	-0.06343258
30	0xbe6a6ee8	-0.2289387
31	0x3e9c02e7	0.30470964
32	0xbe342c68	-0.17595065
33	0x3ce8e21f	0.028428135
34	0x3e52e5e9	0.20595516
35	0xbd4deedf	-0.050276633
36	0x3d0ef107	0.03489783
37	0xbd2cbb90	-0.04217106
38	0xbed163f1	-0.40896562
39	0x3d689078	0.0567784
40	0xbea5c475	-0.32376447
41	0xbe687032	-0.22699049
42	0x3eb9bb76	0.36275834
43	0x3ed0c786	0.40777224
44	0x3d258c09	0.04041675
45	0x3e346c2a	0.17619386
46	0xbd25b88d	-0.040459204
47	0xbd319582	-0.043355472
48	0x3e7b4167	0.24536668
49	0x3ce56ab2	0.028004978
50	0xbcca9227	-0.024727894
51	0x3db30645	0.0874143
52	0xbebef833	-0.37298736
53	0xbdfadfb5	-0.122497
54	0xbdb214f3	-0.08695402
55	0x3e01b226	0.12665614
56	0xbd70776a	-0.058707632
57	0x3e0dce72	0.13848284
58	0x3ea45159	0.32093313
59	0xbdd22753	-0.10261407
60	0x3eba5468	0.36392522
61	0xbe316498	-0.1732353
62	0x3ea2a674	0.3176762
63	0x3c7ccc1b	0.015429522
64	0xbe8454f1	-0.25846055
65	0x3e061f1b	0.13097803
66	0x3e8df718	0.2772758
67	0xbe9ba604	-0.30400097
68	0xbd552ae9	-0.052042875
69	0x3e222483	0.1583424
70	0x3e1b503c	0.15167326
71	0x397e124f	0.00024230148
72	0xbe1eb76b	-0.15499656
73	0xbe34d407	-0.17659007
74	0x3d48fbe2	0.04906834
75	0x3e44e08d	0.19226284
76	0x3e6db8c6	0.23215017
77	0x3d9d4e4e	0.07680951
78	0xbd8a063c	-0.0673947
79	0xbdbfb2a2	-0.093602434
80	0x3e4a43ce	0.19752428
81	0x3dde56a7	0.108563714
82	0xbeb2a862	-0.3489409
83	0x3dd2c9cd	0.10292397
84	0x3e2d5d9a	0.16930237
85	0xbe4fbc48	-0.20286667
86	0x3e2680c7	0.16260062
87	0x3da4a305	0.08038906
88	0xbda07a81	-0.07835866
89	0xbe722590	-0.23647141
90	0xbe6f11a7	-0.23346578
91	0xbe27ec70	-0.16398787
92	0xbe3f94a6	-0.18709049
93	0x3d3d6618	0.046239942
94	0x3eb7fc5c	0.35934722
95	0xbecb9340	-0.3976078
96	0xbe486327	-0.19569074
97	0x3e73c41f	0.23805283
98	0x3e3d1942	0.18466666
99	0xbe570a09	-0.20999922
100	0x3cba2c9b	0.022726348
101	0xb944e362	-0.00018776723
102	0xbe8509f7	-0.25984165
103	0x3db81e8f	0.089902036
104	0xbedc55ab	-0.4303411
105	0x3d9bf979	0.076159425
106	0x3d839529	0.064249344
107	0x3ea0e1e2	0.31422335
108	0x3e021997	0.12705074
109	0x3d434c0c	0.047679946
110	0x3e2263f4	0.15858442
111	0x3d8fd135	0.07022325
112	0x3ebfcf58	0.37462878
113	0xbe6b93e1	-0.2300563
114	0x3db38cd1	0.08767093
115	0x3def7dc1	0.116939075
116	0x3e12fad9	0.14353503
117	0xbdd1dbaf	-0.102469794
118	0x3db78aba	0.08962007
119	0x3ea21420	0.3165598
120	0xbd0c2f1f	-0.034224626
121	0xbe10053f	-0.14064501
122	0xbddb1ff2	-0.106994525
123	0xbe4ed2ab	-0.20197551
124	0x3e81c5f2	0.25346333
125	0xbd88310d	-0.06649981
126	0xbd13b645	-0.036062498
127	0xbdcdd358	-0.10050076
128	0x3e308389	0.17237677
129	0xbd69393d	-0.056939352
130	0x3e6b022b	0.22950046
131	0xbe1f86a0	-0.15578699
132	0x3d6c42e8	0.057680994
133	0xbe6d8217	-0.23194157
134	0x3ca1855f	0.019716917
135	0xbe5d0a6a	-0.21586004
136	0xbd98a2dc	-0.07452938
137	0x3e09e3ee	0.13465855
138	0x3e6f8e43	0.23394112
139	0x3d530b8b	0.05152468
140	0xbe4f4b15	-0.20243485
141	0xbe2f74df	-0.17134427
142	0xbd934129	-0.07190163
143	0xbe029d7a	-0.12755385
144	0x3e9b07e0	0.30279446
145	0xbd3cc49e	-0.046085946
146	0xbe915871	-0.28387788
147	0x3e25f54a	0.16206852
148	0x3e505554	0.2034505
149	0x3d38aa97	0.045084562
150	0xbe0412db	-0.12897818
151	0x3e8d4a55	0.27595773
152	0x3df28b40	0.11842966
153	0xbe6b5618	-0.22982061
154	0xbe20f91f	-0.15720032
155	0xbdaf6b1e	-0.08565353
156	0xbcffc262	-0.031220619
157	0x3c52d958	0.012869202
158	0xbc98526f	-0.018593995
159	0xbd71316a	-0.058885016
160	0xbe5f579b	-0.21810763
161	0xbda6e473	-0.08149042
162	0xbd53038a	-0.051517047
163	0x3e0f3071	0.13983323
164	0x3dedb86e	0.11607443
165	0xbc29030b	-0.010315667
166	0xbcd60fef	-0.026130645
167	0xbdba2123	-0.090883516
168	0x3e9afb69	0.30269936
169	0xbc6269ad	-0.01381914
170	0xbe4fd1e1	-0.20294906
171	0xbcc247ef	-0.023715941
172	0xbc4b782a	-0.012418786
173	0xbeb8f7ca	-0.36126548
174	0xbda6ce1e	-0.081447825
175	0x3cab2dbe	0.020895835
176	0xbda15c54	-0.07878938
177	0x3e7535cc	0.23946303
178	0x3e1e76b8	0.15474975
179	0xbd569f8d	-0.052398253
180	0x3e45fce3	0.1933475
181	0xbd772251	-0.06033546
182	0x3dc2dc7b	0.095147096
183	0x3e332daa	0.17497888
184	0xbe842ae8	-0.25813985
185	0x3e404336	0.18775639
186	0xbdcc0375	-0.09961597
187	0x3de3a65e	0.111157164
188	0xbe08d7ba	-0.13363543
189	0xbcfbb8be	-0.03072774
190	0x3e38c044	0.18042094
191	0x3e7311d9	0.23737277
192	0x3dd24467	0.10266953
193	0x3e12ea03	0.14347081
194	0xbdf63b34	-0.12023011
195	0x3e45c882	0.19314769
196	0xbe173c6f	-0.14769147
197	0xbc528ec8	-0.0128514245
198	0x3da48c18	0.08034533
199	0x3de6352f	0.11240613
200	0xbe017755	-0.12643178
201	0xbbbf528e	-0.0058386987
202	0xbc2d6a02	-0.010584356
203	0x3e3a59da	0.18198338
204	0xbcfac22e	-0.03061017
205	0xbd88bbf8	-0.06676477
206	0xbd35d474	-0.044392064
207	0xbe79d933	-0.24399261
208	0x3d468339	0.048464987
209	0x3e1b1c95	0.15147622
210	0x3ee65cb6	0.44992608
211	0x3e6f047f	0.23341559
212	0xbe1e4f1c	-0.15459865
213	0x3e2d9856	0.16952643
214	0x3d8a79f2	0.067615405
215	0x3ee81b74	0.45333445
216	0xbd8b71eb	-0.068088375
217	0x3c9a5651	0.018839987
218	0xbe834773	-0.2564045
219	0x3e415cb0	0.18883014
220	0x3e682f54	0.22674304
221	0x3b195af1	0.0023400153
222	0x3d4951ca	0.049150266
223	0xbd961c08	-0.07329565
224	0x3cc55e58	0.024092838
225	0x3e431bac	0.19053525
226	0x3e4bb615	0.19893678
227	0xbe5946b3	-0.21218376
228	0x3e0eb587	0.13936435
229	0x3ea7e02c	0.32788217
230	0xbe0264fe	-0.12733838
231	0xbea2752a	-0.31730014
232	0xbe46cf97	-0.19415127
233	0x3cd9199b	0.026501467
234	0x3e0bfdaf	0.13670991
235	0x3e0d60ea	0.13806501
236	0x3dd1ec38	0.10250133
237	0x3e8ad4a6	0.27115363
238	0xbd30baf5	-0.043147046
239	0xbd81883c	-0.06324813
240	0x3dc1ce72	0.094632044
241	0xbe387653	-0.18013887
242	0x3e86d517	0.2633445
243	0x3d1e19e6	0.038598917
244	0xbd789fcc	-0.06069927
245	0xba39c7e5	-0.00070869765
246	0xbc5c55ea	-0.013448218
247	0xbe2b03b7	-0.16700636
248	0xbd8f5693	-0.069989346
249	0x3d440cd7	0.047863808
250	0xbc2b0884	-0.010439042
251	0xbdccb27f	-0.09994983
252	0x3e7821d1	0.2423165
253	0xbd15432b	-0.03644101
254	0xbe39cffa	-0.18145743
255	0xbd971e02	-0.073787704

nets.3.skip_net.bias f4 [16]
0	0xbe5547ee	-0.2082822
1	0xbd69e33b	-0.05710147
2	0xbdfa7fd8	-0.122314155
3	0x3e0c6c42	0.13713172
4	0x3eaa83e1	0.3330374
5	0x3d7e6abe	0.062113516
6	0xbe2491ea	-0.16071287
7	0xbeaec0ed	-0.34131566
8	0x3e05d53c	0.13069624
9	0xbd8d2715	-0.0689222
10	0xbe292128	-0.16516554
11	0x3dd7e39c	0.1054146
12	0xbd18a157	-0.03726324
13	0xbe57688d	-0.21035977
14	0x3cdf8d4b	0.027289053
15	0x3d048c70	0.032360494
