scalar_lattice/checkpoint.pt (torch, 71467 bytes, 36 tensors)

net1.0.weight f4 [32, 4]
-0.11509247 0.32698423 0.31075338 0.5560068 -0.6412992 -0.21659537 -0.41267604 -0.366113
0.0065398333 0.32677746 0.15001999 -0.58613616 -0.19608963 -0.10895112 0.3363818 -0.021654766
0.16847403 -0.21157932 -0.42049375 -0.5525752 -0.24417375 -0.6092989 0.4699696 -0.074365586
0.3440878 -0.5306828 -0.3450641 -0.24731424 0.5201721 -0.1378902 0.118067116 0.58604974
0.3639723 0.06463652 -0.4449514 -0.2999035 0.083888136 -0.30921558 -0.08415153 -0.41983968
-0.021171171 -0.24054417 -0.21810062 -0.20783468 0.53017664 -0.23871367 0.42339867 -0.12739822
-0.24953993 0.030201908 0.06789196 0.5026846 -0.4678166 -0.093389645 0.046028417 0.30863714
0.36994117 -0.019975012 -0.32790864 -0.12625238 0.26770368 0.5178682 -0.29861823 0.7808975
-0.14899482 0.3200531 0.11257555 -0.1871212 0.5649363 -0.11886681 -0.30773962 -0.0012095115
0.2272598 -0.6618319 -0.3998431 0.2992339 0.0776076 -0.26057383 0.11871635 0.3925672
-0.30415827 0.420181 0.052163634 0.12298586 -0.52317184 -0.44345117 -0.35585818 -0.36040917
-0.40049252 0.08862032 -0.023770442 0.15679616 -0.28220809 0.38156247 -0.34445715 -0.4184904
0.48052567 0.12272621 0.051149637 -0.4390109 0.27058667 -0.19360603 0.41022515 0.05244213
0.4443875 -0.5224094 0.0036446033 -0.17584132 0.10085478 -0.067882374 -0.11606789 0.18960883
0.15077008 0.49717498 -0.35342288 0.1038007 0.34741297 0.4838984 0.002281879 0.07413803
-0.34247282 -0.072684444 0.108224586 0.18343812 0.09741416 -0.3156991 0.063209295 -0.6614417
00000000: 9ab5 ebbd 7a6a a73e 111b 9f3e 7656 0e3f
00000010: 2f2c 24bf 2dcb 5dbe 464a d3be 2a73 bbbe
00000020: 194c d63b 604f a73e d79e 193e 050d 16bf
00000030: b8cb 48be c421 dfbd 3c3a ac3e 5665 b1bc
00000040: 7584 2c3e 40a8 58be f54a d7be 9175 0dbf
00000050: af08 7abe 03fb 1bbf db9f f03e fc4c 98bd
00000060: 472c b03e d4da 07bf 3eac b0be f23f 7dbe
00000070: 002a 053f 1733 0dbe 2ccd f13d 5b07 163f
00000080: 945a ba3e 2760 843d abd0 e3be f48c 99be
00000090: 8bcd ab3d 8151 9ebe a357 acbd 3af5 d6be
000000a0: 2a6f adbc 3651 76be c555 5fbe 9dd2 54be
000000b0: a8b9 073f 5b71 74be b6c7 d83e ae74 02be
000000c0: 6587 7fbe fe69 f73c f10a 8b3d f0af 003f
000000d0: a885 efbe 1243 bfbd 4b88 3c3d b005 9e3e
000000e0: ee68 bd3e a3a2 a3bc a4e3 a7be 4e48 01be
000000f0: 7510 893e 0393 043f 7de4 98be e6e8 473f
00000100: 1992 18be 00de a33e 038e e63d b39c 3fbe
00000110: aa9f 103f 7170 f3bd 0c90 9dbe 7988 9eba
00000120: cbb6 683e d16d 29bf 3cb8 ccbe 3035 993e
00000130: bcf0 9e3d ef69 85be 8f21 f33d 91fe c83e
00000140: a2ba 9bbe f721 d73e 89a9 553d 03e0 fb3d
00000150: 97ee 05bf 080c e3be 0b33 b6be 8d87 b8be
00000160: 5b0d cdbe 927e b53d 3bba c2bc 2c8f 203e
00000170: 947d 90be 285c c33e b05c b0be 6044 d6be
00000180: 7607 f63e e157 fb3d 4882 513d 09c6 e0be
00000190: 568a 8a3e a940 46be 0809 d23e 8fcd 563d
000001a0: c286 e33e 9fbc 05bf 4cda 6e3b bf0f 34be
000001b0: f38c ce3d ea05 8bbd 00b5 edbd d128 423e
000001c0: 7963 1a3e b88d fe3e d8f3 b4be 7695 d43d
000001d0: 1de0 b13e 88c1 f73e 948b 153b aed5 973d
000001e0: 9958 afbe 95db 94bd daa4 dd3d 34d7 3b3e
000001f0: 1381 c73d 50a3 a1be e073 813d 3e54 29bf

net1.0.bias f4 [32]
-0.28354096 -0.3379554 0.06261047 0.12009692 0.15570284 0.29740566 0.37322918 -0.27671131
-0.4580286 0.27064726 -0.50922483 0.34573853 -0.46115518 0.09982665 -0.087936126 -0.087201826
-0.0017005007 0.08773534 0.5027922 0.046035316 -0.41844425 0.35658458 0.02045051 0.14388344
-0.044422705 -0.2272326 0.07659026 0.12890697 -0.28881833 -0.1130538 0.0962047 0.43485573
00000000: 482c 91be 7d08 adbe eb39 803d 60f5 f53d
00000010: 9170 1f3e 8e45 983e e517 bf3e 1bad 8dbe
00000020: ba82 eabe 4792 8a3e 8f5c 02bf a404 b13e
00000030: 881c ecbe ea71 cc3d db17 b4bd df96 b2bd
00000040: 56e3 deba 96ae b33d fdb6 003f 878f 3c3d
00000050: 533e d6be 4192 b63e d487 a73c 2e56 133e
00000060: 95f4 35bd aaaf 68be 5bdb 9c3d 3000 043e
00000070: ffdf 93be c088 e7bd f806 c53d 69a5 de3e

net1.2.weight f4 [32, 32]
0.23129185 0.12700328 0.011617247 0.052450247 0.07100552 -0.08499606 -0.23287311 0.07976091
0.012166168 0.04504825 0.23433134 0.051551305 0.18355101 0.04075164 -0.021118773 -0.062721305
-0.012086832 0.07024684 -0.09237988 -0.051958334 0.20152555 -0.10516919 -0.115762904 0.08526049
0.015507926 -0.08836063 -0.022958947 0.03701993 0.23501569 -0.038529996 0.041053876 -0.13200831
0.16650899 0.2103815 -0.104642786 -0.0022633974 0.08936027 -0.27631274 -0.086492 0.055426538
-0.03721028 -0.19145262 0.18870872 -0.010180466 0.18773875 0.05982343 -0.05762975 0.12329331
0.14373478 -0.002842847 0.017108766 -0.20361559 0.012521848 -0.25934556 0.003965731 -0.117125064
-0.018369978 0.13109611 -0.03376182 -0.059212808 -0.041060958 0.19873895 -0.015082225 0.0009704267
-0.0554259 -0.15863241 0.0865439 0.04491521 0.16920047 0.029158972 0.066357665 -0.17141907
-0.124771975 0.02442955 -0.05559031 -0.050126784 -0.16617452 -0.09460277 -0.012133667 -0.1604397
-0.077285536 0.02181718 0.064420894 0.055261664 0.14558195 0.10407014 -0.08486649 -0.017010096
0.047834653 -0.13004634 0.045311138 0.15232693 0.10055972 -0.04170298 0.0014140772 0.14262879
-0.03205628 -0.062023606 -0.31215912 -0.15180956 0.15280549 -0.09261288 0.07849456 0.25907627
0.09826859 -0.07509176 0.13801715 0.060269866 -0.056366585 -0.124046445 0.10794236 -0.026402067
-0.19718906 0.17875743 0.015850943 0.094914414 -0.17021306 -0.21044475 -0.059000697 -0.08878909
0.101291664 0.15534206 0.015589846 -0.13800344 0.111683875 0.20525517 -0.21097331 0.07886878
-0.07465523 -0.15413491 -0.17653482 0.018593336 0.0019932454 -0.045336984 0.20094466 0.19247325
0.112234704 0.16206497 -0.19497436 -0.020139214 -0.074362315 -0.13522835 0.30010244 0.26529446
0.081718765 -0.03365097 0.10127961 0.040331222 -0.19176489 -0.016628021 -0.28648183 -0.28282377
0.28846306 0.1202023 -0.04144153 -0.06605801 0.03477511 0.31076068 -0.27877668 -0.107396536
0.062095035 -0.18093361 0.14637062 0.09196605 0.044167336 0.09638173 0.112580836 -0.0036460264
-0.09167628 -0.12466431 0.003258493 0.054120854 0.0051698717 -0.045749996 -0.07133214 0.042389758
0.13213417 -0.051524475 -0.117091455 -0.0007089005 -0.061652727 0.16071537 0.09120717 -0.1986853
0.22435464 -0.15102924 0.21362393 0.015217812 -0.09486092 0.16807242 -0.0971721 -0.006875362
-0.22529885 0.09803648 -0.10672602 0.010659272 -0.06469363 0.06948069 0.028331265 0.037469875
-0.18378742 -0.101213045 -0.23322465 0.24749243 -0.08310567 -0.099704064 -0.14175819 -0.053917527
-0.14699537 0.23635726 0.022097938 0.07052526 0.09132837 0.07940681 -0.1101014 0.17155181
0.12806705 -0.18689752 -0.06883285 0.1798828 -0.063552186 -0.11984899 0.09540399 0.04476303
-0.0767315 0.0057451585 0.010779857 -0.156621 0.056719974 0.05920276 -0.22620119 -0.0042133583
-0.059435975 -0.13993515 0.15682086 -0.056008186 0.059679337 -0.042265058 0.25016788 -0.09436182
0.120836884 -0.022533087 0.094322905 -0.056720056 0.16405584 -0.16531096 0.06928981 -0.17281298
-0.0454786 0.14735866 0.1296321 -0.12558414 0.16881295 0.09138091 0.026462292 -0.068716995
00000000: c5d7 6c3e 260d 023e 4456 3e3c 12d6 563d
00000010: 586b 913d 6a12 aebd 4a76 6ebe b059 a33d
00000020: 9b54 473c 8484 383d 8ef4 6f3e 7627 533d
00000030: ccf4 3b3e 31eb 263d 4701 adbc 0774 80bd
00000040: d907 46bc 93dd 8f3d aa31 bdbd 43d2 54bd
00000050: b75c 4e3e f262 d7bd 1a15 edbd 0d9d ae3d
00000060: f514 7e3c 6bf6 b4bd 6714 bcbc 36a2 173d
00000070: f4a7 703e a1d1 1dbd 1c28 283d 302d 07be
00000080: 5581 2a3e 3f6e 573e f54e d6bd 8255 14bb
00000090: 8402 b73d dd78 8dbe b822 b1bd f006 633d
000000a0: ce69 18bd 280c 44be dc3c 413e f8cb 26bc
000000b0: 963e 403e 6a09 753d 2c0d 6cbd 3481 fc3d
000000c0: 362f 133e 0f4f 3abb af27 8c3c 9b80 50be
000000d0: 7028 4d3c f1c8 84be f6f2 813b 44df efbd
000000e0: a37c 96bc 0f3e 063e d649 0abd 2189 72bd
000000f0: 892f 28bd 3982 4b3e 701b 77bc 3c64 7e3a
00000100: 4506 63bd 8970 22be ee3d b13d 03f9 373d
00000110: e342 2d3e ccde ee3c 87e6 873d 7b88 2fbe
00000120: 7388 ffbd 7b20 c83c aab2 63bd be51 4dbd
00000130: a729 2abe 19bf c1bd 4acc 46bc 4e4a 24be
00000140: e147 9ebd f1b9 b23c 1aef 833d 0e5a 623d
00000150: 6f13 153e ba22 d53d 7bce adbd c258 8bbc
00000160: 45ee 433d de2a 05be 2c98 393d 97fb 1b3e
00000170: 41f2 cd3d bed0 2abd 8f58 b93a 480d 123e
00000180: 724d 03bd 770c 7ebd 52d3 9fbe f773 1bbe
00000190: 0b79 1c3e d2ab bdbd c2c1 a03d a5a5 843e
000001a0: 0b41 c93d b5c9 99bd 5e54 0d3e 89dd 763d
000001b0: a6e0 66bd 100c febd e210 dd3d 2649 d8bc
000001c0: eeeb 49be 300c 373e d6d9 813c 7d62 c23d
000001d0: 554c 2ebe d47e 57be b7aa 71bd 0ed7 b5bd
000001e0: 0172 cf3d fd11 1f3e 8e6c 7f3c c650 0dbe
000001f0: 84ba e43d 692e 523e 6309 58be f485 a13d
00000200: d7e4 98bd 8bd5 1dbe 8bc5 34be 0d51 983c
00000210: 1ca1 023b 46b3 39bd 70c4 4d3e b517 453e
00000220: 4fdb e53d 5cf4 253e 5ca7 47be fefa a4bc
00000230: 454b 98bd 4d79 0abe 07a7 993e add4 873e
00000240: 2b5c a73d 99d5 09bd af6b cf3d 5a32 253d
00000250: 045e 44be 7d37 88bc bfad 92be 47ce 90be
00000260: 6eb1 933e a02c f63d 98be 29bd 6c49 87bd
00000270: 5970 0e3d 061c 9f3e d1bb 8ebe b7f2 dbbd
00000280: 5d57 7e3d a946 39be 2ee2 153e b258 bc3d
00000290: cfe8 343d c963 c53d c890 e63d 2cf2 6ebb
000002a0: c6c0 bbbd 0050 ffbd 718c 553b d4ad 5d3d
000002b0: 0768 a93b 5964 3bbd 9616 92bd e2a0 2d3d
000002c0: 2e4e 073e 540b 53bd a5cd efbd 82d5 39ba
000002d0: 9287 7cbd 9292 243e d3ca ba3d 2974 4bbe
000002e0: 39bd 653e 69a7 1abe 3bc0 5a3e 2154 793c
000002f0: 7146 c2bd 2d1b 2c3e 2a02 c7bd b74a e1bb
00000300: beb4 66be 5ac7 c83d 2c93 dabd 3aa4 2e3c
00000310: 187e 84bd e44b 8e3d f816 e83c 037a 193d
00000320: c532 3cbe c948 cfbd 71d2 6ebe a86e 7d3e
00000330: 4e33 aabd a531 ccbd 0f29 11be a0d8 5cbd
00000340: f485 16be a307 723e bc06 b53c 8c6f 903d
00000350: 5e0a bb3d 0aa0 a23d d87c e1bd 47ab 2f3e
00000360: 0224 033e 1062 3fbe 3df8 8cbd 3233 383e
00000370: a627 82bd 6373 f5bd 2b63 c33d 7059 373d
00000380: 6825 9dbd e241 bc3b ff9d 303c 4161 20be
00000390: 3453 683d 987e 723d 49a1 67be 3610 8abb
000003a0: 2373 73bd 294b 0fbe a695 203e d768 65bd
000003b0: 5272 743d 201e 2dbd 0116 803e c540 c1bd
000003c0: 5479 f73d 4f97 b8bc 5e2c c13d 4a53 68bd
000003d0: 41fe 273e 4747 29be d1e7 8d3d e3f5 30be
000003e0: c547 3abd 30e5 163e 47be 043e 2199 00be
000003f0: 4ddd 2c3e ea25 bb3d 73c7 d83c 7fbb 8cbd

net1.2.bias f4 [32]
0.08822301 -0.007102278 0.093870714 -0.07938783 -0.105366886 0.10830733 0.121588394 -0.13014488
0.04345734 0.25043094 0.08265445 -0.035344534 -0.10374119 0.19631104 -0.1735348 0.08044261
0.07498121 -0.016741456 0.15609284 -0.058779504 0.16906 -0.02761467 0.036211763 -0.110790975
-0.053733386 -0.1157404 0.14641748 0.19433409 0.12794663 0.100798085 -0.22530235 0.12990448
00000000: 44ae b43d 3aba e8bb 4a3f c03d 1696 a2bd
00000010: 98ca d7bd 3cd0 dd3d 5603 f93d b344 05be
00000020: 5300 323d 7c38 803e bc46 a93d 6ec5 10bd
00000030: 4376 d4bd c305 493e 1bb3 31be 18bf a43d
00000040: c08f 993d 6125 89bc cdd6 1f3e c7c2 70bd
00000050: 111e 2d3e 2938 e2bc c952 143d 61e6 e2bd
00000060: 8a17 5cbd 4e09 edbd 77ee 153e 84ff 463e
00000070: 7104 033e 3a6f ce3d a9b5 66be ae05 053e

net1.4.weight f4 [32, 32]
0.26611605 0.18689421 0.0947858 -0.15982576 -0.12878332 -0.11082454 -0.07005497 -0.07821865
-0.15008986 -0.09605703 -0.039246347 -0.02643968 0.17430405 -0.047462404 -0.06544312 0.039087668
0.12593785 0.10837473 0.117609404 0.08670391 -0.07970618 -0.040145475 -0.11404273 -0.06307878
0.09091325 -0.18406324 -0.052773964 -0.19672617 0.012721421 -0.17670779 -0.0113426065 -0.15924634
0.1456314 0.0023962785 0.19792198 0.16771679 0.15323961 0.20384338 0.058088854 -0.04071614
0.07831069 0.24034995 0.12946169 0.09831792 -0.057185855 -0.033519972 0.03922851 0.06430227
0.13366576 0.11468533 0.02563199 0.1085925 0.017538257 0.059856065 0.17712872 0.12425486
0.10046623 -0.22056113 0.14653681 -0.08792683 0.19613841 0.16545033 0.030153563 0.15835299
0.02936821 -0.022537084 0.14069176 -0.035903126 -0.21844748 0.12039382 -0.14737058 -0.07614768
-0.056418635 -0.20817345 -0.3024785 0.07825712 -0.13981721 0.023032263 0.16144289 -0.16788796
-0.025198545 -0.16383767 0.0110729225 0.08505089 0.07555161 -0.017144114 -0.009338155 -0.04280739
0.03688202 0.8307885 -0.07189009 0.09417731 0.08940577 -0.09040691 0.05745351 0.06848939
0.18420506 0.1921583 -0.12024995 -0.096735075 -0.102804214 0.14573409 -0.13031052 0.08625754
0.08652419 0.0068201316 -0.041668475 0.089152426 0.21187548 -0.04234863 -0.024612684 -0.01840717
-0.08747997 -0.19647598 -0.1583728 -0.028734237 -0.054000527 0.07951918 0.07845154 -0.20080768
0.07208275 0.5916138 -0.062268864 -0.07454746 0.056915782 -0.07577676 0.14584586 0.07754742
0.16113017 0.12996568 0.094829716 -0.15308453 -0.13040024 -0.1557565 0.094745316 0.16917816
0.15482457 0.01301619 -0.1274458 -0.030070554 0.08911028 0.03773957 0.06037675 0.006736183
-0.043811228 -0.019800251 0.020697812 -0.006327148 0.008007458 0.027305404 0.0037993065 -0.095261045
0.01572638 -0.117116526 -0.10645202 -0.07764356 -0.061913382 0.0098381275 -0.013531899 0.011417455
0.23040448 0.047730025 -0.10436725 -0.0061375853 0.030047702 -0.061344095 -0.06437218 0.032141685
0.0691834 0.06420804 0.033415295 0.15919214 0.15184496 0.09951611 0.013950628 -0.09037418
0.067384824 -0.07024414 0.012036449 -0.005079545 0.18098973 0.1779284 -0.044526473 -0.08250219
0.1824447 0.0042706355 -0.12424396 0.12918004 0.013235154 0.08746647 0.22500661 -0.092044145
-0.04242939 -0.17061198 0.07578554 -0.11023355 0.066018075 -0.14531429 -0.17372313 -0.18368173
0.0062426124 0.012843851 -0.11148195 0.10419445 -0.0009255159 -0.052186474 0.023347499 -0.23259683
0.09426443 0.10284583 0.07836497 -0.19840471 0.017410977 -0.11467379 -0.115047276 -0.042664953
-0.21773808 -0.2108837 0.06277431 -0.18897429 0.06300386 -0.077947736 -0.1795564 -0.04618903
0.08431748 -0.16000016 -0.12891825 0.08602394 0.06432894 -0.0075311675 -0.024885386 -0.12972897
-0.03145453 -0.21282879 -0.11624063 -0.056539487 -0.15247366 -0.14105326 0.1700001 -0.04652379
0.027008923 -0.122219734 -0.077331945 -0.08013539 -0.023993554 0.014559013 -0.2016429 -0.18138936
-0.08409703 0.045330852 -0.08370645 -0.09213774 -0.15230095 -0.21624427 -0.0057006124 -0.1581481
00000000: 5d40 883e 3261 3f3e 0f1f c23d 5da9 23be
00000010: c6df 03be faf7 e2bd fb78 8fbd 1931 a0bd
00000020: 28b1 19be 8cb9 c4bd c7c0 20bd 0798 d8bc
00000030: c37c 323e f067 42bd 0b07 86bd 641a 203d
00000040: daf5 003e 92f3 dd3d 33dd f03d d291 b13d
00000050: fe3c a3bd 956f 24bd 3c8f e9bd 732f 81bd
00000060: ba30 ba3d 137b 3cbe 8329 58bd 9672 49be
00000070: 826d 503c e3f2 34be 57d6 39bc 7911 23be
00000080: 6620 153e e20a 1d3b 0fac 4a3e f3bd 2b3e
00000090: d8ea 1c3e 52bc 503e 94ee 6d3d f8c5 26bd
000000a0: 5b61 a03d 4c1e 763e 9b91 043e e85a c93d
000000b0: b73b 6abd 3d4c 09bd 13ae 203d e9b0 833d
000000c0: addf 083e 24e0 ea3d 2efa d13c bf65 de3d
000000d0: 64ac 8f3c a22b 753d 3b61 353e 5579 fe3d
000000e0: 3dc1 cd3d c7da 61be bf0d 163e fb12 b4bd
000000f0: 82d8 483e d06b 293e 9b04 f73c 4927 223e
00000100: 9a95 f03c b19f b8bc 8011 103e 280f 13bd
00000110: b2b0 5fbe 0991 f63d 50e8 16be 51f3 9bbd
00000120: 3a17 67bd 6c2b 55be 76de 9abe 4545 a03d
00000130: 3e2c 0fbe 28ae bc3c 4951 253e d2ea 2bbe
00000140: 2e6d cebc 10c5 27be 346b 353c 292f ae3d
00000150: cdba 9a3d d071 8cbc 10ff 18bc cd56 2fbd
00000160: 9a11 173d 8eae 543f 1d3b 93bd 09e0 c03d
00000170: 5f1a b73d 4227 b9bd 5f54 6b3d 2a44 8c3d
00000180: 40a0 3c3e 25c5 443e 9b45 f6bd 0a1d c6bd
00000190: 048b d2bd 513b 153e 1f70 05be cba7 b03d
000001a0: 9833 b13d 697b df3b 90ac 2abd 8c95 b63d
000001b0: e3f5 583e c275 2dbd 8aa0 c9bc a2ca 96bc
000001c0: b328 b3bd 0031 49be 7b2c 22be 1064 ebbc
000001d0: a82f 5dbd f4da a23d 33ab a03d 87a0 4dbe
000001e0: 1fa0 933d 0174 173f a30d 7fbd 57ac 98bd
000001f0: 8620 693d d930 9bbd 9e58 153e 2fd1 9e3d
00000200: 4fff 243e b915 053e 1536 c23d 31c2 1cbe
00000210: a487 05be a27e 1fbe d509 c23d 0a3d 2d3e
00000220: 558a 1e3e dc41 553c 2781 02be 8656 f6bc
00000230: 737f b63d cf94 1a3d 9c4d 773d 33bb dc3b
00000240: 6773 33bd 2334 a2bc 758e a93c f753 cfbb
00000250: b731 033c 95af df3c c9fd 783b 3918 c3bd
00000260: 9cd4 803c cada efbd 8403 dabd 9603 9fbd
00000270: e398 7dbd 1930 213c e6b4 5dbc 4710 3b3c
00000280: 27ef 6b3e 8f80 433d 7fbe d5bd cc1d c9bb
00000290: 9926 f63c f243 7bbd 90d5 83bd 00a7 033d
000002a0: 07b0 8d3d 817f 833d 7ade 083d 4403 233e
000002b0: 3f7d 1b3e 1acf cb3d 2d91 643c 1916 b9bd
000002c0: 0e01 8a3d 29dc 8fbd 8734 453c 5072 a6bb
000002d0: 5f55 393e dd32 363e 6461 36bd e8f6 a8bd
000002e0: c9d2 3a3e b0f0 8b3b 9e73 febd c647 043e
000002f0: 42d8 583c 9f21 b33d 2268 663e a481 bcbd
00000300: 71ca 2dbd e8b4 2ebe 7335 9b3d 21c2 e1bd
00000310: 7c34 873d 45cd 14be 7ae4 31be 1017 3cbe
00000320: d48e cc3b 046f 523c a650 e4bd e663 d53d
00000330: 529e 72ba 7cc1 55bd 4143 bf3c dd2d 6ebe
00000340: b60d c13d d6a0 d23d d07d a03d 9b2a 4bbe
00000350: 77a1 8e3c 18da eabd e89d ebbd 72c1 2ebd
00000360: bbf6 5ebe e6f1 57be d18f 803d 7a82 41be
00000370: 2b08 813d 10a3 9fbd a2dd 37be b530 3dbd
00000380: a5ae ac3d 15d7 23be 2503 04be 522d b03d
00000390: e4be 833d 03c8 f6bb 70dc cbbc acd7 04be
000003a0: 77d6 00bd caef 59be 910f eebd f395 67bd
000003b0: 0e22 1cbe 4470 10be 8214 2e3e bb8f 3ebd
000003c0: d141 dd3c 574e fabd 3660 9ebd 061e a4bd
000003d0: 218e c4bc ed88 6e3c 7a7b 4ebe 22be 39be
000003e0: 103b acbd d8ac 393d 4a6e abbd b6b2 bcbd
000003f0: c8f4 1bbe 236f 5dbe 34cc babb 93f1 21be

net1.4.bias f4 [32]
-0.1178937 0.12860192 -0.06413428 -0.13210057 -0.14728324 0.24622218 -0.086551905 0.0051563215
0.20048328 -0.030624973 0.04691502 -0.042529296 0.17805444 -0.22168003 -0.062093418 0.086618416
-0.15580156 -0.03389774 -0.036145937 -0.1587382 -0.1303804 -0.14777286 0.111358725 -0.089927845
0.10773264 0.035682216 -0.10939936 0.16693081 -0.25387907 0.26957846 -0.22782764 -0.08871287
00000000: 4172 f1bd 39b0 033e d558 83bd 5f45 07be
00000010: 6bd1 16be ab21 7c3e 2042 b1bd 5cf6 a83b
00000020: 7d4b 4d3e 39e1 fabc f729 403d 3333 2ebd
00000030: e753 363e 1700 63be ab55 7ebd ff64 b13d
00000040: 728a 1fbe 5bd8 0abd c30d 14bd 448c 22be
00000050: 7182 05be c551 17be 0b10 e43d 172c b8bd
00000060: eea2 dc3d 8427 123d c60c e0bd e9ef 2a3e
00000070: 70fc 81be 3006 8a3e a64b 69be 18af b5bd

net2.0.weight f4 [32, 32]
0.24142966 0.2306857 -0.52294564 -0.38329566 0.17478694 0.08469838 0.0645498 0.14605719
0.012598109 0.836752 0.2862937 0.19769189 0.16543141 -0.01590839 0.04331289 -0.1672588
-0.0800301 -0.1314225 -0.15417546 -0.04488734 -0.14588834 -0.14980868 -0.1403183 0.09316485
0.04145593 0.03838805 -0.012431571 0.09042718 -0.060655236 0.09861986 -0.026909456 0.010224689
-0.034129515 -0.14726235 0.114707194 -0.15098017 -0.12541935 0.10685885 -0.013554259 -0.013314662
0.038609426 -0.018245418 0.02673227 -0.044522215 -0.23067437 -0.01047941 -0.0062704394 -0.21711642
0.016624037 -0.13616505 0.08274986 -0.06742832 -0.07272198 -0.24927133 -0.06235084 -0.08577545
-0.11160322 -0.01626933 -0.17935279 -0.16799678 0.09855665 -0.14569917 0.0074455584 0.06532246
-0.101318955 -0.07246215 -0.02930995 0.08387964 -0.13231267 0.076769136 -0.108234346 -0.13415991
-0.16367395 0.05416892 0.06556933 -0.13978978 0.029949171 -0.17479163 0.14100291 0.12816787
-0.14485085 -0.071969874 -0.046293635 0.17089215 -0.16667321 -0.12688248 -0.02934706 0.116846
0.1233586 0.09729345 0.13237102 0.0067996355 0.07886957 -0.13829799 0.029652184 0.10166366
-0.052032832 -0.11158313 -0.10059477 -0.13846527 -0.10507643 0.17396569 0.0026954806 0.072655536
-0.06299898 -0.049683187 0.09237078 -0.01665108 -0.075500265 -0.10600103 -0.15496726 -0.035649743
-0.11481326 -0.02039408 -0.0974601 0.14150204 -0.06346871 -0.09941426 -0.1245959 -0.13430719
-0.010398428 0.07200239 0.13075545 0.15178393 -0.14297491 -0.17643908 0.09385825 0.05967627
0.16723245 0.046709727 0.05763314 0.16449408 0.03608693 -0.09985752 0.124122806 -0.051529642
-0.027031723 0.08132289 -0.16238293 -0.1661731 0.07708263 0.14178796 0.02552154 -0.07983685
-0.16570388 0.15763825 -0.14411063 0.060256444 0.13492496 0.11858542 0.026437664 -0.010259048
0.1276327 0.07362624 0.13749567 0.039136153 -0.16371073 -0.15266035 0.0546016 -0.16310516
-0.022869408 -0.18121877 0.092874154 0.15406902 -0.13812648 0.13080196 -0.082402796 -0.08734698
-0.0474491 0.104614116 0.3260517 -0.0986884 -0.01703521 -0.06738476 0.06510591 0.13413331
-0.15715301 -0.038264893 -0.06594167 0.13360584 -0.22417067 -0.06816163 -0.030544832 0.067257054
0.1272224 0.0050034756 0.06777631 0.10839773 -0.149528 -0.12719882 -0.050246187 -0.012340818
-0.028221939 -0.15916416 -0.07078988 -0.010727306 0.020006603 -0.19494125 -0.062391702 -0.11441667
-0.16054863 0.044473812 -0.14138697 -0.05943251 -0.031360842 -0.06224754 -0.1676837 -0.052304927
0.026994176 0.15770419 -0.09808969 0.04976991 -0.14907888 -0.09805006 -0.17652096 0.10289725
-0.14034103 0.08273577 0.09383629 0.003598144 -0.10358033 0.109818846 0.009125767 0.06836541
0.15517646 0.1702738 -0.12899876 -0.12675893 -0.06288592 0.13317192 0.11079826 -0.043896433
0.17795482 -0.023467897 0.06597175 0.16763136 0.092972845 -0.056118958 0.1020445 0.0093829855
0.10773186 0.22232167 0.022500474 -0.055534754 -0.027273092 0.20683397 0.037053183 -0.15367535
0.117380485 -0.061722305 -0.02855049 0.050349485 -0.06099374 0.22712393 0.0129393125 -0.001776474
00000000: 5639 773e df38 6c3e c4df 05bf 543f c4be
00000010: 59fb 323e 5876 ad3d af32 843d 0490 153e
00000020: 4d68 4e3c 6135 563f 1695 923e be6f 4a3e
00000030: da66 293e 5052 82bc db68 313d e445 2bbe
00000040: d2e6 a3bd 9f93 06be 2ce0 1dbe cadb 37bd
00000050: c163 15be 7267 19be 9aaf 0fbe 36cd be3d
00000060: b1cd 293d ca3c 1d3d caad 4bbc e331 b93d
00000070: a071 78bd 36f9 c93d 3871 dcbc 7485 273c
00000080: 64cb 0bbd f1cb 16be 9beb ea3d 8c9a 1abe
00000090: ee6d 00be d0d8 da3d af12 5ebc bd25 5abc
000000a0: eb24 1e3d 6a77 95bc a2fd da3c ed5c 36bd
000000b0: e735 6cbe d5b1 2bbc 4278 cdbb c453 5ebe
000000c0: 222f 883c da6e 0bbe c278 a93d dc17 8abd
000000d0: 43ef 94bd fc40 7fbe 9863 7fbd 0aab afbd
000000e0: 3b90 e4bd 4247 85bc 42a8 37be 5907 2cbe
000000f0: 12d8 c93d 2a32 15be dff9 f33b c8c7 853d
00000100: 5080 cfbd 0967 94bd 6c1b f0bc 17c9 ab3d
00000110: f97c 07be 2339 9d3d f8a9 ddbd 3761 09be
00000120: 259a 27be 3be0 5d3d 3649 863d 0d25 0fbe
00000130: f757 f53c 94fc 32be 1163 103e 703e 033e
00000140: c853 14be f164 93bd 659e 3dbd 5afe 2e3e
00000150: 62ac 2abe 7bed 01be 3f69 f0bc f54c ef3d
00000160: 6fa3 fc3d ca41 c73d 458c 073e 7acf de3b
00000170: 5e86 a13d fd9d 0dbe 23e9 f23c 0935 d03d
00000180: 6120 55bd b285 e4bd a104 cebd d7c9 0dbe
00000190: 5032 d7bd 1024 323e a9a6 303b 6dcc 943d
000001a0: 9c05 81bd 9980 4bbd e42c bd3d d967 88bc
000001b0: e29f 9abd 1117 d9bd bdaf 1ebe 7705 12bd
000001c0: 3723 ebbd 7c11 a7bc 2999 c7bd e9e5 103e
000001d0: e2fb 81bd b499 cbbd 232c ffbd d387 09be
000001e0: 2b5e 2abc fd75 933d c2e4 053e 3f6d 1b3e
000001f0: 0468 12be 72ac 34be c138 c03d 1b6f 743d
00000200: fc3e 2b3e b352 3f3d ba10 6c3d 2371 283e
00000210: e4cf 133d 1982 ccbd 1934 fe3d bf10 53bd
00000220: a271 ddbc 9e8c a63d b647 26be 4829 2abe
00000230: 7fdd 9d3d dd30 113e 8c12 d13c 8181 a3bd
00000240: 47ae 29be ec6b 213e bd91 13be 76cf 763d
00000250: c529 0a3e eadc f23d cd93 d83c 9115 28bc
00000260: 26b2 023e 5bc9 963d aacb 0c3e 3b4d 203d
00000270: c9a3 27be ff52 1cbe eda5 5f3d 0a05 27be
00000280: a058 bbbc 6a91 39be ce34 be3d 45c4 1d3e
00000290: 0771 0dbe f3f0 053e ccc2 a8bd f9e2 b2bd
000002a0: fd59 42bd ed3f d63d 40f0 a63e 251d cabd
000002b0: 6d8d 8bbc 0501 8abd 3f56 853d 3e5a 093e
000002c0: b8ec 20be a6bb 1cbd 6d0c 87bd f8cf 083e
000002d0: ff8c 65be 5398 8bbd 2839 fabc 11be 893d
000002e0: 9746 023e 32f4 a33b 4ece 8a3d a1ff dd3d
000002f0: de1d 19be 6840 02be f2ce 4dbd 2431 4abc
00000300: b231 e7bc eefb 22be 49fa 90bd 95c1 2fbc
00000310: e3e4 a33c ae9e 47be 718e 7fbd 4953 eabd
00000320: dc66 24be 2c2a 363d bfc7 10be 816f 73bd
00000330: 3a74 00bd 47f7 7ebd 47b5 2bbe b13d 56bd
00000340: e422 dd3c 357d 213e 3fe3 c8bd 88db 4b3d
00000350: 22a8 18be 78ce c8bd e9c1 34be cbbb d23d
00000360: 8fb5 0fbe 5f71 a93d 3e2d c03d d7ce 6b3b
00000370: ed21 d4bd b4e8 e03d 3e84 153c 2a03 8c3d
00000380: 94e6 1e3e 415c 2e3e 4018 04be 18cd 01be
00000390: 55ca 80bd 385e 083e 33ea e23d bfcc 33bd
000003a0: ca39 363e bf3f c0bc 321c 873d 8ea7 2b3e
000003b0: 8c68 be3d fedc 65bd b5fc d03d 18bb 193c
000003c0: 85a2 dc3d 4ba8 633e ea52 b83c 6978 63bd
000003d0: d26b dfbc 49cc 533e 14c5 173d 125d 1dbe
000003e0: 2e65 f03d 87d0 7cbd b8e2 e9bc 433b 4e3d
000003f0: 92d4 79bd 2d93 683e 69ff 533c 93d8 e8ba

net2.0.bias f4 [32]
0.012842241 0.039849196 -0.08363968 -0.16569851 -0.15549567 -0.13831842 -0.035967037 0.12659898
0.14764345 -0.20043153 0.1300039 -0.06736822 0.043445703 -0.22358449 -0.033925366 -0.090285495
0.25358322 0.27110064 -0.16058382 -0.1790105 0.096288964 0.1267804 -0.062393814 0.07550253
-0.030029425 -0.1801239 0.23228642 0.20574528 0.033960078 -0.1531337 0.12702641 0.020754475
00000000: 4368 523c e938 233d 484b abbd dfac 29be
00000010: 423a 1fbe 58a3 0dbe 2c52 13bd 2aa3 013e
00000020: d82f 173e ec3d 4dbe be1f 053e 59f8 89bd
00000030: 1ff4 313d 55f3 64be 53f5 0abd 9ae7 b8bd
00000040: a9d5 813e b4cd 8a3e 1670 24be 874e 37be
00000050: 2633 c53d b9d2 013e a890 7fbd 12a1 9a3d
00000060: 4500 f6bc 6672 38be 7edc 6d3e e4ae 523e
00000070: b919 0b3d 15cf 1cbe 3613 023e 4a05 aa3c

net2.2.weight f4 [32, 32]
-0.30835894 -0.07054696 0.14358647 0.06712566 -0.11390872 -0.020636478 -0.097359635 0.19856213
0.026690029 -0.08393157 0.23252633 -0.019591605 0.07459571 0.10920581 0.120073 -0.03814274
-0.070850655 0.23550718 0.27905455 -0.008469865 0.23407523 -0.048687987 0.12090413 0.12163906
-0.027396875 -0.0124051245 0.08759236 -0.052289065 0.13778064 -0.1699165 0.1392877 -0.08966596
0.112256065 0.06452964 0.06706238 -0.14931741 0.051541064 -0.02456175 -0.009446508 0.04422538
-0.09241982 -0.114779316 -0.10811241 -0.11328222 -0.19960165 -0.13888653 -0.14917377 0.026877545
-0.22391254 -0.13871744 -0.18523856 0.10698547 -0.12765741 -0.14441425 -0.15779968 -0.14584734
0.097577766 -0.004840651 -0.25248682 0.012188365 -0.10175211 -0.07770522 0.0530232 -0.1626303
0.17095794 0.15934879 0.116317585 0.018798148 -0.16223934 -0.14159898 0.034251574 0.22418627
-0.06799918 0.1284328 0.17330806 0.12623647 -0.10761302 0.16186301 -0.09253905 0.09429888
0.05391097 0.09316265 0.1411951 -0.015745314 -0.040912323 -0.06841506 -0.03950694 -0.08188129
-0.22157851 0.122011125 0.06979826 -0.14622934 -0.007833792 -0.19111599 0.017106785 0.06093604
0.044244118 -0.12278129 -0.09380902 0.103550926 0.040873885 0.10773739 -0.16138758 -0.017936585
-0.19320922 -0.034801967 0.09675593 -0.062331796 0.0596851 -0.19560389 0.0400759 0.08895036
-0.10669775 -0.12248998 -0.098461255 -0.057391193 -0.08327207 -0.073995896 -0.093000494 -0.043809753
-0.14150965 -0.1882997 0.028187737 0.048161674 -0.14900969 0.1334004 -0.07361944 -0.05676215
-0.15571895 -0.15601762 -0.08827655 -0.106779166 0.17563877 -0.07317593 -0.14746645 -0.09456996
0.019672042 -0.08743519 0.030676479 0.09378095 0.11522154 -0.09043352 -0.1762999 -0.07498923
-0.1542542 -0.10691497 -0.0431035 -0.1334193 -0.16469248 0.17200235 -0.07276995 -0.13036162
0.08791042 -0.13202134 -0.09864121 0.0022963472 0.010395204 0.07858429 0.0015098827 0.10932125
-0.1525101 -0.1138301 -0.04465977 0.16502577 0.17053804 0.092336275 0.097421646 -0.07446046
0.025188517 -0.074598566 0.09992857 -0.021476854 0.050644316 -0.05055135 0.028103286 -0.2042874
0.09844362 0.1372583 -0.0918306 0.13724373 0.014868212 -0.21112363 0.14947692 0.1324693
-0.03292365 -0.03120264 0.15459019 -0.05113698 -0.16761161 -0.0417495 0.04199047 0.05103214
-0.17189607 0.044470463 0.16888729 0.13314386 -0.0702032 -0.053886198 -0.044384766 0.0050346823
0.10777673 -0.17347273 0.059539907 -0.009710814 0.088412546 -0.1390917 -0.0957265 0.017495304
-0.18950728 -0.23430404 0.06459234 0.026792582 -0.020749588 0.07362933 0.14054854 -0.08092329
-0.09233293 -0.012001897 -0.0071968837 0.05313191 -0.092118375 -0.12234412 -0.021851473 0.035666764
0.22590542 -0.06926249 0.061933443 0.16852349 -0.05467407 -0.00087601296 -0.08598889 -0.011642436
-0.14176254 0.05693692 0.013027244 -0.067519754 0.031041643 0.08296705 -0.0075745527 0.003696633
0.08232685 0.11712126 -0.063771375 0.17423317 0.19298051 -0.06500883 0.06987918 0.045542814
-0.29337516 0.06112951 0.1217878 -0.19707546 0.16800323 -0.0356766 0.12788326 -0.040480554
00000000: 39e1 9dbe ed7a 90bd 5508 133e 2e79 893d
00000010: fa48 e9bd d50d a9bc 7d64 c7bd df53 4b3e
00000020: 0ca5 da3c 51e4 abbd 621b 6e3e 937e a0bc
00000030: a3c5 983d 4ca7 df3d d5e8 f53d 903b 1cbd
00000040: 261a 91bd cb28 713e 3de0 8e3e 30c5 0abc
00000050: 6bb1 6f3e 0e6d 47bd 969c f73d e61d f93d
00000060: 696f e0bc dd3e 4bbc a063 b33d 0f2d 56bd
00000070: 5e16 0d3e 97fe 2dbe 6fa1 0e3e c9a2 b7bd
00000080: 82e6 e53d 1e28 843d 0058 893d aae6 18be
00000090: b91c 533d b935 c9bc 87c5 1abc ac25 353d
000000a0: 9a46 bdbd 6b11 ebbd 0a6a ddbd 8200 e8bd
000000b0: 6064 4cbe 4538 0ebe 02c1 18be 4c2e dc3c
000000c0: 5449 65be f20b 0ebe 2daf 3dbe 331b db3d
000000d0: a0b8 02be 54e1 13be 3d96 21be 0159 15be
000000e0: dad6 c73d 539e 9ebb f445 81be b5b1 473c
000000f0: 6963 d0bd ea23 9fbd db2e 593d 8f88 26be
00000100: 990f 2f3e 542c 233e ea37 ee3d 93fe 993c
00000110: 1222 26be 53ff 10be 614b 0c3d 1691 653e
00000120: 2743 8bbd e383 033e ab77 313e 2244 013e
00000130: 3764 dcbd 6bbf 253e 1d85 bdbd c51f c13d
00000140: c0d1 5c3d 0fcc be3d 7395 103e 51fc 80bc
00000150: ae93 27bd 321d 8cbd 07d2 21bd 61b1 a7bd
00000160: 7ae5 62be f8e0 f93d 64f2 8e3d 25bd 15be
00000170: 4e59 00bc e9b3 43be 8723 8c3c 1298 793d
00000180: 5239 353d c274 fbbd f21e c0bd 8212 d43d
00000190: 606b 273d 6ca5 dc3d c942 25be bfef 92bc
000001a0: a3d8 45be 828c 0ebd f927 c63d a04f 7fbd
000001b0: 5d78 743d 634c 48be a026 243d 9b2b b63d
000001c0: 5a84 dabd 07dc fabd 0ea6 c9bd 0713 6bbd
000001d0: 8c8a aabd 298b 97bd 0b77 bebd db71 33bd
000001e0: e8e7 10be a3d1 40be f8e9 e63c 2d45 453d
000001f0: ff95 18be 1d9a 083e cac5 96bd 6e7f 68bd
00000200: ca74 1fbe 15c3 1fbe 56ca b4bd 09af dabd
00000210: a6da 333e 43dd 95bd 7201 17be e5ad c1bd
00000220: 4327 a13c 3911 b3bd 3d4d fb3c 3a10 c03d
00000230: 45f9 eb3d 3635 b9bd f687 34be f493 99bd
00000240: d0f4 1dbe 3cf6 dabd 4c8d 30bd 129f 08be
00000250: 25a5 28be 6221 303e 6908 95bd 847d 05be
00000260: 610a b43d 9a30 07be 6704 cabd 507e 163b
00000270: a550 2a3c cdf0 a03d 42e7 c53a d2e3 df3d
00000280: 9c2b 1cbe c11f e9bd 2aed 36bd 84fc 283e
00000290: 86a1 2e3e cd1a bd3d 0085 c73d ba7e 98bd
000002a0: 2658 ce3c 22c7 98bd 5aa7 cc3d 3af0 afbc
000002b0: 6a70 4f3d ef0e 4fbd dd38 e63c b730 51be
000002c0: cf9c c93d 718d 0c3e ae11 bcbd 9f89 0c3e
000002d0: cd99 733c cb30 58be 7a10 193e 08a6 073e
000002e0: f3da 06bd ae9c ffbc e44c 1e3e 0375 51bd
000002f0: 61a2 2bbe 8601 2bbd 33fe 2b3d 1407 513d
00000300: 8605 30be a926 363d caf0 2c3e dd56 083e
00000310: b2c6 8fbd c6b7 5cbd cdcc 35bd faf9 a43b
00000320: 0cba dc3d d6a2 31be 1ee0 733d 1b1a 1fbc
00000330: a311 b53d 0e6e 0ebe 410c c4bd 5052 8f3c
00000340: 320e 42be 66ed 6fbe fd48 843d 1e7c db3c
00000350: 0afb a9bc f9ca 963d f5eb 0f3e 1cbb a5bd
00000360: 0c19 bdbd 9ba3 44bc d6d3 ebbb d8a0 593d
00000370: 8fa8 bcbd 8e8f fabd dc01 b3bc 5017 123d
00000380: c053 673e 7ed9 8dbd ecad 7d3d 6c91 2c3e
00000390: ebf1 5fbd 3ca4 65ba f11a b0bd eabf 3ebc
000003a0: 332a 11be b036 693d 3970 553c cc47 8abd
000003b0: 0b4b fe3c a1ea a93d f433 f8bb 3643 723b
000003c0: fb9a a83d 45dd ef3d 919a 82bd 2e6a 323e
000003d0: af9c 453e 5923 85bd d11c 8f3d 1a8b 3a3d
000003e0: 4535 96be f062 7a3d e26b f93d 26ce 49be
000003f0: 0a09 2c3e a021 12bd d4f3 023e f0ce 25bd

net2.2.bias f4 [32]
0.19151248 0.029415019 0.23734298 -0.122008644 -0.063791744 -0.11012415 -0.14212365 -0.041395664
-0.12479261 -0.07514249 -0.088030174 0.22737013 -0.05030102 0.07355298 -0.07658637 -0.13717192
-0.17214434 0.0618946 -0.04817366 0.16271819 -0.19624104 0.05699836 -0.099919915 0.31556493
-0.18415718 -0.19582173 -0.1385448 -0.18195692 0.073777035 -0.17469239 -0.367948 -0.10164669
00000000: d91b 443e c4f7 f03c 0a0a 733e abdf f9bd
00000010: 3fa5 82bd c588 e1bd dd88 11be 808e 29bd
00000020: 4593 ffbd 4ee4 99bd 2a49 b4bd b7d3 683e
00000030: 7108 4ebd f2a2 963d 51d9 9cbd cc76 0cbe
00000040: 9b46 30be 3185 7d3d be51 45bd 999f 263e
00000050: 69f3 48be 1d77 693d d0a2 ccbd ba91 a13e
00000060: b393 3cbe 7e85 48be b0de 0dbe ea52 3abe
00000070: 6a18 973d 90e2 32be ae63 bcbe 242c d0bd

net2.4.weight f4 [12, 32]
-0.10206241 0.05646698 -0.07987357 -0.22987284 -0.084807955 -0.13178898 -0.17100604 0.21341151
0.058146026 0.011174838 0.02428908 -0.11054443 -0.16883169 -0.057618614 -0.011251996 0.20429385
0.15905063 -0.1699446 0.050937165 -0.13420074 0.063528255 0.07076525 -0.01889616 -0.0012713444
0.026017012 0.24173439 -0.15538101 -0.11149307 0.23479655 0.20906289 0.0737097 0.26900908
0.06099702 0.112714455 0.16957597 -0.034927104 -0.027859695 0.12580962 0.0044533783 0.15960483
-0.086131416 -0.09586386 -0.07210775 0.25171402 -0.029893074 0.0934643 -0.018153748 0.092164315
0.08945666 0.10021594 0.012137281 0.20919839 0.08921199 0.1877709 0.07032341 0.14864466
-0.01570757 0.08752553 0.017079651 0.18107255 0.16535144 0.08788997 -0.11002963 -0.02935299
-0.022161016 0.012886962 -0.062565096 -0.21968193 0.17599885 0.1397439 -0.18899785 0.04293012
0.16244538 -0.11694573 0.08971798 0.016597863 0.013709885 0.010074951 0.15237267 -0.12953487
-0.04573464 -0.17323606 -0.12716669 0.095760055 -0.07388122 -0.17259797 0.05403919 0.025947718
0.044524804 0.21531273 -0.07459183 -0.171667 -0.04664802 0.23912631 0.17114718 0.054953143
-0.034657698 -0.022116488 0.005920789 0.036057245 0.05278227 -0.013061002 0.17117912 0.06023004
-0.030514872 -0.10768299 -0.0039143106 0.04304075 -0.17000121 0.20416528 -0.12323643 0.12041207
-0.0638189 -0.021109743 -0.08184501 -0.16834511 -0.003218488 0.08718704 -0.12691554 0.0341418
0.14328982 -0.3492494 0.028273497 -0.0993093 -0.047850914 -0.013377316 0.26220512 -0.11306398
-0.16205913 0.20607434 0.1283863 0.057774045 0.101889074 -0.060754426 -0.052211996 0.061107777
0.13608675 -0.111235335 -0.09422418 0.09454172 0.15524329 0.24942788 -0.06981461 0.053786296
0.029574633 -0.059682038 0.1705911 -0.08449157 -0.32353303 -0.018713577 0.06193222 -0.004234049
-0.1144752 0.15819466 0.13293025 -0.014518689 0.11563316 0.08084106 -0.18989855 0.022372708
0.014192682 0.17289928 -0.083395824 0.1334621 0.07881144 -0.15140964 -0.037577733 -0.068015486
0.09964608 0.107312545 -0.095331155 0.12668261 0.1268818 0.046120226 0.17258692 0.0586172
-0.008559582 0.12825607 0.014199905 -0.0044117556 0.08658887 0.067265905 -0.09740853 -0.15192537
-0.032462943 0.20211382 -0.17221221 0.15095526 -0.107811496 -0.0571131 -0.28261617 -0.096345395
0.11389087 0.07504395 0.018817406 -0.11956042 -0.015248828 -0.16475217 -0.04343719 0.029552197
-0.06632662 -0.11157822 -0.08674814 -0.010495847 -0.111304365 0.04128139 0.00879126 -0.17056996
-0.1266414 0.08530585 0.13540569 0.043392077 -0.07022728 -0.012450852 -0.04142053 0.12296564
0.0826699 0.12766287 -0.15217404 0.04444373 -0.049502883 0.07669084 -0.22551489 -0.046297684
-0.060623895 0.09448691 0.00044200587 -0.07038592 -0.05797407 -0.13545118 -0.0336502 0.05559936
-0.029899372 -0.037682485 0.017819138 0.022471022 0.08801505 -0.032784913 0.041310664 0.01943402
-0.061091162 0.15487161 0.07557003 0.03006042 -0.1153703 -0.09319159 -0.035929747 -0.04765671
0.06456537 -0.01750934 -0.053736325 -0.15570928 0.05574412 -0.06258027 -0.031217238 -0.071076706
00000000: 1906 d1bd ec49 673d c194 a3bd c963 6bbe
00000010: cbaf adbd b1f3 06be 351c 2fbe 8c88 5a3e
00000020: 872a 6e3d ab16 373c e5f9 c63c 1e65 e2bd
00000030: 37e2 2cbe 7f01 6cbd 4b5a 38bc 6832 513e
00000040: 2bde 223e f505 2ebe 7da3 503d eb6b 09be
00000050: 1a1b 823d 5fed 903d 1fcc 9abc 3da3 a6ba
00000060: a121 d53c 3889 773e 331c 1fbe 7b56 e4bd
00000070: 826e 703e 9514 563e 1cf5 963d 8fbb 893e
00000080: 03d8 793d d6d6 e63d 53a5 2d3e b90f 0fbd
00000090: 043a e4bc 3dd4 003e a5ed 913b 736f 233e
000000a0: ab65 b0bd 4554 c4bd 3aad 93bd a9e0 803e
000000b0: 52e2 f4bc 366a bf3d 2bb7 94bc a5c0 bc3d
000000c0: 0e35 b73d 043e cd3d 72db 463c 1a38 563e
000000d0: c7b4 b63d 0447 403e b805 903d 4e36 183e
000000e0: 29ad 80bc 9640 b33d a0ea 8b3c 156b 393e
000000f0: e351 293e a8ff b33d 3757 e1bd af75 f0bc
00000100: 058b b5bc d623 533c 2122 80bd 4df4 60be
00000110: 0b39 343e 0619 0f3e a788 41be 7ed7 2f3d
00000120: 1558 263e 3e81 efbd 0fbe b73d 3ef8 873c
00000130: 6d9f 603c 6811 253c 9507 1c3e caa4 04be
00000140: 3f54 3bbd cb64 31be fc37 02be d91d c43d
00000150: 094f 97bd 86bd 30be 3358 5d3d 4f90 d43c
00000160: a45f 363d f17a 5c3e 9ac3 98bd 79c9 2fbe
00000170: ff11 3fbd 87dd 743e 3541 2f3e 8c16 613d
00000180: 3bf5 0dbd a32d b5bc 2e03 c23b c3b0 133d
00000190: 3932 583d d0fd 55bc 9449 2f3e c6b3 763d
000001a0: 53fa f9bc e688 dcbd 9e43 80bb 7f4b 303d
000001b0: cc14 2ebe b410 513e 6263 fcbd 9a9a f63d
000001c0: 7cb3 82bd 57ee acbc 5b9e a7bd a962 2cbe
000001d0: 45ed 52bb 1e8f b23d 26f6 01be 46d8 0b3d
000001e0: 91ba 123e d1d0 b2be d29d e73c ad62 cbbd
000001f0: 52ff 43bd 882c 5bbc c03f 863e 178e e7bd
00000200: d4f2 25be 2705 533e b377 033e 7aa4 6c3d
00000210: 38ab d03d a2d9 78bd 3fdc 55bd 264c 7a3d
00000220: 535a 0b3e 5acf e3bd 9bf8 c0bd 179f c13d
00000230: 19f8 1e3e 066a 7f3e f6fa 8ebd 054f 5c3d
00000240: 8046 f23c 2775 74bd 6faf 2e3e eb09 adbd
00000250: 1fa6 a5be 374d 99bc a4ac 7d3d c7bd 8abb
00000260: f971 eabd c8fd 213e de1e 083e ccdf 6dbc
00000270: 14d1 ec3d ff8f a53d c474 42be f846 b73c
00000280: 6c88 683c 820c 313e 6ecb aabd 4aaa 083e
00000290: e467 a13d 210b 1bbe 1ceb 19bd b44b 8bbd
000002a0: 3e13 cc3d aec6 db3d fb3c c3bd 16b9 013e
000002b0: 4ded 013e 90e8 3c3d a0ba 303e 9718 703d
000002c0: 7d3d 0cbc 8f55 033e b8a6 683c 7d90 90bb
000002d0: 8155 b13d b5c2 893d 207e c7bd 5392 1bbe
000002e0: ddf7 04bd edf6 4e3e 6658 30be 0494 1a3e
000002f0: 46cc dcbd 6def 69bd 11b3 90be bc50 c5bd
00000300: 9e3f e93d a4b0 993d f626 9a3c 18dc f4bd
00000310: 38d6 79bc cbb4 28be 32eb 31bd 7317 f23c
00000320: 40d6 87bd 1f83 e4bd 02a9 b1bd c6f6 2bbc
00000330: 8bf3 e3bd ad16 293d 3809 103c e4a9 2ebe
00000340: 48ae 01be d5b4 ae3d caa7 0a3e e4bb 313d
00000350: 52d3 8fbd a9fe 4bbc 93a8 29bd 69d5 fb3d
00000360: d64e a93d 0eba 023e 83d3 1bbe a10a 363d
00000370: 89c3 4abd 1610 9d3d 60ed 66be a4a2 3dbd
00000380: c350 78bd 5a82 c13d 06bd e739 7e26 90bd
00000390: 3876 6dbd b7b3 0abe cbd4 09bd 28bc 633d
000003a0: 87ef f4bc f358 1abd 71f9 913c 2615 b83c
000003b0: 3c41 b43d 7949 06bd 5f35 293d 1834 9f3c
000003c0: ba3a 7abd aa96 1e3e 76c4 9a3d 4541 f63c
000003d0: 4447 ecbd 3bdb bebd 122b 13bd af33 43bd
000003e0: d93a 843d bf6f 8fbc 9f1a 5cbd 4172 1fbe
000003f0: f253 643d 162a 80bd 4bbb ffbc aa90 91bd

net2.4.bias f4 [12]
-0.013176854 0.063975886 -0.13228846 0.2310459 -0.08350145 -0.059809446 -0.17473677 -0.14547734
0.031045992 -0.2385266 -0.025855657 -0.19985136
00000000: bbe3 57bc ca05 833d a076 07be 4c97 6c3e
00000010: cf02 abbd c0fa 74bd 32ee 32be 03f8 14be
00000020: 2a54 fe3c 5140 74be 3ecf d3bc d6a5 4cbe

exp_avg f4 [32, 4]
-0.018637396 -0.0050768624 0.002930028 0.0015782281 -0.012639168 -0.008349083 0.008310817 0.00029963296
0.0027206652 -0.0073798858 -0.014872865 -0.0009261029 0.008441235 0.0120246615 -0.008459201 0.00046839038
0.0122818295 -0.004372272 0.008935829 0.00916163 0.000858257 0.013265378 -0.00058648136 0.008419432
0.02784676 0.004072426 0.001465488 0.0009777327 0.012169613 0.01827121 0.009998777 -0.002111263
-4.7002748e-05 0.0064566643 0.0024606844 -0.00256127 0.018607112 0.0052672722 0.0025320456 0.0035435627
-0.010885883 -0.0007017251 -0.0002645349 -0.0054330686 0.008538447 -0.00034980485 -0.006633917 0.0009522447
-0.014332646 0.003360146 -0.0015262123 -0.008952779 -0.02198871 -0.01206338 -0.0056174025 0.0018438208
0.007914974 0.0015264878 0.016137704 -0.0009964544 -0.011831663 -0.0018465527 0.0033724045 -0.0224793
-0.0037344785 -0.0035443502 -0.006885045 -0.0030477382 0.014695055 0.0051018237 0.0034106283 -0.0068626516
0.014201811 -0.004127184 0.002428053 0.0049127922 0.014469698 0.02117491 0.0016155194 0.0035645384
-0.012255601 -0.0045930124 -0.0040626763 -0.00016286969 -0.016773982 -0.022099447 -0.00045985912 0.00815472
-0.0062332763 -0.0044925553 -0.011545754 0.00035469705 -0.0103741735 -0.015566313 -0.00649693 0.00678522
0.028053695 0.008816034 0.0039394773 -0.0017799591 0.025629433 0.0124966325 0.0014308784 -0.006643442
0.013494222 0.003247756 -0.00600466 -0.003861712 0.008530569 0.0067088096 -0.0055454043 0.0055223787
-0.0038579626 0.0040491014 0.0019409286 -0.0053574564 0.015938444 0.008798974 0.011320268 -0.007343842
-0.024675885 -0.012610799 -0.009349818 0.0037966447 0.008195583 0.005446135 -0.0024834783 0.0037340594
00000000: 74ad 98bc cf5b a6bb b605 403b 8cdc ce3a
00000010: 8314 4fbc 98ca 08bc 182a 083c 0e18 9d39
00000020: 304d 323b f8d2 f1bb 51ad 73bc b7c5 72ba
00000030: 1b4d 0a3c 1603 453c 7698 0abc 4b92 f539
00000040: ba39 493c 4745 8fbb 9567 123c a91a 163c
00000050: a7fc 603a 0757 593c 19be 19ba a8f1 093c
00000060: e31e e43c fc71 853b 9e15 c03a 4427 803a
00000070: 0e63 473c 81ad 953c e9d1 233c 1e5d 0abb
00000080: d124 45b8 6d92 d33b 6f43 213b fbda 27bb
00000090: f16d 983c 1599 ac3b adf0 253b 1e3b 683b
000000a0: b45a 32bc f9f3 37ba 46b1 8ab9 e207 b2bb
000000b0: d8e4 0b3c 0366 b7b9 5461 d9bb 0fa0 793a
000000c0: 79d3 6abc e535 5c3b 300b c8ba adae 12bc
000000d0: ab21 b4bc 7ca5 45bc 3012 b8bb 5cac f13a
000000e0: cfad 013c 6e14 c83a 3833 843c 769b 82ba
000000f0: 97d9 41bc 0708 f2ba 8f03 5d3b 8226 b8bc
00000100: 27be 74bb 5448 68bb f29b e1bb 90bc 47bb
00000110: 87c3 703c 332d a73b d984 5f3b 18e0 e0bb
00000120: b6ae 683c 543d 87bb f81f 1f3b 7dfb a03b
00000130: 5012 6d3c 0177 ad3c d6bf d33a 089b 693b
00000140: b7cb 48bc fb80 96bb 3320 85bb 00c8 2ab9
00000150: 9769 89bc e609 b5bc 3f19 f1b9 609b 053c
00000160: 8340 ccbb 4936 93bb 672a 3dbc a2f6 b939
00000170: 70f8 29bc d909 7fbc 33e4 d4bb 8d56 de3b
00000180: ddd0 e53c 2071 103c bb16 813b 844d e9ba
00000190: d1f4 d13c adbe 4c3c 508c bb3a 3bb1 d9bb
000001a0: df16 5d3c 4ed8 543b bdc2 c4bb c714 7dbb
000001b0: cdc3 0b3c 93d5 db3b 39b6 b5bb 12f5 b43b
000001c0: dfd5 7cbb 53ae 843b c266 fe3a 9a8d afbb
000001d0: 5791 823c 9229 103c a578 393c 9da4 f0bb
000001e0: 1525 cabc 869d 4ebc fb2f 19bc 21d1 783b
000001f0: c446 063c 7e75 b23b dac1 22bb 1fb7 743b

exp_avg_sq f4 [32, 4]
1.6326014 0.022303099 0.03943004 0.049796034 1.1097043 0.019195916 0.033549868 0.021553136
1.581448 0.03757512 0.075259864 0.025693271 0.3346788 0.022179242 0.018208902 0.017949024
3.6870682 0.11717147 0.19205932 0.104323946 1.3488042 0.07404291 0.029835371 0.06843616
1.9959133 0.09594096 0.14655401 0.09035202 0.57629293 0.011502329 0.017689433 0.008702963
1.2953961 0.04338063 0.021877544 0.023017377 4.9171267 0.110720076 0.15977575 0.10146581
1.233637 0.024113927 0.047866687 0.026570126 1.0631429 0.045277998 0.031126685 0.049339075
3.0823326 0.082641914 0.1925301 0.20123734 0.22946209 0.004643508 0.010013436 0.0070757824
1.0198517 0.030346958 0.029740524 0.020159878 0.12936985 0.022343364 0.0046454878 0.013768359
2.1478503 0.03145347 0.07706446 0.060683787 1.0127465 0.021040678 0.042751636 0.042861022
1.1068316 0.08968667 0.11943985 0.020605871 2.3749053 0.051615987 0.08887092 0.037763603
2.9170778 0.068494834 0.094773814 0.08201828 0.5542013 0.030885534 0.024529835 0.011430275
0.4546496 0.005045333 0.009894677 0.01052198 1.4499917 0.027771194 0.069576256 0.048847966
0.9050796 0.008329192 0.011924996 0.0070698685 0.38792953 0.010780856 0.020999908 0.009894956
0.83603907 0.019881856 0.03046899 0.022246905 1.4031525 0.06103617 0.08590743 0.039420214
2.5971775 0.108485855 0.05773955 0.07164603 0.44059077 0.018653875 0.016752318 0.017261036
0.94443274 0.0296906 0.028168516 0.017019527 0.7702358 0.03207205 0.036655363 0.03599366
00000000: 15f9 d03f fdb4 b63c 6581 213d edf6 4b3d
00000010: ca0a 8e3f c140 9d3c 966b 093d 3490 b03c
00000020: e36c ca3f 5ee8 193d d821 9a3d b27a d23c
00000030: 055b ab3e 3eb1 b53c d62a 953c d509 933c
00000040: edf8 6b40 98f7 ef3d 33ab 443e cba7 d53d
00000050: 9ea5 ac3f cfa3 973d 4f69 f43c 4228 8c3d
00000060: 167a ff3f b27c c43d 4112 163e 7b0a b93d
00000070: ef87 133f 4474 3c3c 6ee9 903c df96 0e3c
00000080: 8acf a53f e3af 313d 8938 b33c f08e bc3c
00000090: 1a59 9d40 35c1 e23d 419c 233e 4ecd cf3d
000000a0: d1e7 9d3f 928a c53c dc0f 443d 98a9 d93c
000000b0: 1115 883f 6c75 393d 64fd fe3c c517 4a3d
000000c0: f044 4540 2a40 a93d 9c26 453e 2911 4e3e
000000d0: 1cf8 6a3e 9128 983b 650f 243c f7db e73b
000000e0: 808a 823f 2f9a f83c 66a2 f33c 5426 a53c
000000f0: 8879 043e 6e09 b73c 2d39 983b af94 613c
00000100: 6176 0940 5bd5 003d f9d3 9d3d 908f 783d
00000110: ada1 813f 805d ac3c 571c 2f3d 0a8f 2f3d
00000120: a8ac 8d3f a5ad b73d e19c f43d a5cd a83c
00000130: 73fe 1740 496b 533d f501 b63d 02ae 1a3d
00000140: 67b1 3a40 0547 8c3d c618 c23d 33f9 a73d
00000150: 23e0 0d3f a903 fd3c cbf2 c83c 0c46 3b3c
00000160: d5c7 e83e 5253 a53b 491d 223c 6264 2c3c
00000170: 5499 b93f 6a80 e33c ff7d 8e3d ce14 483d
00000180: 4cb3 673f 2a77 083c 0f61 433c 5baa e73b
00000190: b39e c63e 30a2 303c 0008 ac3c 741e 223c
000001a0: a806 563f 46df a23c 1a9a f93c 243f b63c
000001b0: 809a b33f 1001 7a3d 3cf0 af3d 1777 213d
000001c0: 2838 2640 d52d de3d 4e80 6c3d 27bb 923d
000001d0: 1d95 e13e 03d0 983c 283c 893c 0467 8d3c
000001e0: 58c6 713f b339 f33c a9c1 e63c 896c 8b3c
000001f0: 2c2e 453f fb5d 033d ef23 163d 176e 133d

exp_avg f4 [32]
0.032791227 0.059755035 -0.0060255495 -0.0169354 -0.02711507 -0.0026114269 -0.04032236 -0.023537168
0.0050945114 -0.036314245 0.036539037 -0.044285305 0.031167733 0.06280415 -0.022097236 0.0008189872
0.025348399 -0.04428996 -0.01770695 -0.02637826 0.025771573 0.013084989 0.031322937 0.017150452
-0.077516444 -0.0287976 -0.04160687 -0.027847005 0.023566827 -0.029290201 0.036909167 -0.013717411
00000000: 1850 063d b2c1 743d f971 c5bb 1cbc 8abc
00000010: 6c20 debc 7924 2bbb 0f29 25bd 05d1 c0bc
00000020: dcef a63b 3fbe 14bd f5a9 153d 8264 35bd
00000030: 7953 ff3c 769f 803d 4305 b5bc 4db1 563a
00000040: 72a7 cf3c 6469 35bd 2a0e 91bc 3917 d8bc
00000050: e81e d33c 6c62 563c 7b4c 003d 1b7f 8c3c
00000060: f1c0 9ebd f2e8 ebbc f76b 2abd 671f e4bc
00000070: 380f c13c 01f2 efbc 112e 173d febe 60bc

exp_avg_sq f4 [32]
17.729717 32.46874 34.885166 12.244144 97.15951 38.970303 59.320774 7.315093
31.95202 79.28839 38.702415 33.023777 96.10278 4.0882635 17.504128 2.6074514
39.957943 22.239073 39.30807 50.46852 51.871346 8.877027 4.7709126 39.409428
4.5582027 9.625393 15.259204 42.47985 59.255543 8.108619 15.085014 23.604786
00000000: 76d6 8d41 fddf 0142 698a 0b42 04e8 4341
00000010: ab51 c242 97e1 1b42 7948 6d42 3e15 ea40
00000020: bd9d ff41 a893 9e42 46cf 1a42 5918 0442
00000030: a034 c042 0ed3 8240 7408 8c41 7ce0 2640
00000040: efd4 1f42 9fe9 b141 773b 1d42 c4df 4942
00000050: 427c 4f42 4d08 0e41 51ab 9840 41a3 1d42
00000060: ccdc 9140 9c01 1a41 b325 7441 5eeb 2942
00000070: ad05 6d42 e7bc 0141 385c 7141 9ad6 bc41
