scalar_lattice/model_M4_d3.pth (torch, 23097 bytes, 12 tensors)

net1.0.weight f4 [32, 4]
-0.049774293 0.19408761 -0.13078132 0.029682448 0.47417927 0.115077354 0.5535108 -0.15519254
-0.12699488 -0.16645741 0.43831018 0.15162548 0.009386127 0.22502609 0.24536766 -0.17593946
-0.24777648 0.2549253 0.42313778 -0.14532018 -0.38508555 -0.44775295 0.23590195 -0.1841372
-0.2358791 0.09433134 0.23291531 0.1994307 0.2797764 0.37958905 -0.35144588 -0.266547
0.2896521 0.10786315 -0.13747525 -0.4609336 -0.06701006 -0.31271437 -0.08650686 -0.26924276
-0.12178238 0.3235583 -0.08429621 -0.20430897 -0.15756883 -0.40323505 -0.17343007 -0.01519642
0.008749706 -0.76078486 -0.294508 -0.32522678 0.2669181 0.43336177 -0.37614074 0.3995838
-0.038406044 -0.30693072 0.6882903 0.257151 -0.5711154 -0.35480705 -0.19300757 -0.54397714
0.4215036 0.662802 0.068555474 0.35047722 0.111843556 -0.027120803 0.17350115 -0.57779664
-0.29922387 0.10771367 0.1201356 0.23122108 -0.4164169 -0.113853715 -0.34951976 -0.0012203008
-0.04531235 -0.02124435 -0.20992334 0.28952026 0.42787504 -0.029271504 0.1881275 -0.344775
-0.15943716 -0.57818055 0.20698963 0.19219263 -0.12230787 0.53493387 -0.27964854 0.3494508
-0.3473044 0.41309518 0.316316 0.17623025 0.40978655 -0.29656753 -0.31843662 -0.05013662
-0.21019524 -0.08178622 0.19376172 -0.25219125 -0.041700378 -0.15778697 -0.34687445 -0.49743703
-0.59062046 0.23737413 -0.9188826 0.39113578 0.1548558 -0.013493495 -0.000578587 0.028038543
0.27308252 -0.08956282 -0.24203882 -0.29400054 0.27768376 0.43946642 -0.32392433 0.18837209
00000000: 21e0 4bbd e7be 463e 8aeb 05be 9b28 f33c
00000010: a0c7 f23e adad eb3d e2b2 0d3f cbea 1ebe
00000020: f20a 02be d073 2abe 316a e03e b643 1b3e
00000030: 45c8 193c 3d6d 663e a941 7b3e 7929 34be
00000040: 1eb9 7dbe 9285 823e 84a5 d83e d0ce 14be
00000050: ef29 c5be e03f e5be 4890 713e 768e 3cbe
00000060: 4a8a 71be ca30 c13d 5a81 6e3e 9037 4c3e
00000070: da3e 8f3e 7f59 c23e b7f0 b3be d978 88be
00000080: 484d 943e 5be7 dc3d 50c6 0cbe 7dff ebbe
00000090: 923c 89bd 191c a0be 822a b1bd 30da 89be
000000a0: 0a69 f9bd 6fa9 a53e 7ea3 acbd 5f36 51be
000000b0: b959 21be d374 cebe a797 31be 68fa 78bc
000000c0: ed5a 0f3c ccc2 42bf c1c9 96be 2084 a6be
000000d0: 7da9 883e 98e1 dd3e 8595 c0be 3f96 cc3e
000000e0: a84f 1dbd 0626 9dbe cb33 303f 4ca9 833e
000000f0: 9e34 12bf 45a9 b5be c7a3 45be 1642 0bbf
00000100: 52cf d73e 64ad 293f d066 8c3d c071 b33e
00000110: 3c0e e53d 722c debc 49aa 313e 7bea 13bf
00000120: df33 99be fc98 dc3d a709 f63d 38c5 6c3e
00000130: 9934 d5be 232c e9bd 41f4 b2be 80f2 9fba
00000140: 7199 39bd a208 aebc 25f6 56be 003c 943e
00000150: 7012 db3e cbca efbc 7fa4 403e 5986 b0be
00000160: 7f43 23be a403 14bf 17f5 533e 25ce 443e
00000170: 8c7c fabd 6df1 083f 182e 8fbe 37eb b23e
00000180: e2d1 b1be 3681 d33e 2cf4 a13e b475 343e
00000190: 8bcf d13e b3d7 97be 200a a3be 0e5c 4dbd
000001a0: 6c3d 57be 897f a7bd 7969 463e 361f 81be
000001b0: 04ce 2abd e892 21be 8799 b1be 11b0 febe
000001c0: e732 17bf 3412 733e e43b 6bbf f342 c83e
000001d0: 8592 1e3e d213 5dbc 51ac 17ba 16b1 e53c
000001e0: 79d1 8b3e b66c b7bd 06d9 77be 3d87 96be
000001f0: 912c 8e3e be01 e13e 69d9 a5be 9de4 403e

net1.0.bias f4 [32]
-0.036017373 -0.3886259 0.33227667 0.0066537987 -0.0061212503 -0.0023275705 0.05641748 0.17508617
0.15966058 0.14150657 -0.3787279 0.2978019 -0.038049977 0.11451882 0.14838395 -0.0023617407
-0.07259961 0.048347495 -0.2759205 -0.15172127 0.28403658 0.22996017 0.305285 -0.18322702
-0.14526255 0.2737399 0.04198954 0.44227126 -0.16623762 0.27206522 0.15312932 -0.07263305
00000000: f486 13bd f9f9 c6be 2b20 aa3e 1c08 da3b
00000010: c594 c8bb 278a 18bb 0416 673d ca49 333e
00000020: 107e 233e 19e7 103e a0e8 c1be 7e79 983e
00000030: 4bda 1bbd d888 ea3d f6f1 173e 6fc7 1abb
00000040: 1baf 94bd 0608 463d 7445 8dbe d25c 1bbe
00000050: 3e6d 913e ae7a 6b3e 514e 9c3e dd9f 3bbe
00000060: b5bf 14be a327 8c3e 39fd 2b3d 6171 e23e
00000070: 323a 2abe 224c 8b3e efcd 1c3e a3c0 94bd

net1.2.weight f4 [32, 32]
0.045035355 0.13887697 0.050767828 0.2622683 -0.002621336 -0.006132553 0.20313632 0.060843445
0.046357818 -0.11051572 0.12274337 0.17728865 -0.05125633 0.0637688 0.11446882 0.101017825
-0.14243808 -0.13456582 0.27567866 0.008153697 -0.07882734 -0.15638 -0.07097877 0.18419087
0.20365627 -0.32822534 0.05420669 -0.25660425 -0.095851615 -0.07922731 -0.24603313 -0.17367376
0.044665884 0.25451812 -0.23550369 0.33736357 -0.054081675 -0.22147292 -0.09005965 0.030497206
0.086122 -0.32539234 0.24449204 -0.28085756 -0.2517646 0.14959724 -0.013214015 -0.040679518
0.29551104 0.08089818 0.1277166 -0.18753843 -0.20054689 0.15287818 -0.40509465 0.43061548
0.03482118 -0.013819608 -0.07207802 -0.008642632 -0.06608126 0.07481008 0.015687907 0.014716421
-0.15348287 -0.39156884 0.26198828 0.08941568 0.2991198 0.20307983 0.059333522 -0.10849012
0.09443073 0.13140915 -0.0076472177 0.13470888 0.00085883186 -0.06689461 0.35335812 0.23186313
-0.25888875 0.0035494661 0.113671795 0.18240352 0.12161239 0.04683405 0.1443069 -0.12778299
-0.022013433 0.094551384 0.18496022 0.2620731 0.11631141 0.20397836 -0.115665376 -0.21524681
0.044476476 -0.1333336 -0.21870925 0.062154155 -0.10413373 0.1568514 0.034458593 -0.01997427
-0.10788597 0.0029749728 -0.053803336 -0.1584132 0.1672115 -0.11675786 0.126282 0.099659406
-0.060757123 -0.24497563 0.042650558 0.23842044 0.05666145 -0.2972901 0.015854612 0.10044615
0.16776645 -0.13876106 0.17388839 -0.10199361 0.19811764 -0.15012708 -0.25862595 0.050877925
0.049034104 0.3870931 -0.06617452 -0.039771304 -0.04098927 -0.15059647 -0.45221245 0.17683882
-0.1114125 -0.07897082 -0.025109967 -0.25251514 0.37016246 0.11772712 -0.3869724 0.09510508
0.1346325 -0.13982594 0.021530895 -0.01817021 -0.03400527 0.14321153 -0.042782407 0.122020915
-0.19434562 0.21698704 -0.21945052 -0.2446648 -0.015282617 -0.1069631 -0.10876732 0.18441594
-0.09160861 -0.015637582 0.25659236 -0.33331043 -0.3249991 -0.067053296 0.014343659 -0.24804662
-0.16924916 -0.10228115 -0.038631115 0.06626119 -0.28243363 0.028550697 0.015865777 -0.28452387
0.25762504 -0.6839212 0.21316436 0.18720908 0.028601713 -0.21729884 0.17003481 0.31267127
0.22558393 0.060766548 -0.21606271 -0.20550594 0.19382249 0.113464266 -0.26211765 -0.02675788
0.045569956 0.21844956 -0.21818505 0.0053294017 0.10024781 0.118037336 -0.1457295 0.108201
-0.06445356 -0.06259993 0.16335422 -0.04985144 0.24828322 -0.1927767 -0.19639067 -0.010986093
0.15345511 0.062421814 0.0017122986 -0.008251978 -0.08279577 -0.0049301023 0.017404348 0.06482107
-0.023269631 -0.14767484 -0.08464195 -0.2554362 0.15555763 -0.09188138 -0.024712075 0.16643852
-0.17351002 0.16334884 0.056653492 -0.13852635 -0.14658257 -0.034350928 -0.08572882 0.008528776
-0.020072844 0.07474245 0.055412225 0.115794376 0.18770725 0.046480857 0.052237194 0.031455636
-0.09089066 -0.16881382 -0.12055616 -0.15578374 0.044737086 -0.10324223 0.032988936 -0.13789462
-0.009541029 -0.09773276 -0.19887058 0.08196418 -0.20244695 -0.058130033 0.10713927 -0.049843848
00000000: fe76 383d c435 0e3e edf1 4f3d 0848 863e
00000010: b8ca 2bbb 95f3 c8bb f802 503e fa36 793d
00000020: b2e1 3d3d 1156 e2bd e060 fb3d 288b 353e
00000030: 28f2 51bd 3799 823d a16e ea3d 6fe2 ce3d
00000040: 4adb 11be 9fcb 09be c125 8d3e 1597 053c
00000050: 3a70 a1bd 1422 20be 515d 91bd 889c 3c3e
00000060: 458b 503e 270d a8be d607 5e3d a261 83be
00000070: da4d c4bd ee41 a2bd 1cf0 7bbe 89d7 31be
00000080: 93f3 363d 3350 823e e127 71be ebba ac3e
00000090: bf84 5dbd ccc9 62be 3271 b8bd 47d5 f93c
000000a0: bb60 b03d d399 a6be 1f5c 7a3e 90cc 8fbe
000000b0: 4ae7 80be 0530 193e 997f 58bc 919f 26bd
000000c0: 394d 973e f2ad a53d 24c8 023e 130a 40be
000000d0: 2a5c 4dbe 198c 1c3e 9168 cfbe a279 dc3e
000000e0: a7a0 0e3d a36b 62bc a49d 93bd d399 0dbc
000000f0: 9d55 87bd 0736 993d ed83 803c 251d 713c
00000100: 9d2a 1dbe b67b c8be 5423 863e 911f b73d
00000110: 3b26 993e 29f4 4f3e b507 733d 1130 debd
00000120: e664 c13d 1f90 063e 8395 fabb 20f1 093e
00000130: 3b23 613a 0b00 89bd 5beb b43e 876d 6d3e
00000140: 118d 84be 299e 683b c2cc e83d fdc7 3a3e
00000150: eb0f f93d 10d5 3f3d 30c5 133e 8bd9 02be
00000160: 8455 b4bc 28a4 c13d 3666 3d3e 722e 863e
00000170: ad34 ee3d b4df 503e f8e1 ecbd a969 5cbe
00000180: f72c 363d 9a88 08be 51f5 5fbe 5b95 7e3d
00000190: 1144 d5bd a79d 203e 7424 0d3d 15a1 a3bc
000001a0: 52f3 dcbd c3f7 423b e360 5cbd 1237 22be
000001b0: 7e39 2b3e bf1e efbd 1250 013e 3b1a cc3d
000001c0: 76dc 78bd e4da 7abe 5ab2 2e3d 7d24 743e
000001d0: d615 683d 6836 98be 88e1 813c b6b6 cd3d
000001e0: f8ca 2b3e 6117 0ebe cc0f 323e 07e2 d0bd
000001f0: 5adf 4a3e eaba 19be 9f6a 84be 5f65 503d
00000200: fcd7 483d 1131 c63e 8286 87bd 3ce7 22bd
00000210: 5de4 27bd f635 1abe 6488 e7be 3c15 353e
00000220: 3d2c e4bd 74bb a1bd 6bb3 cdbc aa49 81be
00000230: ef85 bd3e eb1a f13d 3f21 c6be 74c6 c23d
00000240: 1add 093e 882e 0fbe 8f61 b03c b1d9 94bc
00000250: 1c49 0bbd 0ba6 123e 9b3c 2fbd 1ae6 f93d
00000260: 8a02 47be da31 5e3e a3b7 60be 6989 7abe
00000270: f163 7abc 780f dbbd 67c1 debd 88d7 3c3e
00000280: 4b9d bbbd 631a 80bc 1360 833e aaa7 aabe
00000290: 4866 a6be 3d53 89bd ab01 6b3c efff 7dbe
000002a0: a74f 2dbe c878 d1bd a93b 1ebd f2b3 873d
000002b0: 249b 90be 27e3 e93c f2f8 813c 1dad 91be
000002c0: 6ee7 833e 7615 2fbf c247 5a3e bdb3 3f3e
000002d0: 244e ea3c 9683 5ebe 9b1d 2e3e 7316 a03e
000002e0: 79ff 663e 58e6 783d 8b3f 5dbe 2670 52be
000002f0: 6779 463e f45f e83d 4934 86be 5733 dbbc
00000300: 90a7 3a3d 3eb1 5f3e e76b 5fbe 43a2 ae3b
00000310: b94e cd3d 8fbd f13d 1d3a 15be 7c98 dd3d
00000320: 3a00 84bd 6434 80bd 5446 273e 0631 4cbd
00000330: f53d 7e3e 4167 45be a31a 49be 04ff 33bc
00000340: 5623 1d3e 04ae 7f3d 356f e03a 4e33 07bc
00000350: d490 a9bd b28c a1bb 9093 8e3c e9c0 843d
00000360: f49f bebc 1338 17be c258 adbd 89c8 82be
00000370: 804a 1f3e 4e2c bcbd fa70 cabc dc6e 2a3e
00000380: 9cac 31be eb44 273e 7e0d 683d dad9 0dbe
00000390: be19 16be 8fb3 0cbd 9792 afbd 47bc 0b3c
000003a0: ce6f a4bc 9212 993d eef7 623d 9a25 ed3d
000003b0: 5436 403e b662 3e3d abf6 553d a0d7 003d
000003c0: e224 babd 88dd 2cbe 26e6 f6bd c685 1fbe
000003d0: 3c3e 373d aa70 d3bd 681f 073d 3f34 0dbe
000003e0: fa51 1cbc 1d28 c8bd bba4 4bbe d6dc a73d
000003f0: 414e 4fbe c219 6ebd d56b db3d 1029 4cbd

net1.2.bias f4 [32]
-0.12820174 -0.26993096 0.24814941 0.09408134 -0.18008117 -0.17321451 -0.0016531989 0.15384272
0.13635957 -0.22371094 0.04640156 0.22035952 0.08991696 -0.016700238 -0.03450661 0.030143341
-0.17756519 -0.29393128 -0.11031118 0.15737957 -0.07169055 -0.17615056 -0.12695527 0.044100713
-0.21910557 -0.076003805 -0.22273542 0.18494675 -0.033032298 -0.13468295 -0.20276132 -0.2755773
00000000: 5147 03be 6434 8abe e11a 7e3e b8ad c03d
00000010: 3367 38be 255f 31be 26b0 d8ba f288 1d3e
00000020: d8a1 0b3e 7b14 65be 900f 3e3d eda5 613e
00000030: 6226 b83d f0ce 88bc ce56 0dbd 2bef f63c
00000040: a6d3 35be 297e 96be d4ea e1bd 1c28 213e
00000050: 7fd2 92bd d060 34be 9000 02be f3a2 343d
00000060: 365d 60be e2a7 9bbd c114 64be ae62 3d3e
00000070: e04c 07bd 54ea 09be aaa0 4fbe 7818 8dbe

net1.4.weight f4 [32, 32]
-0.11019086 -0.86344486 -0.041501552 -0.1491433 0.0026622918 -0.32867727 0.0039725746 0.18188065
0.14887826 0.10453172 -0.23515874 0.13522395 0.20555222 -0.10072214 -0.15412486 0.15041424
0.14828946 -0.07244975 -0.010620252 -0.020855784 -0.31419 -0.123884894 -0.099339426 -0.16878968
0.21009293 -0.08452099 -0.022577098 -0.0756863 -0.040227026 -0.16666599 -0.058646157 0.16204034
-0.20190021 -0.041544672 -0.08718431 -0.014613315 -0.039075296 -0.029725838 -0.17632861 -0.2017714
0.067926496 -0.017385103 -0.20797455 -0.031586252 -0.21054007 -0.15504828 0.010370934 0.15314718
0.19563183 0.034811605 -0.011020246 -0.21128136 -0.06862325 -0.006665477 -0.02956578 -0.22234364
-0.02236861 -0.036903802 -0.02212243 0.050450746 -0.168791 -0.104830235 -0.200121 -0.016375748
0.17775248 0.1397497 0.04446386 0.0105175655 -0.049141794 0.07852498 -0.013820688 -0.10642085
-0.16550945 -0.15013064 -0.19413124 0.051936634 0.013614256 0.12212934 -0.08606235 -0.19895129
0.17215417 0.023661388 0.1760078 -0.26153612 0.14354189 0.076119125 0.13187017 -0.28753152
-0.13234395 -0.14550677 0.034065 0.12798384 0.073233515 0.11365484 -0.04663422 -0.1144537
-0.10536743 -0.01380206 0.086369134 -0.17341137 0.01561507 0.02045475 -0.1592829 0.04617186
0.14094621 -0.08207239 0.042660695 -0.14745903 0.054518074 -0.13599251 0.022758404 -0.12792431
-0.1468451 -0.14107583 0.10877425 -0.19621836 0.02542514 -0.06166025 -0.27946422 0.033907417
0.084621765 -0.14715584 0.1566253 -0.2036405 -0.0135798855 -0.119367756 -0.036266435 -0.1528484
0.73671156 -0.15708737 -0.12427472 -0.12017366 0.15032774 -0.13460454 0.074657984 -0.060620833
0.059592612 0.030323524 -0.15487999 0.06773675 0.21589437 0.082638 -0.16502123 -0.0755267
0.1902466 -0.09567014 0.20855904 -0.016706835 -0.5923555 0.045383196 -0.1477264 -0.01402864
0.029102093 0.05796474 0.2171606 0.105619505 0.18325888 0.094817154 -0.0059477976 0.23944844
-0.19015467 0.05527018 -0.09209669 -0.093164824 -0.0131232785 -0.052771106 -0.1432914 -0.1776686
0.03184916 -0.12543775 -0.022119505 -0.00012939083 -0.22657222 -0.20920989 -0.06654761 0.06583312
-0.14161952 -0.12845893 0.07813676 -0.068124644 -0.06587476 -0.1092249 -0.022722078 -0.25750467
-0.10845503 -0.19618116 0.002832765 -0.21000692 0.18217263 -0.12357648 -0.22274746 -0.18672428
0.10958468 -0.37390718 -0.18277423 0.07318564 0.21273676 0.008546473 -0.096470356 0.15580994
0.13489625 0.2319628 0.15333965 0.16069838 0.19579081 0.17608845 0.0959197 0.11025326
-0.0040532867 -0.0949177 -0.10473161 0.09833521 -0.028757444 -0.17135207 0.09966093 -0.13837878
-0.040584233 -0.03104578 -0.042848527 -0.12659846 0.1921376 0.054825068 0.022312986 0.113162324
-0.030908985 -0.046893675 -0.23038055 -0.21429469 0.0774454 0.016063508 0.08519861 -0.20625542
-0.10360214 0.09214714 0.07275381 0.03996881 -0.015656434 0.003852127 -0.03409223 -0.14976312
-0.058687862 0.028121583 -0.02643617 -0.2498125 -0.044789504 -0.08705263 0.054808524 -0.18680239
0.036113426 0.086100735 -0.1445792 -0.051809862 0.08127562 -0.09903803 -0.21075363 0.05788919
00000000: bfab e1bd b90a 5dbf 88fd 29bd 05b9 18be
00000010: d879 2e3b 6348 a8be 5f2c 823b ec3e 3a3e
00000020: 8b73 183e ba14 d63d 74cd 70be 2678 0a3e
00000030: 487c 523e 6947 cebd e8d2 1dbe 3106 1a3e
00000040: 31d9 173e 8960 94bd 9100 2ebc c0d9 aabc
00000050: 83dd a0be 5db7 fdbd 7872 cbbd 34d7 2cbe
00000060: 9a22 573e 5719 adbd 9bf3 b8bc 6b01 9bbd
00000070: 18c5 24bd 7daa 2abe f436 70bd e7ed 253e
00000080: eebe 4ebe bf2a 2abd b08d b2bd b06c 6fbc
00000090: 6b0d 20bd 9a83 f3bc 7d8f 34be 299d 4ebe
000000a0: 0c1d 8b3d 346b 8ebc 48f7 54be 9660 01bd
000000b0: d197 57be fac4 1ebe daea 293c 9dd2 1c3e
000000c0: b653 483e 9d96 0e3d 438e 34bc 245a 58be
000000d0: 598a 8cbd 136a dabb ef33 f2bc 0dae 63be
000000e0: 603e b7bc 7128 17bd 193a b5bc 71a5 4e3d
000000f0: 8cd7 2cbe 3cb1 d6bd 85ec 4cbe 6f26 86bc
00000100: bf04 363e 8c1a 0f3e bd1f 363d de51 2c3c
00000110: e848 49bd b4d1 a03d 2b70 62bc 2df3 d9bd
00000120: 4f7b 29be d9bb 19be 57ca 46be 82bb 543d
00000130: 540e 5f3c f31e fa3d 7541 b0bd e3b9 4bbe
00000140: 2f49 303e 87d5 c13c 643b 343e 10e8 85be
00000150: a5fc 123e 58e4 9b3d f908 073e 5537 93be
00000160: 2c85 07be baff 14be be87 0b3d 320e 033e
00000170: 74fb 953d dec3 e83d 8603 3fbd b466 eabd
00000180: e1ca d7bd 0922 62bc 4de2 b03d c092 31be
00000190: 5ad6 7f3c b890 a73c 0e1b 23be b41e 3d3d
000001a0: 3454 103e 9215 a8bd fbbc 2e3d 80ff 16be
000001b0: 584e 5f3d 9f41 0bbe d56f ba3c 97fe 02be
000001c0: 905e 16be 2f76 10be 09c5 de3d 77ed 48be
000001d0: 6248 d03c 758f 7cbd ef15 8fbe 81e2 0a3d
000001e0: 2d4e ad3d 05b0 16be 6262 203e 2387 50be
000001f0: 2b7e 5ebc 1577 f4bd 1d8c 14bd 4a84 1cbe
00000200: 2199 3c3f 83db 20be bf83 febd 9c1d f6bd
00000210: 84ef 193e c6d5 09be 49e6 983d 8d4d 78bd
00000220: 6217 743d 0a69 f83c dc98 1ebe 91b9 8a3d
00000230: 6a13 5d3e 1d3e a93d 53fb 28be bead 9abd
00000240: 01d0 423e b5ee c3bd 8090 553e c6dc 88bc
00000250: 9ca4 17bf bbe3 393d 9745 17be 62d8 65bc
00000260: 8367 ee3c 6f6c 6d3d 595f 5e3e 0a4f d83d
00000270: 37a8 3b3e 7f2f c23d bee5 c2bb f931 753e
00000280: e8b7 42be fc62 623d 309d bcbd 33cd bebd
00000290: 0503 57bc 8426 58bd fbba 12be c2ee 35be
000002a0: 4474 023d c172 00be f733 b5bc 16ad 07b9
000002b0: 8c02 68be 1e3b 56be 1d4a 88bd 84d3 863d
000002c0: b504 11be bd8a 03be 2a06 a03d ef84 8bbd
000002d0: 59e9 86bd 4eb1 dfbd a723 babc a7d7 83be
000002e0: ac1d debd b7e3 48be e9a5 393b 0e0c 57be
000002f0: 768b 3a3e aa15 fdbd e917 64be a634 3fbe
00000300: ef6d e03d c370 bfbe 2b29 3bbe 5ae2 953d
00000310: aad7 593e 8206 0c3c 4092 c5bd a48c 1f3e
00000320: 3e22 0a3e a887 6d3e 1205 1d3e 1e8e 243e
00000330: 637d 483e 8850 343e 8c71 c43d 76cc e13d
00000340: 6fd1 84bb 3664 c2bd 877d d6bd f863 c93d
00000350: bb94 ebbc eb76 2fbe 081b cc3d 2bb3 0dbe
00000360: a73b 26bd b853 febc f081 2fbd 07a3 01be
00000370: b8bf 443e 4090 603d b9c9 b63c a6c1 e73d
00000380: d734 fdbc 9513 40bd e1e8 6bbe 1170 5bbe
00000390: b29b 9e3d 9e97 833c 9c7c ae3d 9f34 53be
000003a0: 5c2d d4bd a4b7 bc3d f3ff 943d 56b6 233d
000003b0: ec41 80bc f773 7c3b 4ba4 0bbd 815b 19be
000003c0: af62 70bd 3c5f e63c ab90 d8bc d9ce 7fbe
000003d0: 3375 37bd a648 b2bd e77e 603d 2049 3fbe
000003e0: aceb 133d 9555 b03d 920c 14be 9436 54bd
000003f0: d573 a63d 73d4 cabd cdcf 57be 371d 6d3d

net1.4.bias f4 [32]
0.18111725 -0.02925631 -0.1982518 -0.27157503 0.15703532 0.016925298 0.07235908 -0.10417132
-0.18421555 0.11102736 -0.03052458 -0.140743 -0.2001985 0.12561002 0.17927262 0.23487423
-0.037315574 -0.21489628 -0.08020795 -0.08056995 -0.078895286 -0.2410583 -0.020413835 -0.005408287
-0.11957591 -0.15037468 -0.081218064 0.15523343 -0.082452044 -0.06939067 0.06393323 -0.12145086
00000000: cd76 393e eeaa efbc 8502 4bbe e20b 8bbe
00000010: decd 203e eca6 8a3c ff30 943d c657 d5bd
00000020: 00a3 3cbe 5062 e33d af0e fabc ef1e 10be
00000030: d600 4dbe ea9f 003e 3e93 373e df82 703e
00000040: 37d8 18bd c50d 5cbe 1144 a4bd dc01 a5bd
00000050: da93 a1bd fdd7 76be ea3a a7bc 0038 b1bb
00000060: 37e4 f4bd d2fb 19be a855 a6bd 83f5 1e3e
00000070: 9edc a8bd b21c 8ebd 6def 823d 3abb f8bd

net2.0.weight f4 [32, 32]
-0.108280465 -0.14274621 -0.0077687507 -0.20454723 -0.2745165 -0.15414266 -0.13752882 -0.05186275
-0.0810683 0.0755533 -0.258467 -0.19820622 0.07416142 -0.028302211 0.0052016196 -0.12597175
-0.017124448 -0.19316015 0.030951748 -0.16443259 -0.05749654 -0.08426611 -0.03642101 -0.112528965
-0.07710283 -0.08701225 -0.16525859 -0.20466422 -0.17096974 0.14472845 0.056747086 -0.1115201
0.22014414 0.19938287 0.104244396 0.16258171 0.05759407 0.24964933 0.26171252 -0.005767712
-0.06834129 -0.015629154 0.030755037 0.10881273 0.22760841 0.45233214 -0.19427489 -0.031451516
0.094097406 0.12656173 -0.005190861 0.07071499 -0.0832277 0.15031302 0.15026791 0.016032068
0.09669053 0.063687004 -0.06159423 0.01309851 -0.13971497 -0.16435926 0.46210808 0.14628494
0.14967312 0.052642994 -0.058376 -0.02870129 -0.09878005 -0.0063549965 0.1850539 -0.020651905
-0.123936005 0.18304475 0.085287444 0.008754221 -0.1279332 0.020696191 0.039989535 0.09442193
-0.095316805 -0.10524079 -0.13596886 -0.0682887 0.024770275 0.055252235 0.20697631 0.06315091
0.080783464 -0.131278 -0.0070565995 0.13337445 -0.036868364 0.024084661 0.08150566 -0.040501542
0.07352231 0.03949309 -0.14525025 0.107926816 -0.16849619 0.03618227 -0.10401674 -0.076328166
-0.1601484 -0.21698937 -0.09270491 0.13109118 -0.12698579 -0.092928715 0.109567285 -0.21163952
0.030279683 0.16260448 0.12960805 0.0046132556 0.036119428 -0.08370221 -0.10836177 -0.112288706
-0.07112622 0.045752637 -0.090503976 -0.103240035 -0.1689053 -0.15435642 -0.14519642 -0.0056255716
-0.2615872 -0.12201002 0.14306861 -0.09527968 -0.1829621 0.1807648 0.042934027 -0.027658379
-0.057750303 0.16711774 0.07823303 -0.09446589 -0.24336165 0.57630545 0.106450215 -0.25224426
-0.21295509 -0.16478135 -0.114586845 -0.15530893 0.047796044 -0.095789336 0.025299322 -0.13322644
-0.030198682 -0.015921373 0.080553226 0.052938815 0.26092702 0.2444711 0.13400756 0.22929248
0.07024644 -0.08588857 -0.21621363 -0.0515418 -0.001020886 -0.053264827 0.08906876 -0.113001704
-0.15126495 0.053439677 -0.24531297 -0.2082901 0.0029331478 -0.2766165 -0.048780877 0.011301804
-0.036362063 0.07847537 -0.07571814 -0.24360107 0.08155335 0.011696355 0.05669626 0.11010015
-0.123339295 -0.02119074 0.0030804658 0.07463112 0.003362858 0.06659364 -0.14698447 -0.0842041
0.025912153 -0.056576822 0.12176161 0.107486285 -0.042678997 0.008588917 -0.03446101 0.045264028
-0.15213704 -0.15853211 -0.15650412 -0.0065760673 0.08276263 0.051766105 -0.12690412 -0.09855722
0.16231914 0.21955656 -0.033970337 0.16461545 -0.17309773 0.14492126 -0.13403882 0.01464765
-0.098162726 -0.027612614 -0.18667705 0.106365874 -0.13719784 0.023564177 -0.07611881 0.12510198
0.2029171 -0.08438395 -0.034947403 0.019104028 0.10703126 -0.126762 0.039353162 0.026738318
-0.12192893 0.12108641 -0.14636756 -0.16193359 0.03350702 0.27875817 0.13789704 0.03346193
0.11632351 0.01037352 -0.09547298 -0.020347424 0.15891595 0.11043098 0.07281534 -0.13902815
0.17673859 -0.05026235 -0.014901561 0.03686467 0.10395877 -0.018248366 -0.021429446 0.04353863
00000000: 26c2 ddbd 102c 12be 0191 febb d474 51be
00000010: 6d8d 8cbe 93d7 1dbe 5bd4 0cbe 096e 54bd
00000020: 2307 a6bd b0bb 9a3d c955 84be 92f6 4abe
00000030: f1e1 973d 0ada e7bc 5972 aa3b bdfe 00be
00000040: 9248 8cbc c6cb 45be 858e fd3c 0461 28be
00000050: 7e81 6bbd b693 acbd 322e 15bd 9675 e6bd
00000060: 17e8 9dbd 7b33 b2bd 8c39 29be 7f93 51be
00000070: b112 2fbe b233 143e a26f 683d a664 e4bd
00000080: 776d 613e 062b 4c3e 167e d53d d27b 263e
00000090: c2e7 6b3d 13a4 7f3e 2fff 853e 13ff bcbb
000000a0: 85f6 8bbd b608 80bc fdf1 fb3c 35d9 de3d
000000b0: 2e12 693e 1498 e73e ffef 46be 4ed3 00bd
000000c0: 24b6 c03d 6699 013e 1918 aabb 05d3 903d
000000d0: 4973 aabd a8eb 193e d5df 193e af55 833c
000000e0: af05 c63d 556e 823d 3b4a 7cbd 229b 563c
000000f0: 7111 0fbe cb4d 28be 6e99 ec3e b8cb 153e
00000100: e943 193e 2ea0 573d ac1b 6fbd f81e ebbc
00000110: 324d cabd 933d d0bb c57e 3d3e 2f2e a9bc
00000120: 29d2 fdbd 1570 3b3e 2fab ae3d dd6d 0f3c
00000130: ec00 03be 0f8b a93c 11cc 233d 4960 c13d
00000140: 7535 c3bd 7c88 d7bd 6c3b 0bbe f2da 8bbd
00000150: 08eb ca3c 2b50 623d 99f1 533e 4455 813d
00000160: cd71 a53d bd6d 06be 0c3b e7bb 5093 083e
00000170: 4803 17bd 324d c53c 71ec a63d f2e4 25bd
00000180: dd92 963d 82c3 213d 7bbc 14be bc08 dd3d
00000190: 448a 2cbe dc33 143d bb06 d5bd f151 9cbd
000001a0: f1fd 23be 7632 5ebe 12dc bdbd c43c 063e
000001b0: 9008 02be 6951 bebd d064 e03d 08b8 58be
000001c0: 190d f83c ca81 263e f9b7 043e cb2a 973b
000001d0: f7f1 133d 106c abbd c7ec ddbd 9ff7 e5bd
000001e0: a0aa 91bd 1e67 3b3d 265a b9bd 836f d3bd
000001f0: 83f5 2cbe 9c0f 1ebe 5fae 14be b756 b8bb
00000200: c2ee 85be 64e0 f9bd 9480 123e fe21 c3bd
00000210: 6b5a 3bbe 681a 393e 97db 2f3d d393 e2bc
00000220: 958b 6cbd ea20 2b3e a438 a03d 5577 c1bd
00000230: cc33 79be c188 133f 9202 da3d 2926 81be
00000240: e610 5abe 71bc 28be 82ac eabd 4e09 1fbe
00000250: c9c5 433d 332d c4bd 8640 cf3c 836c 08be
00000260: 3a63 f7bc 8a6d 82bc 17f9 a43d 5fd6 583d
00000270: 3a98 853e a256 7a3e 4739 093e a6cb 6a3e
00000280: 5edd 8f3d 59e6 afbd 1b67 5dbe 7f1d 53bd
00000290: 40cf 85ba 382c 5abd af69 b63d 706d e7bd
000002a0: 33e5 1abe 90e3 5a3d 5333 7bbe 004a 55be
000002b0: 0e3a 403b aea0 8dbe 75ce 47bd 342b 393c
000002c0: 63f0 14bd b2b7 a03d 1d12 9bbd 8f72 79be
000002d0: 7105 a73d 12a2 3f3c 563a 683d 307c e13d
000002e0: 5099 fcbd 3498 adbc a4e1 493b 33d8 983d
000002f0: 6563 5c3b 3f62 883d 1983 16be 3373 acbd
00000300: b945 d43c 19bd 67bd 275e f93d c521 dc3d
00000310: 2cd0 2ebd 87b8 0c3c fd26 0dbd c666 393d
00000320: d0c9 1bbe 3e56 22be 9e42 20be 0d7c d7bb
00000330: 747f a93d b208 543d 27f3 01be 5ed8 c9bd
00000340: fd36 263e 6fd3 603e 7b24 0bbd f490 283e
00000350: 8840 31be 3d66 143e 7941 09be b2fc 6f3c
00000360: 8a09 c9bd d933 e2bc 4528 3fbe 5ad6 d93d
00000370: 977d 0cbe a909 c13c 2ee4 9bbd bc1a 003e
00000380: 80c9 4f3e 7ed1 acbd 0225 0fbd 0d80 9c3c
00000390: 3533 db3d e6cd 01be c830 213d 510a db3c
000003a0: e0b5 f9bd 27fc f73d 61e1 15be ebd1 25be
000003b0: a83e 093d 64b9 8e3e e234 0d3e 600f 093d
000003c0: 053b ee3d b2f5 293c 5687 c3bd a4af a6bc
000003d0: ddba 223e a329 e23d 3520 953d 655d 0ebe
000003e0: f6fa 343e e5df 4dbd ad25 74bc 69ff 163d
000003f0: 56e8 d43d 997d 95bc ce8c afbc 9055 323d

net2.0.bias f4 [32]
-0.08211783 0.040176883 0.21251868 0.0839875 -0.07537025 0.14174066 -0.18676811 -0.08641485
-0.11819201 -0.21828912 -0.071755014 -0.1418652 0.21683589 0.1555754 0.044960845 -0.12563403
0.019203732 0.0266576 -0.034447324 0.14212777 -0.107566014 -0.24004649 -0.19861253 -0.23004985
0.05627063 -0.13884734 0.14758821 -0.04121041 0.16987273 -0.14654428 -0.06785599 0.016057424
00000000: 652d a8bd 8490 243d 7f9e 593e a301 ac3d
00000010: b85b 9abd 7724 113e 2440 3fbe 45fa b0bd
00000020: a70e f2bd 2f87 5fbe 4bf4 92bd 1c45 11be
00000030: 3a0a 5e3e 284f 1f3e dd28 383d 35a6 00be
00000040: 2551 9d3c 0a61 da3c a318 0dbd f189 113e
00000050: 924b dcbd bfce 75be 1561 4bbe 3092 6bbe
00000060: 087c 663d ff2d 0ebe 5d21 173e 3fcc 28bd
00000070: 1ef3 2d3e b40f 16be 15f8 8abd dc8a 833c

net2.2.weight f4 [32, 32]
0.077626154 0.40157536 0.16997471 0.18380594 -0.19976097 -0.14981708 0.11399481 0.10145435
-0.18513978 -0.18589899 -0.04669497 -0.12685324 0.04866803 0.04268365 0.08634946 0.038159072
-0.0505285 -0.49464974 0.14980227 0.010342106 0.2215193 0.033656273 0.23399754 -0.045997314
-0.032675724 -0.14762259 0.0036408068 0.16256669 0.09723376 0.10677291 0.089998566 -0.17248937
-0.3404502 0.20310603 0.15905955 1.209382 -0.20343503 -0.10735645 -0.1158059 -0.08687128
0.32260042 0.03799789 0.08756109 -0.16743676 -0.0023582808 0.27877006 0.42932424 -0.085969314
0.007746001 0.22909549 0.015061449 0.1945395 0.17666502 -0.0798095 -0.05070913 -0.16680276
-0.40285537 -0.014347656 -0.05534842 -0.10511164 -0.10180718 0.031269085 -0.05156823 -0.06199066
0.09439099 -0.018312069 -0.24589251 -0.15666436 0.024996202 0.0030834707 -0.044554465 0.009788816
-0.12173647 -0.043882836 -0.06266417 0.113768 -0.10688431 -0.0090474235 -0.032107648 -0.14491509
-0.10978835 -0.15451102 -0.17225394 -0.25910914 0.05152163 -0.091293715 0.08239987 -0.06365302
-0.15745303 0.08777081 -0.14211155 0.04815897 -0.23158829 -0.10230577 -0.032115545 -0.1279747
0.120387666 0.12622994 0.09800721 0.09150614 0.12033177 -0.16925238 0.061735313 0.08647709
-0.10396348 -0.04240228 0.055836122 0.023412067 -0.008241853 0.080654964 0.23346646 -0.045492295
0.08771322 0.1908119 -0.11020237 -0.0613834 -0.093919635 -0.054598775 0.10516159 -0.022822982
-0.053280964 0.12569205 -0.2596118 0.081440836 -0.11837275 0.12856631 0.17159054 0.10147816
0.0024185784 -0.06349625 -0.06160037 0.0063940985 -0.04729375 -0.042730894 -0.033676997 0.024390865
-0.12849978 -0.13092522 0.061634578 -0.12834322 0.015791742 -0.10326025 -0.09295988 -0.067563884
-0.11539409 0.06315665 -0.21180224 -0.08214247 -0.017814724 0.010101862 0.07861589 -0.1376827
-0.14843532 -0.1436727 -0.01119317 -0.16832532 -0.05910864 -0.23306105 -0.08599212 -0.20729847
-0.08779254 -0.15406865 -0.08294978 -0.2412652 -0.16214007 -0.0947803 0.15983754 -0.09064586
-0.18205865 -0.14965792 -0.0072064563 0.013461176 -0.104282245 -0.090952635 -0.23881124 -0.07130524
-0.034696724 -0.04832172 -0.20492987 -0.07827905 0.075126015 -0.06545732 -0.17699786 0.16605616
-0.14612722 0.15487517 -0.110987686 0.041228954 -0.048264273 -0.11954776 -0.12449514 -0.20313722
-0.12965001 0.05412437 -0.008399244 0.07706114 0.07142963 -0.03288749 -0.01082605 -0.08013145
0.0022793585 0.14249423 -0.15557088 0.1731402 0.056030978 -0.092284106 -0.18100646 0.023374114
-0.10494881 0.37436402 0.017308801 -0.2069122 0.11106803 0.0028158189 -0.06594871 0.09272265
0.14619434 -0.0359646 0.21278706 0.06870701 -0.094674796 -0.08900492 -0.13357127 0.2431673
0.05914642 -0.06078094 0.080329746 -0.022062527 -0.12258219 -0.16079819 0.063569605 -0.05326683
-0.16353577 -0.1531438 0.15744661 -0.023279749 -0.12391527 -0.049434036 -0.048334364 0.05296822
0.019918116 0.06676956 -0.10499842 0.110862374 -0.09304899 0.14476734 -0.07507464 -0.16056433
-0.025804935 -0.087157 -0.1301395 -0.056913607 -0.0656242 -0.07073973 -0.17209883 -0.054055903
00000000: 76fa 9e3d 499b cd3e da0d 2e3e a037 3c3e
00000010: 248e 4cbe a669 19be 1c76 e93d 4cc7 cf3d
00000020: 4895 3dbe 4e5c 3ebe 3a43 3fbd d1e5 01be
00000030: 2158 473d 0dd5 2e3d fcd7 b03d b04c 1c3d
00000040: f9f6 4ebd bb42 fdbe c465 193e f071 293c
00000050: f5d5 623e 29db 093d 0d9d 6f3e ae67 3cbd
00000060: fbd6 05bd 602a 17be 9a9a 6e3b e277 263e
00000070: 7e22 c73d c1ab da3d 2b51 b83d 0ea1 30be
00000080: 7d4f aebe 07fb 4f3e 82e0 223e 08cd 9a3f
00000090: 4651 50be b3dd dbbd a52b edbd 92e9 b1bd
000000a0: e22b a53e ada3 1b3d 3b53 b33d 8b74 2bbe
000000b0: 638d 1abb f3ba 8e3e 63d0 db3e ae10 b0bd
000000c0: 2ad2 fd3b 0298 6a3e 4cc4 763c 5d35 473e
000000d0: ade7 343e 2a73 a3bd 60b4 4fbd 58ce 2abe
000000e0: 0f43 cebe 6e12 6bbc 06b5 62bd c644 d7bd
000000f0: 4880 d0bd 0314 003d 3539 53bd ebe9 7dbd
00000100: 1050 c13d 3103 96bc 3fcb 7bbe 9f6c 20be
00000110: d6c4 cc3c 0e14 4a3b be7e 36bd 4561 203c
00000120: f850 f9bd 7dbe 33bd 1356 80bd 32ff e83d
00000130: 29e6 dabd a53b 14bc 4f83 03bd 9f64 14be
00000140: b7d8 e0bd 2338 1ebe 5663 30be f4a9 84be
00000150: 5808 533d 33f8 babd 43c1 a83d 845c 82bd
00000160: 5e3b 21be 2fc1 b33d b185 11be 5742 453d
00000170: 7b25 6dbe b085 d1bd 978b 03bd cd0b 03be
00000180: cf8d f63d 6c42 013e 01b8 c83d 9267 bb3d
00000190: 8170 f63d 7f50 2dbe 2bde 7c3d e71a b13d
000001a0: ceea d4bd 03ae 2dbd 6bb4 643d aaca bf3c
000001b0: d608 07bc 6e2e a53d d511 6f3e 2156 3abd
000001c0: fda2 b33d 3264 433e c8b1 e1bd 296d 7bbd
000001d0: f058 c0bd f7a2 5fbd f65e d73d 43f7 babc
000001e0: 243d 5abd 6bb5 003e d6eb 84be 74ca a63d
000001f0: 6a6d f2bd e3a6 033e 6eb5 2f3e c8d3 cf3d
00000200: 0381 1e3b 520a 82bd ab50 7cbd 9685 d13b
00000210: 17b7 41bd 9706 2fbd e4f0 09bd 5acf c73c
00000220: 7295 03be 4311 06be 8a74 7c3d 686c 03be
00000230: af5d 813c 1c7a d3bd c061 bebd ef5e 8abd
00000240: bd53 ecbd 4658 813d b0e2 58be 503a a8bd
00000250: 2ff0 91bc 4882 253c 5e01 a13d b2fc 0cbe
00000260: 6eff 17be f01e 13be 8f63 37bc 795d 2cbe
00000270: e71b 72bd 8ea7 6ebe a31c b0bd 0d46 54be
00000280: 93cc b3bd 2cc4 1dbe 93e1 a9bd 390e 77be
00000290: 0c08 26be 2d1c c2bd 74ac 233e 89a4 b9bd
000002a0: 956d 3abe ed3f 19be 2324 ecbb 448c 5c3c
000002b0: ee91 d5bd 6045 babd ef8a 74be 7b08 92bd
000002c0: 271e 0ebd ffec 45bd 23d9 51be c450 a0bd
000002d0: abdb 993d 7d0e 86bd ed3e 35be a00a 2a3e
000002e0: 60a2 15be 9997 1e3e 834d e3bd b1df 283d
000002f0: c2b0 45bd 75d5 f4bd 4ff7 febd 3403 50be
00000300: f9c2 04be 84b1 5d3d fc9c 09bc 3bd2 9d3d
00000310: b349 923d 08b5 06bd bf5f 31bc f51b a4bd
00000320: 4a61 153b 02ea 113e f94d 1fbe aa4b 313e
00000330: bd80 653d 73ff bcbd c259 39be 127b bf3c
00000340: 67ef d6bd a4ac bf3e 30cb 8d3c cbe0 53be
00000350: a377 e33d 9a89 383b 1e10 87bd 5fe5 bd3d
00000360: f8b3 153e 9e4f 13bd dae4 593e 43b6 8c3d
00000370: dce4 c1bd 3648 b6bd e8c6 08be d900 793e
00000380: 8443 723d 6ff5 78bd ec83 a43d 79bc b4bc
00000390: 5f0c fbbd 48a8 24be c830 823d 522e 5abd
000003a0: ec75 27be bad1 1cbe af39 213e 2cb5 bebc
000003b0: 4ac7 fdbd 587b 4abd 41fa 45bd 34f5 583d
000003c0: 512b a33c 7bbe 883d 6909 d7bd d00b e33d
000003d0: 7890 bebd e43d 143e bcc0 99bd fa6a 24be
000003e0: df64 d3bc 5f7f b2bd 4a43 05be 3e1e 69bd
000003f0: fb65 86bd fedf 90bd ad3a 30be b969 5dbd

net2.2.bias f4 [32]
0.19817837 -0.013262132 0.046288867 -0.019156251 -0.10093657 0.06301819 -0.13190989 -0.09082722
-0.046240646 -0.13295048 -0.06649301 -0.0455896 0.0816622 0.061532497 -0.22446924 0.18005446
0.18645313 0.013530731 -0.15368924 0.25911364 -0.08785233 -0.00013921116 -0.06688266 -0.095983475
0.22896373 0.1661424 -0.06454211 -0.1071859 0.009711005 -0.2219789 0.20545541 0.12403069
00000000: 45ef 4a3e 6a49 59bc 6599 3d3d 92ed 9cbc
00000010: d5b7 cebd ae0f 813d 6313 07be 9f03 babd
00000020: d566 3dbd 2c24 08be 7d2d 88bd 29bc 3abd
00000030: 833e a73d 8009 7c3d 44db 65be 3260 383e
00000040: 92ed 3e3e 00b0 5d3c b660 1dbe 8baa 843e
00000050: eceb b3bd 36f9 11b9 c7f9 88bd fc92 c4bd
00000060: 7875 6a3e 3c21 2a3e a72e 84bd 4884 dbbd
00000070: e81a 1f3c 704e 63be e762 523e cd03 fe3d

net2.4.weight f4 [12, 32]
0.109956205 -0.15678851 -0.012314357 -0.24864699 0.083672166 0.2564933 0.23494333 -0.033970255
0.044057317 0.061909337 0.06436496 0.09030987 0.07178061 0.15293394 0.0932848 0.14130734
0.19208938 0.026692765 0.054445714 -0.085997336 -0.085704155 0.03540192 0.01735426 0.029158402
0.12121839 -0.06368253 0.1743099 0.20892109 0.13084336 -0.09141777 -0.13185942 -0.038226925
-0.037335064 0.21858867 -0.041504294 0.0018457021 -0.15829279 -0.06601555 -0.25911328 -0.14644168
0.035126586 -0.179589 -0.012737651 0.023027085 -0.2037774 0.044405967 0.0054908493 0.049502634
-0.14233938 -0.14922428 -0.26906922 0.08133132 0.0050166026 -0.19685017 -0.07294882 0.01897246
0.05632337 0.09610784 -0.20681615 -0.016167939 0.072828814 0.04464107 -0.16853385 0.04961286
-0.30442622 0.035578843 -0.17671163 0.031248711 -0.009401956 -0.2497654 -0.21177238 -0.029519673
-0.14758082 -0.01639611 -0.17503835 -0.05481093 -0.23034485 -0.17821847 0.18738857 -0.011387692
-0.149156 -0.111874014 -0.13813066 -0.07979158 -0.04127574 -0.11177453 0.133299 0.0635103
-0.013265399 -0.21964431 -0.043766335 0.08237963 -0.024470657 0.01905542 -0.11019753 -0.109217495
0.18496071 -0.24103588 0.0715099 0.06027408 -0.06531254 -0.08631824 0.018992413 -0.013467456
0.14616285 0.12151296 0.04859829 -0.0070820707 0.26610386 -0.07356877 0.21821767 0.23828651
0.32309195 0.008263311 0.003449864 0.12189249 0.20304038 0.048261076 0.1326349 0.059747983
-0.011832059 0.045439012 0.05835841 0.140346 -0.058730707 -0.064725615 0.26341242 0.25347903
0.08826986 0.015925515 0.010648231 0.0051559755 -0.01370809 -0.24083409 -0.14148839 0.11319935
-0.18143007 0.030965095 0.22868253 0.0005065114 0.076755226 -0.06541447 0.11370046 0.13663226
0.086583495 -0.08607816 -0.09526966 -0.14884916 -0.03559153 -0.17656244 0.13685907 0.030179227
-0.18811235 -0.14397857 -0.18490314 -0.009910483 -0.15792517 -0.02669179 0.08560426 0.08114766
0.08365618 0.25411624 -0.051035035 -0.13299192 0.24541439 0.19367199 -0.07718688 -0.028427416
-0.07870696 0.04166691 -0.06903744 0.004160191 0.02944124 -0.040188193 0.17214999 -0.07725286
0.14936392 -0.00204771 0.10624024 -0.06150341 0.22068645 0.03789683 0.056783922 -0.17547706
0.093287304 -0.08528382 -0.024596939 0.06477537 0.06849627 0.069788985 -0.04180117 0.02447932
-0.056104004 0.1792307 0.097627416 0.058080368 -0.23733465 -0.23716588 -0.06813604 0.046546515
-0.008490406 -0.07226414 0.2135188 -0.24311773 0.066774644 0.041248586 0.09746474 -0.03671624
-0.014907428 0.07893754 0.002235373 -0.14528723 -0.089220405 -0.12907061 0.06321496 -0.056232158
0.13879922 -0.024282858 -0.19627619 -0.029858813 -0.05544429 0.03217762 0.024064753 0.016280651
0.010261971 0.15420717 -0.073786765 0.2440503 0.0627187 -0.08739972 -0.16471826 0.095906205
-0.20782681 0.008768689 -0.062483434 0.20359275 -0.03494431 0.073121265 0.072706066 -0.021915657
-0.019425916 0.13944633 0.11879256 0.1541413 -0.10091905 0.067457296 -0.12911862 -0.19824302
-0.098135665 -0.10541614 0.012425291 -0.10138505 -0.036644123 -0.08355663 0.09973248 0.1676986
00000000: b830 e13d 2b8d 20be 28c2 49bc 519d 7ebe
00000010: 505c ab3d 1753 833e fc94 703e 6524 0bbd
00000020: 7275 343d a594 7d3d c7d1 833d 62f4 b83d
00000030: b601 933d b79a 1c3e 1a0c bf3d dfb2 103e
00000040: 14b3 443e c9aa da3c 7802 5f3d 5f1f b0bd
00000050: a985 afbd 9b01 113d 852a 8e3c 9add ee3c
00000060: 5941 f83d fc6b 82bd 4b7e 323e 69ef 553e
00000070: cdfb 053e 3d39 bbbd 2806 07be d693 1cbd
00000080: a7ec 18bd b5d5 5f3e 6800 2abd 7ceb f13a
00000090: 8117 22be 2933 87bd 7faa 84be cff4 15be
000000a0: e5e0 0f3d 2ee6 37be 95b1 50bc 4ca3 bc3c
000000b0: 06ab 50be 08e3 353d 95ec b33b 46c3 4a3d
000000c0: 6ac1 11be 40ce 18be 71c3 89be 0991 a63d
000000d0: 5062 a43b 1793 49be 3166 95bd 226c 9b3c
000000e0: 56b3 663d 30d4 c43d 9dc7 53be a072 84bc
000000f0: 4627 953d 8ed9 363d 2394 2cbe db36 4b3d
00000100: c1dd 9bbe 1fbb 113d e5f3 34be 4cfd ff3c
00000110: a90a 1abc 80c2 7fbe dcda 58be 3ed3 f1bc
00000120: 6d1f 17be 2351 86bc 413d 33be 6d81 60bd
00000130: 85df 6bbe e77e 36be cae2 3f3e 7193 3abc
00000140: 5abc 18be 341e e5bd 2072 0dbe c569 a3bd
00000150: c010 29bd 0bea e4bd 887f 083e b011 823d
00000160: 1e57 59bc 70ea 60be 5444 33bd a7b6 a83d
00000170: b076 c8bc 1d1a 9c3c 3eaf e1bd 6cad dfbd
00000180: 5766 3d3e 1cd2 76be c873 923d f4e1 763d
00000190: 95c2 85bd 9ec7 b0bd fa95 9b3c 9ba6 5cbc
000001a0: b7ab 153e c9db f83d 000f 473d b710 e8bb
000001b0: c43e 883e 39ab 96bd 7474 5f3e 6101 743e
000001c0: 4f6c a53e d762 073c 1d17 623b c5a2 f93d
000001d0: d1e9 4f3e 68ad 453d 71d1 073e 4dba 743d
000001e0: 41db 41bc 421e 3a3d 3a09 6f3d ddb6 0f3e
000001f0: 9c8f 70bd dd8e 84bd fedd 863e 01c8 813e
00000200: d4c6 b43d 3a76 823c eb75 2e3c 75f3 a83b
00000210: e697 60bc 369d 76be 55e2 10be 10d5 e73d
00000220: cec8 39be 83aa fd3c c12b 6a3e 68c7 043a
00000230: d831 9d3d 06f8 85bd c9db e83d 54e9 0b3e
00000240: b052 b13d bf49 b0bd bd1c c3bd ea6b 18be
00000250: 6dc8 11bd c9cc 34be c924 0c3e 6d3a f73c
00000260: 86a0 40be 1e6f 13be 4057 3dbe 945f 22bc
00000270: 23b7 21be bea8 dabc 4951 af3d bf30 a63d
00000280: ee53 ab3d 861b 823e 1d0a 51bd 092f 08be
00000290: e94d 7b3e f351 463e 2814 9ebd 9de0 e8bc
000002a0: 1d31 a1bd ecaa 2a3d 8063 8dbd 3652 883b
000002b0: c12e f13c 609c 24bd 1648 303e bf36 9ebd
000002c0: dbf2 183e df32 06bb 7c94 d93d 00eb 7bbd
000002d0: a1fb 613e b539 1b3d 4296 683d 42b0 33be
000002e0: 6a0d bf3d 49a9 aebd 857f c9bc f3a8 843d
000002f0: c647 8c3d 87ed 8e3d b437 2bbd db88 c83c
00000300: 50cd 65bd 4188 373e e2f0 c73d aee5 6d3d
00000310: db07 73be 9ddb 72be e88a 8bbd 8fa7 3e3d
00000320: 581b 0bbc 39ff 93bd aca4 5a3e dbf3 78be
00000330: 25c1 883d 47f4 283d 989b c73d c563 16bd
00000340: 493e 74bc 01aa a13d 567f 123b 2dc6 14be
00000350: 30b9 b6bd 162b 04be d876 813d b153 66bd
00000360: 6221 0e3e d8ec c6bc a0fc 48be 789a f4bc
00000370: 8d19 63bd aecc 033d 7223 c53c 005f 853c
00000380: d321 283c 7ce8 1d3e 841d 97bd 52e8 793e
00000390: a972 803d a0fe b2bd e7ab 28be 796a c43d
000003a0: 8dd0 54be 8caa 0f3c a1ee 7fbd 9e7a 503e
000003b0: c421 0fbd 9ac0 953d ebe6 943d 7788 b3bc
000003c0: 1923 9fbc 05cb 0e3e 8449 f33d 38d7 1d3e
000003d0: a6ae cebd 0d27 8a3d ac37 04be 3800 4bbe
000003e0: 5afb c8bd 6be4 d7bd 7393 4b3c f7a2 cfbd
000003f0: 2618 16bd bd1f abbd 8b40 cc3d 2fb9 2b3e

net2.4.bias f4 [12]
0.096663535 -0.06900273 -0.11223062 0.09661615 -0.060327344 -0.051020477 0.0042733434 -0.10775442
-0.22088103 -0.08050352 -0.01909466 -0.28871447
00000000: 88f7 c53d 4e51 8dbd 2bd9 e5bd b0de c53d
00000010: ce19 77bd d9fa 50bd 6707 8c3b 59ae dcbd
00000020: a32e 62be 08df a4bd 686c 9cbc 62d2 93be
