scalar_lattice/Saves/ar_flow_2d_chkpt.pth (torch_old, 819152 bytes, 142 tensors)

realnvp.s.0.0.weight f4 [32, 3, 1]
-0.3318912 -0.2559917 0.3871383 0.4270611 0.43713492 -0.3279448 -0.52082896 0.49035385
-0.46744806 -0.6770181 0.060210258 -0.37531823 -0.3959395 -0.2509915 -0.47448686 -0.16076548
-0.27863014 0.40424258 0.32887712 -0.009130066 -0.39159963 -0.37195316 0.53448296 0.2605622
-0.09689742 -0.036034614 0.22473155 0.53213984 -0.048100825 -0.10066388 0.3416229 0.5779497
0.37108028 -0.36038652 -0.3073846 0.67351073 -0.4911179 -0.37273678 0.24109367 -0.10166846
-0.63558066 -0.22744095 -0.019853914 -0.5496865 -0.51883864 0.19184726 -0.15178622 -0.46367872
0.063819185 -0.517458 0.16373803 -0.5132432 -0.22446753 0.26547828 -0.51617044 -0.19357388
-0.55140144 0.39928785 0.14881113 0.29570386 -0.18394747 -0.22338921 -0.070506796 -0.51557904
0.10219169 0.23971632 0.015109906 0.39069355 0.20543374 0.012583161 0.050775237 0.50808936
-0.58212525 -0.3942869 -0.124355346 -0.11253014 -0.3255288 0.26188353 0.64876103 -0.13775899
0.040720362 0.13399735 -0.31003442 -0.3952793 -0.58678555 0.021405468 -0.23809218 -0.23612824
0.14626266 0.41598094 0.37398696 0.31526375 0.3984641 -0.52777797 -0.0067757783 0.34503445
00000000: a5ed a9be 5811 83be fe36 c63e c1a7 da3e
00000010: 26d0 df3e 61e8 a7be 0c55 05bf a90f fb3e
00000020: 5a55 efbe 0f51 2dbf 089f 763d b629 c0be
00000030: 95b8 cabe f581 80be f1ef f2be b59f 24be
00000040: 9ca8 8ebe e2f8 ce3e 9562 a83e 4696 15bc
00000050: bf7f c8be a570 bebe e0d3 083f 6968 853e
00000060: 2872 c6bd 0899 13bd 0720 663e 513a 083f
00000070: 5f05 45bd dd28 cebd 32e9 ae3e 83f4 133f
00000080: 3cfe bd3e 9584 b8be 8461 9dbe 336b 2c3f
00000090: ce73 fbbe 5bd7 bebe 42e1 763e 8e37 d0bd
000000a0: 6ab5 22bf 48e6 68be ada4 a2bc 41b8 0cbf
000000b0: 9cd2 04bf 9c73 443e d96d 1bbe 4c67 edbe
000000c0: a2b3 823d 2178 04bf f1aa 273e e863 03bf
000000d0: d1da 65be c5ec 873e bf23 04bf 3b38 46be
000000e0: a528 0dbf 756f cc3e f261 183e 7f66 973e
000000f0: ba5c 3cbe 24c0 64be de65 90bd fdfc 03bf
00000100: e049 d13d 3278 753e 8a8f 773c fc08 c83e
00000110: 395d 523e 9a29 4e3c b2f9 4f3d 2512 023f
00000120: 2906 15bf f9df c9be 04ae febd 3476 e6bd
00000130: b6ab a6be 9915 863e 3415 263f b110 0dbe
00000140: 65ca 263d 9a36 093e d5bc 9ebe 0c62 cabe
00000150: 9437 16bf 855a af3c 70ce 73be 9acb 71be
00000160: e1c5 153e 74fb d43e 387b bf3e 406a a13e
00000170: 7d03 cc3e 751c 07bf 5907 debb 5ba8 b03e

realnvp.s.0.0.bias f4 [32]
0.021434493 -0.25456956 -0.4088538 0.22930124 0.30929518 -0.36440468 0.43466625 -0.29638693
0.52243733 -0.099205434 0.28004217 -0.31810367 -0.113629 0.44138482 -0.42730814 -0.2005312
-0.009718187 0.321075 -0.2581903 0.3725276 -0.36009416 -0.0211043 0.5801446 0.14062206
-0.14486095 -0.33304757 0.18912409 -0.14592406 0.23747472 0.40763924 -0.49069458 -0.3599895
00000000: 6497 af3c f156 82be 4955 d1be f2cd 6a3e
00000010: f05b 9e3e 4093 babe 938c de3e 07c0 97be
00000020: 74be 053f 382c cbbd b061 8f3e 7cde a2be
00000030: 52b6 e8bd 31fd e13e 22c8 dabe 0d58 4dbe
00000040: 0839 1fbc f163 a43e 8531 84be f0bb be3e
00000050: 435e b8be ede2 acbc 5b84 143f 3bff 0f3e
00000060: 6e56 14be 3685 aabe bfa9 413e 1e6d 15be
00000070: 932c 733e 17b6 d03e 523c fbbe 8b50 b8be

realnvp.s.0.2.weight f4 [32, 32, 1]
0.012274154 0.121950164 0.028521564 0.18641087 -0.13064924 0.07769945 -0.30554664 -0.07019219
-0.032683797 -0.19364333 -0.05117878 -0.1291032 0.18292117 0.051210053 0.056699604 0.06898424
-0.16893679 0.1598936 0.055202432 -0.21606421 -0.085495055 0.015766095 0.13087861 -0.03048059
0.117300615 0.13121256 -0.29392615 -0.11736845 -0.00811924 0.1742641 0.12295867 -0.104197145
-0.21178582 -0.19049327 -0.070379905 0.23184267 0.09911957 -0.069236755 0.06762537 0.0521371
-0.025032124 0.12205047 -0.053527374 0.118373565 -0.027137514 -0.17734233 -0.08101088 0.17507368
0.034064833 0.11768043 -0.19847518 0.13386595 -0.15700798 0.030587852 -0.09032897 -0.12504561
0.05311653 0.08597575 0.08176259 -0.13788185 0.1722595 0.0699072 0.04808913 -0.045107394
0.007864172 -0.045622744 -0.067698814 0.015338192 -0.10361888 0.03336514 -0.3614039 0.041386742
-0.037767738 0.057485167 -0.025937226 0.12663491 -0.0021822075 0.041612484 -0.011112813 -0.05541408
-0.022840485 -0.026028773 -0.1464292 0.17704563 0.00542862 0.07819417 0.1404243 -0.03892284
-0.14248475 -0.057933662 0.12670037 -0.12170311 -0.020152278 0.20077862 0.05470134 -0.03994145
0.14230505 -0.050835095 -0.042456765 0.07783609 -0.18985228 0.17301112 0.00018779954 0.09332765
-0.15667607 0.052749917 -0.05711762 -0.032781806 0.051563393 0.094715245 0.14863388 0.059481554
-0.0342004 -0.13176379 -0.030384896 -0.014519606 -0.16155668 -0.16847974 -0.09659042 -0.072850704
0.07145899 0.0056738984 -0.04194136 -0.00059667125 -0.0029435398 0.08379159 -0.10391072 -0.1390676
-0.062547006 -0.28775734 -0.12167097 -0.00372317 -0.014547596 0.24956757 -0.10914245 -0.21998006
-0.18711205 -0.17890517 0.12481241 0.0070434026 -0.05708755 -0.030582462 0.09727136 -0.009823049
-0.100204796 -0.061083585 0.039460476 0.14511932 0.10464668 -0.13479954 0.08245849 0.16027915
-0.0038371524 0.05269003 -0.18287244 0.17604001 -0.01867443 0.12305272 -0.20683512 -0.004342149
0.020124365 -0.10230495 -0.07508422 -0.032309286 0.008377668 0.014865071 0.009513573 0.12749456
-0.18439919 -0.1786678 0.118420646 0.010969069 -0.12722503 -0.13430375 0.17850395 -0.07171349
-0.046871368 -0.08428533 0.044717733 0.111894265 0.15520959 0.06908955 -0.20798987 0.13607143
0.20253122 -0.1473054 -0.0698025 0.15904616 -0.11030863 0.09006959 0.12034087 -0.10439861
0.086288854 0.13937171 -0.21598034 -0.14819719 0.053051427 0.0077604754 -0.15673281 -0.08402141
-0.049587753 -0.29346675 -0.11696976 0.09332648 -0.11017398 0.09135107 -0.0017849071 0.16553158
0.058734838 0.03182557 0.17565536 0.09893508 -0.0057127597 -0.07887169 -0.14524254 0.021177782
-0.20805356 0.091233745 -0.12841687 -0.1343119 -0.2088488 0.016010953 -0.18013301 -0.12959208
0.09875208 -0.054375492 0.14943676 0.107007615 0.020920327 0.22817054 -0.08423633 0.09230486
0.06253463 0.31150278 0.16475093 -0.0013438769 -0.05761586 -0.15010262 0.116949655 -0.16149753
0.06305846 0.072177455 0.09652679 0.021779254 -0.10034879 -0.027595509 0.09107018 0.119566195
0.22573075 0.053870566 -0.028993256 0.07496002 0.04382014 0.115939446 -0.068715416 0.21398439
00000000: 8919 493c 02c1 f93d 0ea6 e93c 7ee2 3e3e
00000010: eac8 05be e420 9f3d 9c70 9cbe ecc0 8fbd
00000020: 72df 05bd 704a 46be d7a0 51bd a133 04be
00000030: b04f 3b3e a2c1 513d d83d 683d 9c47 8d3d
00000040: c4fd 2cbe 26bb 233e f21b 623d f03f 5dbe
00000050: 0818 afbd e627 813c 0b05 063e 6eb2 f9bc
00000060: 4e3b f03d 965c 063e 7d7d 96be df5e f0bd
00000070: 9006 05bc 4a72 323e c1d1 fb3d 5065 d5bd
00000080: 62de 58be ab10 43be 5723 90bd 2a68 6d3e
00000090: 33ff ca3d 00cc 8dbd 2c7f 8a3d b68d 553d
000000a0: 2b10 cdbc 99f5 f93d 853f 5bbd d76d f23d
000000b0: 7e4f debc 3a99 35be 08e9 a5bd 8446 333e
000000c0: 9187 0b3d 7002 f13d 143d 4bbe 2814 093e
000000d0: b3c6 20be 6093 fa3c 65fe b8bd f50b 00be
000000e0: b890 593d 0e14 b03d 2573 a73d e630 0dbe
000000f0: cb64 303e 822b 8f3d 1cf9 443d 88c2 38bd
00000100: bad8 003c eade 3abd ada5 8abd 0a4d 7b3c
00000110: 2336 d4bd e3a9 083d ef09 b9be 2585 293d
00000120: 58b2 1abd 9175 6b3d 4e7a d4bc 95ac 013e
00000130: 5e03 0fbb da71 2a3d 8412 36bc e0f9 62bd
00000140: f81b bbbc 4b3a d5bc 89f1 15be 734b 353e
00000150: 91e2 b13b 4424 a03d 63cb 0f3e 8e6d 1fbd
00000160: 86e7 11be d94b 6dbd bebd 013e 7b3f f9bd
00000170: 6416 a5bc e998 4d3e 830e 603d a599 23bd
00000180: 6ab8 113e 7638 50bd 25e7 2dbd 8768 9f3d
00000190: a368 42be d429 313e 0eec 4439 9122 bf3d
000001a0: b16f 20be 4c10 583d 2af4 69bd 3746 06bd
000001b0: 2334 533d 11fa c13d 7b33 183e eea2 733d
000001c0: b815 0cbd 16ed 06be bfe9 f8bc a4e3 6dbc
000001d0: 1d6f 25be f485 2cbe 33d1 c5bd c032 95bd
000001e0: 1759 923d 1cec b93b b4ca 2bbd ee69 1cba
000001f0: 67e8 40bb ed9a ab3d 25cf d4bd bd67 0ebe
00000200: a518 80bd ee54 93be a12e f9bd 6d00 74bb
00000210: 0a59 6ebc a48e 7f3e 1486 dfbd 7442 61be
00000220: 4d9a 3fbe eb32 37be a69d ff3d 58cc e63b
00000230: a3d4 69bd 1288 fabc 3536 c73d dbf0 20bc
00000240: 2c38 cdbd c832 7abd 4fa1 213d 299a 143e
00000250: 0051 d63d e408 0abe ffdf a83d 3820 243e
00000260: bc78 7bbb 80d1 573d ea42 3bbe d543 343e
00000270: 1efb 98bc 1103 fc3d 96cc 53be 9648 8ebb
00000280: dadb a43c 4285 d1bd c1c5 99bd be56 04bd
00000290: 7d42 093c a08c 733c d1de 1b3c ef8d 023e
000002a0: 24d3 3cbe b1f4 36be 8686 f23d 9cb7 333c
000002b0: 4747 02be ec86 09be bdc9 363e 86de 92bd
000002c0: 31fc 3fbd c99d acbd f129 373d d228 e53d
000002d0: 43ef 1e3e d27e 8d3d 4cfb 54be 4f56 0b3e
000002e0: 5864 4f3e 3ad7 16be 9df4 8ebd ffdc 223e
000002f0: 7ee9 e1bd 6876 b83d 4675 f63d f0ce d5bd
00000300: 36b8 b03d 75b7 0e3e f329 5dbe 01c1 17be
00000310: 744c 593d 964b fe3b 917e 20be 6b13 acbd
00000320: 871c 4bbd 4641 96be d78d efbd f421 bf3d
00000330: e5a2 e1bd 4516 bb3d 8bf3 e9ba 1c81 293e
00000340: f193 703d 875b 023d 00df 333e 7a9e ca3d
00000350: 1a32 bbbb 7b87 a1bd 76ba 14be 077d ad3c
00000360: fe0b 55be c2d8 ba3d b67f 03be 0f89 09be
00000370: 76dc 55be 6729 833c ca74 38be c9b3 04be
00000380: 883e ca3d d6b8 5ebd f305 193e cf26 db3d
00000390: 1b61 ab3c 8aa5 693e 1984 acbd 550a bd3d
000003a0: 2812 803d 4b7d 9f3e 78b4 283e 0725 b0ba
000003b0: 9cfe 6bbd 80b4 19be 4d83 ef3d 9c5f 25be
000003c0: cb24 813d c6d1 933d d6af c53d 686a b23c
000003d0: ab83 cdbd fa0f e2bc 0183 ba3d 1fdf f43d
000003e0: f625 673e 62a7 5c3d 4483 edbc a484 993d
000003f0: bf7c 333d a971 ed3d abba 8cbd b91e 5b3e

realnvp.s.0.2.bias f4 [32]
-0.08512335 0.11540505 0.06630828 0.17168827 -0.020327287 0.10405883 -0.08435905 0.12642205
0.03322923 -0.07263405 -0.05621491 0.12339509 0.14964515 0.14400071 0.13582663 -0.07766807
0.12689827 0.021496939 0.1708402 -0.029477574 0.033540763 0.091663286 -0.12050241 -0.13615829
0.12000868 0.12738718 0.13868195 -0.044754338 -0.020090159 0.12125022 0.057098772 0.075902425
00000000: 2755 aebd 7c59 ec3d a3cc 873d 0dcf 2f3e
00000010: 6985 a6bc cc1c d53d 70c4 acbd c874 013e
00000020: 601b 083d 29c1 94bd 9b41 66bd 91b6 fc3d
00000030: 943c 193e ec74 133e 2316 0b3e 7010 9fbd
00000040: 9ff1 013e 591a b03c bcf0 2e3e f47a f1bc
00000050: 0a62 093d f6b9 bb3d f8c9 f6bd 146d 0bbe
00000060: 1cc7 f53d c971 023e a402 0e3e 5350 37bd
00000070: 1e94 a4bc 0952 f83d 67e0 693d bb72 9b3d

realnvp.s.0.4.weight f4 [32, 32, 1]
0.08212887 0.051944032 -0.07547108 0.106821254 -0.12000367 -0.03284197 -0.03169514 -0.09354227
0.026054334 -0.11199881 0.10294487 -0.097970806 -0.07811729 0.13110556 -0.051575534 0.10005906
0.1826413 -0.14901678 -0.12618831 0.12252977 -0.056106504 0.07298646 0.07467209 0.037507847
0.10387216 0.039072767 -0.17697662 0.0876336 -0.19620122 -0.14553404 -0.110312775 -0.120614655
0.08599895 -0.022666752 0.093334414 0.068519786 0.05114398 0.0701654 -0.10648726 0.17988956
0.09727726 0.055492274 -0.12138298 0.09612815 0.12007252 -0.08645834 -0.13282727 -0.13781793
0.051801328 -0.07011939 0.0042549097 -0.16552906 -0.07414215 0.20663907 -0.12814553 -0.1009422
-0.095447876 0.1133619 -0.020347608 0.20605545 0.18279353 0.14035767 0.106732935 0.20574176
0.077849925 -0.038376193 -0.018094597 -0.17516416 0.18474528 0.071325555 -0.07206568 0.13176034
-0.05122437 -0.13854137 0.043320216 -0.09527446 0.08632249 0.19340123 0.021282416 0.17987195
0.13169216 -0.10490571 0.19868228 0.15261441 -0.035115547 0.15753047 0.14516926 0.19004837
-0.1487435 0.05999644 0.045852356 0.04056952 0.103182144 0.07546256 0.12476437 -0.13126144
-0.07792996 0.048566185 0.029099073 0.08851985 -0.12227892 -0.16273487 0.10498675 -0.12068645
-0.10155556 0.060878076 -0.1555203 -0.008021506 0.049803402 -0.1967865 -0.061299495 -0.068668045
-0.15963621 0.15911527 0.11569373 0.40235147 -0.08671644 0.11246553 0.10300028 -0.05463167
-0.039373476 -0.09314838 0.07401306 -0.019740155 -0.12623101 0.08668767 -0.15485604 0.09009471
0.14445819 0.06175193 -0.016072186 0.04346062 -0.13188612 0.0027995075 -0.19725066 -0.12889759
-0.11489347 -0.1814689 -0.11652542 -0.081588976 0.14544226 0.13925873 -0.1498097 -0.09719921
-0.024087641 -0.1734831 0.19511233 0.09028069 0.09906952 -0.124733515 0.11575302 -0.030809065
0.1878787 0.09255886 0.021942094 0.13606197 0.09068345 0.14480144 0.062675476 -0.022486843
0.0055467687 -0.105974354 -0.068388686 0.12658094 -0.19105737 -0.052085318 0.18552347 0.0701508
0.12674963 -0.07801285 -0.12474716 0.056298006 -0.1774173 0.044350494 -0.053409703 0.056399155
-0.10587712 0.04434169 -0.0054392354 0.29848242 0.06323374 0.020627791 -0.04919908 -0.032491885
-0.20936592 -0.09850198 -0.112075575 0.009480437 -0.10631185 -0.18712063 -0.12517792 0.08874204
-0.10238808 0.17187424 0.027367933 0.12466198 -0.06457262 -0.058638196 0.064093255 0.01122111
-0.05338639 -0.18667021 -0.10475033 -0.10625648 -0.16639219 0.1773559 -0.04098738 0.25173643
-0.2610451 0.026785575 0.094659716 0.16717564 0.07073238 0.014861922 -0.23148374 -0.05586039
-0.27947214 -0.046976388 -0.08746747 0.117805615 -0.110828936 -0.0036237345 0.17257805 0.13073508
-0.17248471 -0.09578099 0.11808827 0.04723584 -0.01743918 0.027442144 -0.07382234 0.067345425
-0.17855237 -0.071005285 0.1442995 -0.060629927 -0.07171786 -0.20202477 -0.18997054 -0.17080528
0.094679534 0.12134715 0.07799417 -0.19243571 -0.12835895 -0.13774535 0.014851721 0.07049618
-0.15253825 0.050947614 -0.06109738 -0.07622587 0.06516799 -0.122995086 -0.07527287 0.031416822
00000000: 2e33 a83d 44c3 543d 9590 9abd 1ac5 da3d
00000010: 7cc4 f5bd 4d85 06bd c3d2 01bd 1793 bfbd
00000020: e66f d53c a25f e5bd c3d4 d23d eba4 c8bd
00000030: f5fb 9fbd 8940 063e de40 53bd c4eb cc3d
00000040: 5206 3b3e db97 18be 8237 01be e3f0 fa3d
00000050: efcf 65bd ed79 953d aeed 983d d4a1 193d
00000060: edba d43d c40a 203d 5c39 35be 3f79 b33d
00000070: f9e8 48be e006 15be aaeb e1bd d104 f7bd
00000080: 3820 b03d a0af b9bc 1d26 bf3d 1a54 8c3d
00000090: 5a7c 513d e1b2 8f3d fe15 dabd f834 383e
000000a0: 4d39 c73d de4b 633d a497 f8bd d6de c43d
000000b0: 95e8 f53d 1211 b1bd df03 08be 2520 0dbe
000000c0: a12d 543d c19a 8fbd c56c 8b3b 7380 29be
000000d0: d7d7 97bd 3199 533e 9538 03be c9ba cebd
000000e0: 2d7a c3bd 492a e83d 07b0 a6bc 3300 533e
000000f0: 3a2e 3b3e ecb9 0f3e cc96 da3d f8ad 523e
00000100: c86f 9f3d 5b30 1dbd 1f3b 94bc 3c5e 33be
00000110: de2d 3d3e 2213 923d 2c97 93bd 2fec 063e
00000120: a5d0 51bd cadd 0dbe 8a70 313d 421f c3bd
00000130: d8c9 b03d f90a 463e 7658 ae3c 5a30 383e
00000140: 4fda 063e ced8 d6bd 5e73 4b3e f446 1c3e
00000150: 52d5 0fbd ab4f 213e 40a7 143e 0a9c 423e
00000160: 3750 18be d4be 753d aecf 3b3d 3a2c 263d
00000170: 2951 d33d 1d8c 9a3d 7684 ff3d 6669 06be
00000180: be99 9fbd 56ed 463d 2e61 ee3c e549 b53d
00000190: 5f6d fabd f8a3 26be 4b03 d73d 752a f7bd
000001a0: 5dfc cfbd 4a5b 793d b740 1fbe a26c 03bc
000001b0: a7fe 4b3d 6682 49be 2e15 7bbd d5a1 8cbd
000001c0: ad77 23be 1def 223e d6f0 ec3d 0301 ce3e
000001d0: 6498 b1bd 5454 e63d d0f1 d23d 75c5 5fbd
000001e0: 1546 21bd 94c4 bebd 2994 973d 1bb6 a1bc
000001f0: b442 01be 4e89 b13d 9592 1ebe 9383 b83d
00000200: d9ec 133e 97ef 7c3d d1a9 83bc c303 323d
00000210: 280d 07be f177 373b 14fc 49be bbfd 03be
00000220: 454d ebbd fcd2 39be e1a4 eebd 1f18 a7bd
00000230: d1ee 143e d799 0e3e b767 19be 6110 c7bd
00000240: 7253 c5bc 8ea5 31be 87cb 473e 15e5 b83d
00000250: f6e4 ca3d 4974 ffbd eb0f ed3d 4b63 fcbc
00000260: 4663 403e 808f bd3d e8bf b33c d453 0b3e
00000270: 3fb8 b93d d446 143e 005c 803d 5436 b8bc
00000280: abc1 b53b 1509 d9bd 5e0f 8cbd 6f9e 013e
00000290: 8ba4 43be 6a57 55bd ddf9 3d3e 39ab 8f3d
000002a0: a8ca 013e 33c5 9fbd 707b ffbd bd98 663d
000002b0: e1ac 35be dda8 353d 22c4 5abd cd02 673d
000002c0: 1ad6 d8bd a29f 353d 9d3b b2bb b0d2 983e
000002d0: b180 813d 9dfb a83c f984 49bd 3616 05bd
000002e0: 0564 56be 68bb c9bd e187 e5bd d653 1b3c
000002f0: 07ba d9bd 8d9c 3fbe a42e 00be 63be b53d
00000300: d7b0 d1bd cdff 2f3e b732 e03c c84e ff3d
00000310: a63e 84bd 9b2e 70bd 5343 833d bfd8 373c
00000320: b0ab 5abd 7a26 3fbe 5787 d6bd ff9c d9bd
00000330: b762 2abe c99c 353e 62e2 27bd 99e3 803e
00000340: b4a7 85be 6c6d db3c f4dc c13d 1730 2b3e
00000350: 23dc 903d 6b7f 733c 130a 6dbe ddcd 64bd
00000360: f916 8fbe 506a 40bd 2522 b3bd 1244 f13d
00000370: 48fa e2bd 2d7c 6dbb 4db8 303e 6bdf 053e
00000380: d59f 30be d328 c4bd 43d8 f13d 5e7a 413d
00000390: 9cdc 8ebc 59ce e03c 2b30 97bd 66ec 893d
000003a0: 6fd6 36be 386b 91bd 40c3 133e 1657 78bd
000003b0: d0e0 92bd 95df 4ebe a387 42be 94e7 2ebe
000003c0: 58e7 c13d db84 f83d 68bb 9f3d de0d 45be
000003d0: 8770 03be 1e0d 0dbe a254 733c 4d60 903d
000003e0: fd32 1cbe 72ae 503d 3f41 7abd 4f1c 9cbd
000003f0: cc76 853d d9e4 fbbd aa28 9abd edae 003d

realnvp.s.0.4.bias f4 [32]
0.06943481 0.103387065 0.14826374 -0.091352426 0.11410808 0.009347825 -0.061537795 0.03879708
-0.11717962 0.35283983 -0.19357651 0.015725797 0.049441032 0.15332605 0.05015344 0.049951304
0.10511212 -0.03810978 -0.03809383 0.13521463 -0.0192674 -0.16842341 -0.121668115 -0.037444446
0.13383734 0.03216787 -0.14632855 -0.23249306 -0.13632166 -0.1693925 0.010867606 0.090364166
00000000: d633 8e3d 99bc d33d 73d2 173e fb16 bbbd
00000010: 7fb1 e93d 9f27 193c 0e0f 7cbd b0e9 1e3d
00000020: defb efbd 6ca7 b43e ec38 46be 63d3 803c
00000030: ae82 4a3d 8101 1d3e b26d 4d3d bd99 4c3d
00000040: 0645 d73d 0019 1cbd 4708 1cbd b475 0a3e
00000050: abd6 9dbc 3077 2cbe 222d f9bd 595f 19bd
00000060: a80c 093e 75c2 033d 27d7 15be a912 6ebe
00000070: e897 0bbe 3a75 2dbe 0b0e 323c d910 b93d

realnvp.s.0.6.weight f4 [1, 32, 1]
0.063446954 -0.20009579 -0.18098116 0.119600944 -0.18077862 0.114512786 -0.06442936 0.0875956
-0.028330766 0.24675757 0.14336737 -0.030046467 -0.0113500245 -0.045727912 -0.02736027 -0.15056394
-0.029339569 -0.12117932 0.040511735 0.14028412 -0.1378498 0.13717549 -0.16416873 0.046347883
-0.16235942 -0.040876005 -0.0019933337 0.2832554 0.13107409 -0.21617696 0.14558066 -0.03865586
00000000: 7af0 813d e9e5 4cbe 2053 39be 57f1 f43d
00000010: 081e 39be ae85 ea3d 8af3 83bd 5265 b33d
00000020: ec15 e8bc 04ae 7c3e e5ce 123e 0224 f6bc
00000030: 74f5 39bc 314d 3bbd a522 e0bc 6f2d 1abe
00000040: 8959 f0bc dd2c f8bd a2ef 253d a4a6 0f3e
00000050: 7f28 0dbe bb77 0c3e d91b 28be 47d7 3d3d
00000060: 8c41 26be 996d 27bd 97a2 02bb da06 913e
00000070: 4938 063e 7e5d 5dbe 1913 153e 9b55 1ebd

realnvp.s.1.0.weight f4 [32, 3, 1]
-0.7487082 -0.83155525 -0.49577585 -0.18368661 0.06954509 -0.23643859 -0.38210595 0.22628829
-0.47443938 -0.44412768 -0.041561592 0.18008281 0.4221526 -0.027903298 -0.69499373 0.41912746
0.6177762 0.39581016 -0.33744818 -0.068402864 -0.16204976 -0.5794655 0.4652316 0.23381437
-0.43979427 0.7365716 0.04377573 0.11542487 -0.439932 -0.61207503 -0.38724607 0.007207322
-0.6031797 0.25787434 -0.6923428 -0.070110396 -0.40647614 -0.04160521 -0.20389585 -0.29601103
-0.09250258 -0.07328012 0.389396 -0.78159606 -0.4405069 0.58763105 -0.20357762 0.46867058
-0.45769247 0.059033405 -0.67207384 0.47250938 -0.151173 -0.41182846 -0.38496703 -0.43937176
0.23740788 0.243372 0.09301145 -0.43815917 -0.019982923 -0.5605668 0.06309499 0.34424987
-0.3081348 0.42941457 0.32427958 -0.334323 0.16048323 -0.31790558 0.66031855 0.13031036
-0.17118545 -0.49943295 -0.022658404 -0.07192465 -0.013498157 -0.5327739 0.040060107 -0.14730823
-0.118829675 -0.21398616 0.36121115 -0.30854055 -0.13602053 -0.47294423 -0.35840198 0.14358431
-0.09432378 -0.016480625 0.57737285 0.57016194 -0.38187334 -0.45398137 -0.18122637 0.21869688
00000000: 57ab 3fbf cee0 54bf 55d6 fdbe 5818 3cbe
00000010: a86d 8e3d f51c 72be 64a3 c3be 1eb8 673e
00000020: b8e9 f2be b464 e3be 7d3c 2abd a167 383e
00000030: 6324 d83e 7595 e4bc 1ceb 31bf e097 d63e
00000040: 9526 1e3f a1a7 ca3e 02c6 acbe cd16 8cbd
00000050: 5ff0 25be da57 14bf d632 ee3e 096d 6f3e
00000060: b72c e1be f58f 3c3f 2e4e 333d e063 ec3d
00000070: c43e e1be f3b0 1cbf 1e45 c6be 662b ec3b
00000080: fc69 1abf 1b08 843e 613d 31bf 0a96 8fbd
00000090: a41d d0be 3a6a 2abd 13ca 50be c28e 97be
000000a0: fe71 bdbd e313 96bd ea5e c73e ae16 48bf
000000b0: 1f8a e1be fd6e 163f a776 50be 97f5 ef3e
000000c0: ab56 eabe 03cd 713d 080d 2cbf c0ec f13e
000000d0: 18cd 1abe 2edb d2be 661a c5be 56f5 e0be
000000e0: 0d1b 733e 8236 793e c97c be3d 6656 e0be
000000f0: 3ab3 a3bc 4e81 0fbf f237 813d 8541 b03e
00000100: d8c3 9dbe 3adc db3e f907 a63e 622c abbe
00000110: b755 243e 85c4 a2be a30a 293f 1470 053e
00000120: 3d4b 2fbe adb5 ffbe 1e9e b9bc 3b4d 93bd
00000130: 6027 5dbc df63 08bf 1116 243d f8d7 16be
00000140: f95c f3bd 301f 5bbe abf0 b83e 07f9 9dbe
00000150: f748 0bbe bf25 f2be 7780 b7be c407 133e
00000160: d32c c1bd 6002 87bc b5ce 133f 22f6 113f
00000170: e784 c3be 3f70 e8be 6893 39be 13f2 5f3e

realnvp.s.1.0.bias f4 [32]
-0.6833268 0.03948516 0.087450534 0.36531118 0.23668392 -0.3465353 0.27577966 0.36785313
0.021790765 -0.0060444493 -0.0047869426 -0.24638744 -0.439886 -0.0150051415 0.20279501 -0.029763393
-0.02461336 -0.198283 -0.5524847 0.30332077 0.5509851 0.21041434 0.34201595 -0.3946203
0.018449299 0.17996685 0.012294862 0.32046798 -0.021545276 -0.5071455 -0.29679948 -0.009252572
00000000: 81ee 2ebf 31bb 213d 4419 b33d 110a bb3e
00000010: 455d 723e 136d b1be fe32 8d3e 3f57 bc3e
00000020: 8c82 b23c 8410 c6bb c9db 9cbb fd4c 7cbe
00000030: bd38 e1be 20d8 75bc 7fa9 4f3e 5cd2 f3bc
00000040: f5a1 c9bc b30a 4bbe a36f 0dbf dc4c 9b3e
00000050: 5c0d 0d3f db76 573e b71c af3e ac0b cabe
00000060: fc22 973c 3b49 383e 6470 493c 6114 a43e
00000070: b87f b0bc 4ad4 01bf 1af6 97be 1a98 17bc

realnvp.s.1.2.weight f4 [32, 32, 1]
0.01880328 0.15328431 0.18256582 0.14542256 -0.12806627 0.08188113 0.011522684 0.020629855
-0.0113302935 -0.07601242 0.030415174 -0.110858664 -0.09602864 0.018755315 0.077138126 0.21336326
0.06800906 -0.12990247 0.14888963 0.050524127 0.16064368 0.137748 -0.00618889 -0.031127902
0.18827417 -0.086338505 -0.021941012 0.090012304 0.17283599 0.047003496 -0.05958129 0.115446776
-0.33350816 -0.20513758 -0.43097177 0.24768104 2.123473 -0.0642421 -0.03823045 0.026365532
-0.3635011 -0.17589207 -0.15515131 0.12013864 0.14054276 -0.35913235 0.38060775 -0.124554254
-0.05027024 0.46791893 0.1364709 1.2950948 0.099364676 0.11221142 0.025602102 0.029856818
0.22581576 -0.10385914 -0.2769733 -0.36265182 -0.12236491 -0.035893917 0.42580977 0.266687
0.057007883 -0.12325196 -0.034579743 0.16262308 0.0069382405 -0.02280483 0.009047304 0.19716701
-0.28515887 -0.1297014 -0.087307945 0.018761406 -0.012738886 0.21969429 -0.56113106 -0.0022940177
-0.23832524 0.1251869 -0.08846353 0.27840048 0.17752966 -0.087711275 -0.08217431 -0.06423043
0.13961197 -0.1746979 -0.0032475493 0.07672782 0.01545064 -0.13418697 -0.12256171 0.049476556
-0.012572417 -0.15166548 -0.13460258 -0.18349195 -0.10944781 0.04804734 -0.048853613 -0.21672313
-0.14471285 -0.011660669 -0.013908889 -0.14030868 -0.03119349 0.12514551 0.07595554 -0.15810168
-0.17559755 -0.060509328 -0.17794442 -0.058621854 0.13065228 -0.054486375 0.002436181 -0.046611648
0.06780999 0.14064743 -0.14589693 -0.19067074 -0.20016082 0.045909643 0.19219837 -0.08616607
-0.064775735 0.12930581 0.16048093 0.08546413 0.02882363 -0.11246565 0.09963441 -0.10863348
0.0998576 0.1159089 0.13502173 -0.082135804 -0.05707882 0.15329614 0.11472368 0.08518143
0.06799731 -0.008322266 -0.08406072 -0.19675623 -0.12567762 0.12815236 -0.071408235 -0.12647681
-0.1895877 -0.05271933 0.03439008 0.111067005 -0.05232069 0.0045540063 0.15640415 0.10209629
-0.01238696 -0.16173376 0.21704164 -0.05712614 0.050763328 -0.1329651 0.14928925 0.04010461
0.10442103 -0.1083658 -0.11391115 -0.062225126 -0.10190462 0.12012417 -0.12716155 -0.007516657
-0.028370965 -0.1288109 -0.0403028 -0.11100101 -0.008902292 0.050923843 0.037528235 0.060308725
-0.17796074 -0.019177448 -0.04814153 -0.052056633 0.0809313 0.028267052 -0.1133935 -0.07938567
0.05249463 0.2045986 0.241149 0.18479545 -0.25073913 0.025345434 0.17079005 -0.12454495
-0.18666017 -0.063989006 -0.23004386 -0.20163411 -0.13834913 0.23249117 0.18784425 -0.074903436
-0.3610978 0.17088495 -0.01828297 -0.17829949 0.08461943 0.18848251 0.023266524 -0.038270008
0.14580588 0.10182621 0.087856576 0.08886082 0.1064378 0.047867935 0.002756752 -0.03129572
0.16044208 0.13913843 -0.14349486 0.0026290263 0.017966345 0.13134104 0.04132892 -0.15036833
-0.01592602 -0.07270385 -0.09734417 -0.04126181 -0.14162098 -0.09639643 -0.029965002 0.12363668
0.08745498 0.13386475 -0.02200847 -0.25723746 -0.06504837 0.036066137 -0.036999986 0.030091006
-0.1320648 0.184988 0.03802531 -0.0089369025 -0.10975119 0.05883888 0.12192883 0.106266454
00000000: 5609 9a3c 90f6 1c3e 89f2 3a3e a7e9 143e
00000010: ce23 03be 4bb1 a73d a4c9 3c3c f1ff a83c
00000020: b2a2 39bc 66ac 9bbd 3e29 f93c de09 e3bd
00000030: aaaa c4bd bfa4 993c 98fa 9d3d e67b 5a3e
00000040: 5648 8b3d 2705 05be 8676 183e 63f2 4e3d
00000050: c77f 243e d00d 0d3e 2ccc cabb f1ff febc
00000060: f2ca 403e 3ed2 b0bd a3bd b3bc 5f58 b83d
00000070: ebfb 303e bd86 403d 830b 74bd 5c6f ec3d
00000080: 95c1 aabe 960f 52be 55a8 dcbe 19a0 7d3e
00000090: fbe6 0740 5d91 83bd 8897 1cbd 87fc d73c
000000a0: d11c babe 0d1d 34be fcdf 1ebe 3f0b f63d
000000b0: 71ea 0f3e 32e0 b7be 05df c23e 4d16 ffbd
000000c0: 2be8 4dbd 1293 ef3e 07bf 0b3e abc5 a53f
000000d0: b57f cb3d 1acf e53d 80bb d13c 4996 f43c
000000e0: 3f3c 673e 1ab4 d4bd 72cf 8dbe 80ad b9be
000000f0: 749a fabd 8005 13bd bd03 da3e 338b 883e
00000100: 1981 693d 866b fcbd 7da3 0dbd aa86 263e
00000110: 2e5a e33b 32d1 babc 253b 143c 26e6 493e
00000120: 5800 92be 72d0 04be 82ce b2bd 85b1 993c
00000130: c3b6 50bc 8af7 603e 49a6 0fbf 3b57 16bb
00000140: 880b 74be ff30 003e 5e2c b5bd 828a 8e3e
00000150: 56ca 353e f8a1 b3bd 014b a8bd 3e8b 83bd
00000160: 71f6 0e3e 02e4 32be d6d4 54bb 7a23 9d3d
00000170: ae24 7d3c 4f68 09be a201 fbbd eea7 4a3d
00000180: 8afc 4dbc 324e 1bbe 42d5 09be 50e5 3bbe
00000190: 2c26 e0bd 4acd 443d ba1a 48bd abec 5dbe
000001a0: 9b2f 14be 640c 3fbc 1ce2 63bc 14ad 0fbe
000001b0: 7d89 ffbc 2526 003e 948e 9b3d 68e5 21be
000001c0: d8cf 33be a1d8 77bd 1037 36be 781d 70bd
000001d0: b6c9 053e 1b2d 5fbd 56a8 1f3b dbeb 3ebd
000001e0: f7df 8a3d e105 103e 0166 15be 313f 43be
000001f0: f5f6 4cbe c00b 3c3d a6cf 443e d677 b0bd
00000200: 24a9 84bd be68 043e 1d55 243e d107 af3d
00000210: 891f ec3c 6454 e6bd 200d cc3d 3b7b debd
00000220: 2482 cc3d a561 ed3d 2343 0a3e d136 a8bd
00000230: 7bcb 69bd aaf9 1c3e 40f4 ea3d 9a73 ae3d
00000240: 2c42 8b3d 1d5a 08bc 0728 acbd 777a 49be
00000250: a2b1 00be 5f3a 033e 7b3e 92bd 2383 01be
00000260: 4723 42be 39f0 57bd 9ddc 0c3d 1977 e33d
00000270: 384e 56bd c639 953b 6928 203e dc17 d13d
00000280: adf2 4abc 899d 25be 2a40 5e3e 19fd 69bd
00000290: 35ed 4f3d 0128 08be 48df 183e bb44 243d
000002a0: b1da d53d e3ee ddbd 404a e9bd c6df 7ebd
000002b0: 5fb3 d0bd a903 f63d a336 02be 4a4e f6bb
000002c0: 3a6a e8bc 01e7 03be 8c14 25bd 7f54 e3bd
000002d0: ebda 11bc 8595 503d 35b7 193d 4806 773d
000002e0: 573b 36be 061a 9dbc 0e30 45bd 5639 55bd
000002f0: 4fbf a53d 4e90 e73c da3a e8bd f494 a2bd
00000300: 9c04 573d 4c82 513e c3ef 763e 053b 3d3e
00000310: e160 80be 3aa1 cf3c 96e3 2e3e 6c11 ffbd
00000320: d823 3fbe ab0c 83bd 9e90 6bbe 2c79 4ebe
00000330: 65ab 0dbe 2a12 6e3e 3e5a 403e f966 99bd
00000340: d0e1 b8be 77fc 2e3e 2bc6 95bc 2494 36be
00000350: f44c ad3d 8f01 413e 7099 be3c 03c1 1cbd
00000360: 234e 153e 438a d03d 26ee b33d a9fc b53d
00000370: 10fc d93d 2b11 443d a0aa 343b f12f 00bd
00000380: ee4a 243e 4e7a 0e3e 51f0 12be be4b 2c3b
00000390: 282e 933c 447e 063e 8348 293d 28fa 19be
000003a0: 4977 82bc c2e5 94bd 615c c7bd 2502 29bd
000003b0: 1705 11be 7e6b c5bd 2a79 f5bc 3a35 fd3d
000003c0: 991b b33d d713 093e 1b4b b4bc a1b4 83be
000003d0: 1438 85bd 16ba 133d 4c8d 17bd 6a81 f63c
000003e0: ff3b 07be 7f6d 3d3e 6dc0 1b3d 166c 12bc
000003f0: 3bc5 e0bd 0a01 713d d3b5 f93d 3aa2 d93d

realnvp.s.1.2.bias f4 [32]
-0.1393449 -0.141514 0.17341319 -0.12115944 0.112647355 -0.053851552 0.08304429 -0.032550838
-0.0710989 -0.113627285 -0.07618546 -0.0775094 0.045382146 0.007778404 0.08638474 -0.20736758
0.08541648 -0.04769249 0.05005247 0.099713296 -0.098947406 0.021842847 -0.0063796598 0.17945625
0.025192583 0.083874956 -0.106731005 -0.012157037 0.10960878 -0.0781532 0.009465643 0.20577553
00000000: 6eb0 0ebe 0ce9 10be 3a93 313e 7122 f8bd
00000010: a8b3 e63d 7293 5cbd 2013 aa3d 0754 05bd
00000020: 4d9c 91bd 6cb5 e8bd 1f07 9cbd 40bd 9ebd
00000030: a1e2 393d fbe1 fe3b 7cea b03d 2b58 54be
00000040: d6ee ae3d 3359 43bd d203 4d3d 7c36 cc3d
00000050: f0a4 cabd c5ef b23c 770c d1bb 61c3 373e
00000060: ad60 ce3c a2c6 ab3d c995 dabd 4f2e 47bc
00000070: 917a e03d c90e a0bd c915 1b3c d2b6 523e

realnvp.s.1.4.weight f4 [32, 32, 1]
0.11227276 -0.1670272 0.051313154 -0.01042738 -0.025598753 0.023191473 0.17593405 0.099672236
0.15279453 0.02720233 0.22257783 0.09101583 0.08210676 0.15013768 0.14479424 0.085324086
0.04711133 0.10556372 0.027157672 -0.070547864 0.08548309 0.07965676 0.087680876 0.08413733
-0.07691856 -0.17537116 -0.020580048 -0.009124919 0.13521789 0.052917928 -0.091183215 -0.17459577
-0.19975258 -0.02055311 -0.15241307 0.15597674 -0.1484197 -0.11743779 0.1451957 0.07071098
0.12836105 -0.16109958 -0.10262498 0.08951066 -0.11968911 -0.085749425 0.097224906 0.09845012
-0.03123244 0.21890387 -0.05101222 0.077164404 0.48277527 -0.017162958 0.048791878 0.07092657
0.031364545 0.18598177 -0.06944728 -0.0174454 -0.1564416 0.119572416 -0.22174124 -0.14735587
-0.12113258 -0.18681033 0.18101068 0.0097938245 0.15126002 0.15350866 -0.022663133 -0.10116257
0.073887594 -0.020153254 0.101844236 0.24152507 0.12525795 -0.038365275 0.13372722 0.052526012
-0.12081457 0.28485787 0.06645061 0.14300855 0.19284359 -0.10524398 -0.05107434 0.11554465
0.07195348 -0.0426146 -0.1594119 -0.08660218 0.25640443 0.012666241 0.0833168 -0.16957858
0.0748896 -0.09968621 0.22270104 -0.091165826 0.02229725 -0.009648626 0.23386408 -0.13751288
-0.21218228 -0.16721067 -0.14551401 0.6853645 -0.15676087 0.21697219 -0.11561891 0.032376282
0.08598809 0.87587196 -0.15799627 0.056397617 0.39705446 0.09013349 -0.08983561 -0.09004921
0.061386973 -0.07987393 0.34755996 -0.06412059 -0.18646726 0.07168076 -0.13210648 -0.44641802
0.016623437 -0.114089414 -0.024438666 0.19769719 -0.1865856 0.045066807 -0.004172928 0.07685676
-0.105207436 -0.10921229 0.05141068 -0.14888458 0.089081444 -0.048522014 -0.09443239 -0.062139772
-0.025210835 -0.059433974 -0.039134845 0.13122892 -0.10428033 -0.08415547 -0.055467263 0.10264777
-0.027667128 0.029373856 0.10876705 -0.17874527 0.056135766 0.04491614 0.07223209 -0.01668959
0.044927824 0.743201 0.14103325 -0.022277446 -0.11454912 -0.14034349 0.058417127 -0.028246032
0.08764547 0.07861854 -0.026127895 -0.6079031 -0.16186072 0.011647174 0.15475605 0.05835533
0.038399015 -0.16469525 -0.12390751 0.09069793 0.02851961 -0.15340741 -0.22090682 -0.038129013
0.17208214 -0.08285249 -0.07568525 0.11174269 -0.10624997 0.21578841 0.15798327 0.022976294
0.05900381 0.18820815 0.031823426 0.09401907 -0.09917659 0.01872533 0.029690517 0.042711753
0.16835606 -0.1913586 -0.17544976 -0.12874584 -0.14005534 0.009461445 -0.033549882 0.065560296
-0.09187983 -0.12038579 -0.2165157 -0.025433144 -0.186022 0.029753104 -0.0031729976 0.07075506
-0.040063087 -0.011630544 -0.10168737 -0.060448766 -0.29143843 -0.119239144 0.1484052 0.050821833
0.14944778 -0.085895665 -0.04558977 -0.067839496 -0.036793213 0.016833983 -0.04484516 0.07166144
-0.01139138 -0.1294202 -0.06795604 0.20051457 -0.009217168 -0.09957518 0.10835847 -0.053334605
0.012828819 0.35669002 0.096281536 0.07761214 0.07977234 0.09998917 0.16949596 -0.046699926
0.116423376 0.017342594 0.28251427 0.13938755 -0.024621932 0.1548159 -0.11675608 -0.63231975
00000000: 43ef e53d 2e09 2bbe be2d 523d 9ad7 2abc
00000010: 7ab4 d1bc 0bfc bd3c 0e28 343e f520 cc3d
00000020: 2b76 1c3e 6cd7 de3c 71eb 633e 8266 ba3d
00000030: 9727 a83d b1bd 193e f144 143e 65be ae3d
00000040: cff7 403d cb31 d83d c479 de3c 667b 90bd
00000050: c211 af3d 1523 a33d 0892 b33d 3150 ac3d
00000060: 7a87 9dbd 7f94 33be 7d97 a8bc af80 15bc
00000070: 8f76 0a3e 78c0 583d 44be babd 3cc9 32be
00000080: f18b 4cbe ff5e a8bc 2c12 1cbe 5eb8 1f3e
00000090: 55fb 17be 3983 f0bd 2eae 143e ebd0 903d
000000a0: 1471 033e 4af7 24be 0c2d d2bd 5d51 b73d
000000b0: 901f f5bd 659d afbd da1d c73d 37a0 c93d
000000c0: 2ddb ffbc 5628 603e 31f2 50bd 5f08 9e3d
000000d0: 522e f73e 5599 8cbc fed9 473d f341 913d
000000e0: 1c78 003d 0172 3e3e 603a 8ebd a8e9 8ebc
000000f0: 3a32 20be 62e2 f43d 2310 63be 75e4 16be
00000100: 5c14 f8bd 354b 3fbe dd5a 393e 4776 203c
00000110: e8e3 1a3e 6031 1d3e 09a8 b9bc 522e cfbd
00000120: 6152 973d 7018 a5bc b693 d03d 5952 773e
00000130: 9f43 003e e824 1dbd caef 083e 8425 573d
00000140: a16d f7bd e4d8 913e 4217 883d d570 123e
00000150: ca78 453e 288a d7bd 5433 51bd aca2 ec3d
00000160: 595c 933d a68c 2ebd e03c 23be 7c5c b1bd
00000170: 7147 833e 1186 4f3c 00a2 aa3d 02a6 2dbe
00000180: b85f 993d 4928 ccbd be0b 643e 26b5 babd
00000190: b9a8 b63c 4515 1ebc 117a 6f3e 2dd0 0cbe
000001a0: 5046 59be 4639 2bbe a001 15be 0c74 2f3f
000001b0: ec85 20be f52d 5e3e 9bc9 ecbd fe9c 043d
000001c0: 861a b03d 2539 603f c6c9 21be 3001 673d
000001d0: b94a cb3e e897 b83d bbfb b7bd b86b b8bd
000001e0: e870 7b3d f194 a3bd 61f3 b13e a851 83bd
000001f0: 46f1 3ebe 5dcd 923d ec46 07be e790 e4be
00000200: e02d 883c b6a7 e9bd 9933 c8bc 2271 4a3e
00000210: 4c10 3fbe f997 383d 0fbd 88bb 1467 9d3d
00000220: ff76 d7bd b1aa dfbd 0194 523d 3375 18be
00000230: 5570 b63d 05bf 46bd c565 c1bd 4686 7ebd
00000240: f486 cebc 0a71 73bd dc4b 20bd e060 063e
00000250: ed90 d5bd b459 acbd a431 63bd fe38 d23d
00000260: 2ca6 e2bc 71a1 f03c 42c1 de3d 0009 37be
00000270: 9eee 653d fdf9 373d 6bee 933d 9bb8 88bc
00000280: 3d06 383d 6c42 3e3f 056b 103e 317f b6bc
00000290: bb98 eabd 34b6 0fbe cc46 6f3d 3964 e7bc
000002a0: 787f b33d c202 a13d 2b0a d6bc 8a9f 1bbf
000002b0: d1be 25be cad3 3e3c 5f78 1e3e 0006 6f3d
000002c0: 4948 1d3d dfa5 28be 38c3 fdbd d6bf b93d
000002d0: f5a1 e93c d516 1dbe 6635 62be 2b2d 1cbd
000002e0: 4d36 303e 91ae a9bd de00 9bbd 5ad9 e43d
000002f0: 9699 d9bd a3f7 5c3e 5ec6 213e c838 bc3c
00000300: fbad 713d a3b9 403e 4859 023d 128d c03d
00000310: 191d cbbd dd65 993c 8739 f33c 85f2 2e3d
00000320: 8865 2c3e 82f3 43be 1aa9 33be f3d5 03be
00000330: ab6a 0fbe 2d04 1b3c 9a6b 09bd 7a44 863d
00000340: 7e2b bcbd d38c f6bd 4bb6 5dbe 2b59 d0bc
00000350: 8d7c 3ebe c8bc f33c 11f2 4fbb 07e8 903d
00000360: 3119 24bd 0a8e 3ebc 7841 d0bd 2099 77bd
00000370: 6b37 95be a733 f4bd 88f7 173e 8e2a 503d
00000380: d708 193e 11ea afbd 57bc 3abd 6fef 8abd
00000390: 7bb4 16bd 6ce7 893c 8faf 37bd 3cc3 923d
000003a0: e9a2 3abc bb86 04be 892c 8bbd b153 4d3e
000003b0: 9b03 17bc 12ee cbbd 0ceb dd3d 6375 5abd
000003c0: f82f 523c 13a0 b63e 412f c53d 1df3 9e3d
000003d0: ae5f a33d 1fc7 cc3d 5990 2d3e 6c48 3fbd
000003e0: 616f ee3d 0e12 8e3c b6a5 903e 9cbb 0e3e
000003f0: efb3 c9bc 0f88 1e3e d01d efbd b5df 21bf

realnvp.s.1.4.bias f4 [32]
-0.0023682327 -0.086461954 0.0888196 -0.09431884 -0.04511634 -0.067456424 -0.06373807 -0.09211358
0.090535305 -0.09332664 0.005166956 -0.040937807 0.10798183 0.12043111 -0.14583069 0.0096079055
-0.10948005 0.19985376 -0.10108626 0.026813501 -0.07444697 0.06957796 -0.07884893 0.01717948
-0.1627384 -0.09264734 -0.08227445 -0.12852296 0.12717025 -0.036399905 -0.09440979 0.040914018
00000000: 5a34 1bbb f712 b1bd 0de7 b53d 3c2a c1bd
00000010: e9cb 38bd 9826 8abd 1b89 82bd 0ba6 bcbd
00000020: 936a b93d 0a22 bfbd 924f a93b 67ae 27bd
00000030: 9425 dd3d 96a4 f63d a454 15be 7a6a 1d3c
00000040: 1437 e0bd 77a6 4c3e 5006 cfbd fda7 db3c
00000050: a777 98bd e47e 8e3d 8c7b a1bd fbbb 8c3c
00000060: e5a4 26be e3bd bdbd 827f a8bd 869b 03be
00000070: eb38 023e 1118 15bd ec59 c1bd 7595 273d

realnvp.s.1.6.weight f4 [1, 32, 1]
-0.19116849 -0.1296326 -0.122586764 -0.1828113 -0.07374619 0.3366939 0.19738124 -0.069698274
0.10520943 -0.2559992 0.099043176 -0.2610685 -0.11365749 0.082844086 0.15236248 0.08931567
0.075648114 -0.38324288 0.002149203 -0.2507543 0.11933863 0.105300866 -0.2108591 0.02365446
0.015490354 0.13172767 0.1821746 0.20589444 -0.090374395 0.13731597 -0.15648368 -0.032415476
00000000: acc1 43be 69be 04be c50e fbbd e332 3bbe
00000010: 3e08 97bd 2563 ac3e 4f1e 4a3e f8bd 8ebd
00000020: 0b78 d73d 5412 83be 26d7 ca3d c5aa 85be
00000030: 42c5 e8bd 29aa a93d e904 1c3e 22eb b63d
00000040: 66ed 9a3d 6938 c4be a5d9 0c3b de62 80be
00000050: d067 f43d fba7 d73d 73eb 57be 00c7 c13c
00000060: 41cb 7d3c 9ee3 063e fa8b 3a3e fed5 523e
00000070: 3616 b9bd 8f9c 0c3e 423d 20be 17c6 04bd

realnvp.s.2.0.weight f4 [32, 3, 1]
-0.2050684 -0.051238433 -0.06841779 -0.3633162 0.65208685 -0.091223985 -0.38991335 -0.17637065
-0.06980839 0.46471798 0.21453695 -0.6904971 -0.18581833 0.17730987 0.45727548 0.061984695
-0.18762417 -0.20044348 -0.55456775 -0.35504657 -0.34902126 -0.11569746 -0.03954075 -0.16834487
0.62122774 -0.36806446 0.20445926 0.119711734 0.4967271 -0.2811476 -0.48989666 -0.45515954
-0.29143223 0.5256832 0.82260585 -0.027589157 0.33216894 0.24507585 0.44733676 0.041916423
-0.31059504 0.36580604 0.113341935 -0.18194258 0.3695856 -0.088212475 0.06540431 -0.50119907
0.2075256 0.10866087 0.5901231 0.20768096 -0.023479016 -0.49591985 -0.27752164 -0.0042801416
-0.0018154297 -0.35192055 0.3966986 0.13339645 0.32641444 0.18828121 -0.34017384 0.55352575
0.033156056 -0.390863 0.23132688 0.22129491 0.35127696 -0.15834425 -0.019101527 -0.15738748
-0.50756323 -0.38904926 0.0610865 -0.045218404 -0.124113135 0.59097266 -0.44697133 0.15055864
0.45816052 -0.14185856 -0.0904691 0.3956799 0.32223952 0.066158965 0.4504358 -0.09918379
0.7524454 0.29726115 0.418028 0.37819812 -0.07885142 0.06965768 -0.42071956 0.4341213
00000000: 73fd 51be 64df 51bd a01e 8cbd 9504 babe
00000010: 2aef 263f a4d3 babd b9a2 c7be 829a 34be
00000020: b4f7 8ebd 84ef ed3e 93af 5b3e 6bc4 30bf
00000030: 2947 3ebe b890 353e 0320 ea3e aae3 7d3d
00000040: 8d20 40be 0e41 4dbe 27f8 0dbf aac8 b5be
00000050: eab2 b2be caf2 ecbd 7bf5 21bd 9962 2cbe
00000060: c808 1f3f f272 bcbe c55d 513e 6d2b f53d
00000070: 0453 fe3e 94f2 8fbe bcd3 fabe ac0a e9be
00000080: 9b36 95be 2d93 063f 4c96 523f a802 e2bc
00000090: 0c12 aa3e 2af5 7a3e 5309 e53e 8eb0 2b3d
000000a0: 5006 9fbe ee4a bb3e d11f e83d 284f 3abe
000000b0: 533a bd3e bea8 b4bd b2f2 853d 954e 00bf
000000c0: 9781 543e 9789 de3d 4f12 173f 51aa 543e
000000d0: 1157 c0bc 35e9 fdbe 5117 8ebe 6e40 8cbb
000000e0: b6f3 edba ee2e b4be 141c cb3e 1499 083e
000000f0: cb1f a73e cacc 403e 442b aebe ddb3 0d3f
00000100: a5ce 073d 321f c8be f4e0 6c3e 229b 623e
00000110: 93da b33e ff24 22be ce7a 9cbc 2f2a 21be
00000120: aaef 01bf 7731 c7be d635 7a3d ef36 39bd
00000130: 072f febd fc49 173f 6dd9 e4be 0b2c 1a3e
00000140: 0494 ea3e 5f43 11be dd47 b9bd 8e96 ca3e
00000150: 94fc a43e 5a7e 873d 859f e63e df20 cbbd
00000160: 43a0 403f 9d32 983e c407 d63e 2fa3 c13e
00000170: da7c a1bd b0a8 8e3d 8e68 d7be 2645 de3e

realnvp.s.2.0.bias f4 [32]
0.122454 -0.42814505 0.35703355 0.15329549 0.2141457 0.2983418 0.51932895 0.46383512
0.4506011 0.011837904 0.18351239 0.4656298 -0.4469688 0.0009517337 -0.37302944 -0.11028469
-0.30531007 0.016461978 -0.37376255 0.44678527 -0.05484353 -0.076233655 -0.0146372365 -0.21153396
-0.51840746 0.2218694 0.5060289 0.460268 -0.3893346 -0.3264615 0.45130807 -0.3403746
00000000: 2ac9 fa3d d435 dbbe 1acd b63e 7ef9 1c3e
00000010: 0349 5b3e 42c0 983e bef2 043f cc7b ed3e
00000020: 30b5 e63e c5f3 413c acea 3b3e 0767 ee3e
00000030: 18d9 e4be c47d 793a b7fd bebe f1dc e1bd
00000040: 9a51 9cbe 45db 863c ce5d bfbe 0ac1 e43e
00000050: 9ca3 60bd 6420 9cbd 05d1 6fbc 5c9c 58be
00000060: 5ab6 04bf bb31 633e 1c8b 013f 3fa8 eb3e
00000070: dd56 c7be f625 a7be da11 e73e 9445 aebe

realnvp.s.2.2.weight f4 [32, 32, 1]
-0.15307964 0.016587542 -0.092324585 -0.12603724 -0.13901688 -0.36367002 -0.17395872 0.1594859
0.14721486 -0.02763855 0.048798833 0.030630914 0.2191845 -0.11437821 0.007832283 -0.14805631
0.13666438 -0.088370115 -0.13387607 -0.13395217 0.05818199 0.033836167 -0.08405601 -0.078374095
-0.09728735 0.13489771 -0.0755169 0.08684522 -0.12087649 -0.21629713 0.14866515 0.00924798
-0.007821764 -0.17003371 -0.21748255 0.02531402 0.009884352 -0.4463147 -0.110097 -0.0061541973
0.065458916 -0.09277503 -0.2759069 0.008579129 0.011499317 0.16080421 0.20910844 -0.09128233
0.17809103 0.027590599 0.061555546 0.0054531465 0.04329589 0.03407142 0.1870307 -0.11994871
-0.08743873 0.075431265 -0.0859254 -0.117065795 0.19063984 0.057904143 -0.0024564287 -0.05739362
0.028942764 -0.15268554 0.0965884 0.09152319 -0.033768542 -0.21299742 -0.15870684 0.0034929523
-0.024728015 -0.08672325 -0.068150334 0.04391267 0.22123899 -0.1410879 0.09051162 0.13897058
-0.06832432 0.14940342 0.039014343 -0.20169774 0.10192864 0.15112253 -0.17276059 -0.054222096
0.16298294 -0.19136547 -0.049612727 -0.22536038 -0.095469445 -0.13817222 0.09264774 0.06530165
-0.09201438 -0.23790877 0.11685679 -0.071071014 0.13451107 -0.276617 -0.16250743 -0.16020902
0.12774532 -0.055775337 -0.0072755055 0.072403625 -0.03125054 -0.086004995 0.24667487 -0.12404034
0.1286531 -0.06863401 0.09245591 0.12347881 0.034049906 0.14909455 0.14297156 -0.05135364
-0.027804706 -0.122678064 0.042725638 -0.040783804 0.026426867 -0.15565269 -0.044817977 -0.09757788
0.19628516 -0.06286258 -0.093444005 0.038467176 0.0406013 -0.04305931 -0.0843006 -0.015554054
0.030196637 -0.015275199 0.2553636 -0.19287863 0.026643725 -0.11163291 -0.04617442 0.064027175
-0.050997727 0.104140185 0.1528611 -0.13654557 -0.06333677 0.03961181 -0.17816733 0.18234147
0.025038617 -0.046535473 0.032307696 -0.086523935 0.04602142 -0.14614515 -0.02974179 -0.1317845
-0.07089283 -0.13867947 0.1715556 -0.021477697 -0.1584709 -0.0850161 -0.12983748 -0.16537681
0.12651521 -0.20269665 0.0768232 -0.14499721 0.10956723 -0.14207919 -0.06264108 -0.04944251
0.05851808 -0.10292776 0.13503118 -0.10302072 -0.1546988 -0.06787117 0.09392 0.1524539
0.12404155 -0.019852726 -0.039268486 0.086393535 -0.1847546 0.068672664 0.02630294 -0.09760381
0.09018505 0.09851158 0.032586467 -0.09723416 0.060423307 0.07366533 -0.02093612 -0.116821565
0.007860963 -0.020701999 -0.15603493 0.07101807 0.15529105 0.07709001 0.04455806 0.06458543
-0.057336852 0.16213039 0.0026356506 -0.15647125 -0.12536877 0.06639896 -0.158013 -0.015963932
0.117781 -0.14018872 -0.0080169765 0.04331928 0.15266386 0.1233515 -0.12994833 -0.09013118
-0.116106115 0.021018503 -0.026520701 -0.019940928 -0.14100209 0.31276938 -0.06988487 0.098217286
0.15504345 -0.17845881 0.115909204 -0.050725397 -0.19055492 -0.0305288 -0.03783424 -0.14257021
-0.14479412 -0.0886317 0.05878688 -0.001006802 -0.16443968 -0.08444125 -0.013039048 -0.16435827
-0.032252774 -0.011083819 -0.010298618 -0.16549361 -0.033382475 -0.030445 -0.014618735 0.100839004
00000000: e9c0 1cbe 99e2 873c ac14 bdbd e80f 01be
00000010: 715a 0ebe f532 babe 3c22 32be 4650 233e
00000020: 7ebf 163e 3e6a e2bc 49e1 473d afed fa3c
00000030: e771 603e 1f3f eabd fa52 003c 139c 17be
00000040: bff1 0b3e 64fb b4bd cf16 09be c22a 09be
00000050: 3d50 6e3d cb97 0a3d 8f25 acbd 9982 a0bd
00000060: 973e c7bd a022 0a3e 9ba8 9abd e8db b13d
00000070: 188e f7bd ff7c 5dbe ad3b 183e d784 173c
00000080: db26 00bc 511d 2ebe bfb3 5ebe 595f cf3c
00000090: faf1 213c 5c83 e4be 897a e1bd 26a9 c9bb
000000a0: 530f 863d d600 bebd ab43 8dbe 7a8f 0c3c
000000b0: a267 3c3c dca9 243e 8620 563e 3bf2 babd
000000c0: 7f5d 363e ae05 e23c ab21 7c3d 4fb0 b23b
000000d0: 0857 313d 798e 0b3d fa84 3f3e aba7 f5bd
000000e0: 1413 b3bd b57b 9a3d a8f9 afbd 31c0 efbd
000000f0: 1737 433e e52c 6d3d 09fc 20bb 9315 6bbd
00000100: 6019 ed3c 9959 1cbe 24d0 c53d 8370 bb3d
00000110: e250 0abd ff1b 5abe 0c84 22be 04ea 643b
00000120: 6892 cabc f69b b1bd 6792 8bbd c6dd 333d
00000130: 798c 623e 5979 10be 285e b93d 4e4e 0e3e
00000140: 9fed 8bbd 36fd 183e 81cd 1f3d da89 4ebe
00000150: f6bf d03d ddbf 1a3e 27e8 30be fd17 5ebd
00000160: 00e5 263e 4ff5 43be b736 4bbd dfc4 66be
00000170: 7c85 c3bd 057d 0dbe 19be bd3d dfbc 853d
00000180: 0972 bcbd 5b9e 73be 9d52 ef3d ae8d 91bd
00000190: 45bd 093e bea0 8dbe 5968 26be d50d 24be
000001a0: abcf 023e ae74 64bd 5d67 eebb 5a48 943d
000001b0: 9100 00bd 6323 b0bd 5698 7c3e dd08 febd
000001c0: a3bd 033e fd8f 8cbd 8659 bd3d 75e2 fc3d
000001d0: ea77 0b3d 3eac 183e 2367 123e 3258 52bd
000001e0: b2c6 e3bc a33e fbbd 1401 2f3d eb0c 27bd
000001f0: 287d d83c 6b63 1fbe 0e93 37bd e9d6 c7bd
00000200: fafe 483e 19be 80bd 925f bfbd c28f 1d3d
00000210: 8c4d 263d f65e 30bd cba5 acbd 6ed6 7ebc
00000220: f05e f73c d444 7abc 05bf 823e fa81 45be
00000230: f143 da3c cc9f e4bd 6321 3dbd ae20 833d
00000240: fee2 50bd 7347 d53d 9f87 1c3e 9ad2 0bbe
00000250: b5b6 81bd fe3f 223d 7f71 36be b9b7 3a3e
00000260: c91d cd3c fb9b 3ebd 1355 043d 7633 b1bd
00000270: f580 3c3d 13a7 15be 0ea5 f3bc 84f2 06be
00000280: 4330 91bd fe01 0ebe 45ac 2f3e fff1 afbc
00000290: 3246 22be ec1c aebd 1ef4 04be 8a58 29be
000002a0: 348d 013e b68f 4fbe 7b55 9d3d 267a 14be
000002b0: c964 e03d 357d 11be f749 80bd 3b84 4abd
000002c0: a7b0 6f3d cacb d2bd 9d45 0a3e 87fc d2bd
000002d0: 5d69 1ebe 0a00 8bbd 2159 c03d e01c 1c3e
000002e0: 7f09 fe3d 2fa2 a2bc fed7 20bd 18ef b03d
000002f0: 4f30 3dbe 41a4 8c3d 4379 d73c 82e4 c7bd
00000300: f1b2 b83d 70c0 c93d 6379 053d b422 c7bd
00000310: 6e7e 773d d9dd 963d 3a82 abbc 2540 efbd
00000320: 45cb 003c 3d97 a9bc 9fc7 1fbe ec71 913d
00000330: 9e04 1f3e 5ee1 9d3d 8382 363d 5e45 843d
00000340: 0cda 6abd 8205 263e e1ba 2c3b 003a 20be
00000350: ac60 00be 2efc 873d 29ce 21be cbc6 82bc
00000360: 2a37 f13d a28d 0fbe a359 03bc 8f6f 313d
00000370: ea53 1c3e b69f fc3d 2d11 05be b296 b8bd
00000380: 0bc9 edbd ff2e ac3c f141 d9bc 285b a3bc
00000390: da62 10be 4f23 a03e cc1f 8fbd 2526 c93d
000003a0: b6c3 1e3e e8bd 36be ce61 ed3d 6fc5 4fbd
000003b0: d420 43be 8917 fabc 13f8 1abd edfd 11be
000003c0: e944 14be 8984 b5bd 83ca 703d abf6 83ba
000003d0: e062 28be 89ef acbd bba1 55bc 894d 28be
000003e0: 7c1b 04bd e898 35bc 89bb 28bc 2877 29be
000003f0: 10bc 08bd cb67 f9bc 6b83 6fbc ae84 ce3d

realnvp.s.2.2.bias f4 [32]
0.12765639 0.12473938 -0.03471668 0.08491606 -0.17056507 -0.011170881 -0.146292 0.061846323
-0.06063019 0.12336506 0.08493735 0.14123188 -0.14583491 0.059921946 -0.01112264 0.012320691
0.024253128 0.08309262 0.05156955 -0.11054797 0.14341448 -0.14559743 -0.00938502 0.08115456
0.13031293 0.015894275 0.021781512 -0.16318035 -0.045506984 -0.05167386 -0.08995812 -0.15065522
00000000: 5bb8 023e 5c77 ff3d 1433 0ebd 79e8 ad3d
00000010: 9ca8 2ebe 1206 37bc 92cd 15be 9252 7d3d
00000020: 5d57 78bd d2a6 fc3d a2f3 ad3d 179f 103e
00000030: bf55 15be b770 753d bc3b 36bc b9dc 493c
00000040: 7fae c63c 772c aa3d 983a 533d f966 e2bd
00000050: 3fdb 123e 7e17 15be a0c3 19bc 5d34 a63d
00000060: c170 053e b634 823c 246f b23c c018 27be
00000070: 8865 3abd f8a7 53bd f63b b8bd 5d45 1abe
