ising/2d_saved.pth (torch, 56071 bytes, 16 tensors)

nets.0.0.weight f4 [32, 1, 3]
-0.13978513 -0.6985901 -0.2817951 0.29572976 0.34221235 -0.5749548 -0.047854185 -0.49482864
-0.50211316 0.6216749 -0.119875446 -0.49961725 -0.40062657 -0.16755185 -0.4670305 -0.46595874
0.28114024 0.06210434 0.34319383 -0.27519605 0.48478046 0.20783398 0.3547457 0.3724137
0.5350755 0.51810926 -0.49197808 -0.25656056 0.22444198 -0.4931167 0.0037794334 -0.012261817
-0.5825016 -0.21503715 -0.079055905 -0.27914792 0.6301284 -0.09467125 -0.6767937 -0.030189812
0.45623305 0.738453 0.009704911 0.3418871 0.64655775 0.60707784 0.3465886 0.031876523
-0.3113654 -0.16473049 0.5735971 -0.5650037 -0.18847609 0.43909004 -0.20014504 -0.2416364
-0.4012325 0.53291786 0.4331458 0.525131 -0.5759874 0.13267703 0.35553652 0.59512424
0.08982378 0.35722005 0.73196685 0.26203248 0.5859578 -0.19232391 0.6031559 0.51655084
-0.41170007 -0.5062539 0.36488304 0.37518454 -0.6392093 -0.707954 0.27592075 0.22401436
0.27114055 0.4329801 -0.48951033 -0.68711466 -0.02393132 -0.10484177 0.05692661 0.23963606
-0.45458323 -0.5590017 0.4254989 -0.6073305 -0.33618313 0.18699266 0.15912566 0.5943798
00000000: d523 0fbe cdd6 32bf 7347 90be e469 973e
00000010: 7536 af3e 3d30 13bf c002 44bd 2e5a fdbe
00000020: 7d8a 00bf 1626 1f3f 4281 f5bd d5cd ffbe
00000030: ed1e cdbe b692 2bbe 9f1e efbe 2592 eebe
00000040: 9df1 8f3e 1f61 7e3d 1ab7 af3e 7fe6 8cbe
00000050: 2535 f83e 6ed2 543e 3aa1 b53e 02ad be3e
00000060: b5fa 083f cfa2 043f 8de4 fbbe e85b 83be
00000070: 1ed4 653e cb79 fcbe 5fb0 773b cae5 48bc
00000080: d31e 15bf b332 5cbe 10e8 a1bd 7aec 8ebe
00000090: 1850 213f 00e3 c1bd 5a42 2dbf a050 f7bc
000000a0: 6197 e93e 410b 3d3f 5901 1f3c d30b af3e
000000b0: cf84 253f 7469 1b3f 1074 b13e f590 023d
000000c0: 496b 9fbe 1caf 28be 42d7 123f 15a4 10bf
000000d0: e0ff 40be 69d0 e03e d2f2 4cbe 886f 77be
000000e0: 596e cdbe 4e6d 083f 49c5 dd3e fc6e 063f
000000f0: e973 13bf 7ddc 073e e208 b63e 105a 183f
00000100: 88f5 b73d 8ce5 b63e 2e62 3b3f 1f29 863e
00000110: 5501 163f 8ff0 44be 6d68 1a3f ad3c 043f
00000120: 5aca d2be db99 01bf f3d1 ba3e 3018 c03e
00000130: 38a3 23bf 793c 35bf 7c45 8d3e 0564 653e
00000140: efd2 8a3e 91af dd3e 19a1 fabe bfe6 2fbf
00000150: 9e0b c4bc 48b7 d6bd e12b 693d 2863 753e
00000160: 22bf e8be bc1a 0fbf feda d93e 037a 1bbf
00000170: 3220 acbe 017b 3f3e d6f1 223e 4629 183f

nets.0.0.bias f4 [32]
-0.37257564 -0.06858411 -0.19470064 -0.027534086 -0.43941027 -0.16810252 0.026435757 -0.17781438
0.04305496 0.38679588 0.36374164 -0.41749784 -0.42504334 0.29118758 0.3164212 -0.07048474
-0.43615934 -0.36518428 -0.3621741 0.1191017 -0.2649016 0.685083 0.30288973 0.52258223
-0.0645148 0.16656782 -0.44840115 0.27361184 -0.3301281 -0.119002976 -0.3751321 0.29560035
00000000: 3cc2 bebe d375 8cbd 9b5f 47be 2a8f e1bc
00000010: 62fa e0be 1123 2cbe cd8f d83c f914 36be
00000020: 665a 303d 1c0a c63e 583c ba3e 47c2 d5be
00000030: 489f d9be 8a16 953e f601 a23e 4e5a 90bd
00000040: 4750 dfbe 6ff9 babe e26e b9be 98eb f33d
00000050: 2fa1 87be 9961 2f3f 5d14 9b3e f3c7 053f
00000060: 5620 84bd c190 2a3e d694 e5be da16 8c3e
00000070: 8d06 a9be d5b7 f3bd 5111 c0be ee58 973e

nets.0.2.weight f4 [32, 32, 1]
0.21103543 -0.07814139 0.1803894 -0.007140332 0.012373018 -0.11140221 0.3253222 -0.1972061
-0.097147495 0.08325809 0.250664 0.13095179 -0.09322809 -0.07954375 -0.18729821 -0.12071997
0.0073279752 0.30302766 0.18202072 -0.3178821 0.055069868 -0.2104661 -0.18154909 -0.052900136
0.26793015 0.02372224 -0.00455832 -0.08680856 -0.17234962 0.036787722 0.09857943 -0.13164032
-0.11712218 0.2432994 -0.016806467 0.2950428 -0.2812756 -0.13573541 -0.04916647 0.16940881
0.045986507 0.25007054 0.053550202 -0.20937215 0.057279374 0.2001116 0.23505269 0.33717552
-0.13724437 -0.0025588258 -0.21097165 0.16118342 0.046042062 0.23685585 0.1872908 0.25016564
-0.21762966 0.10409242 0.006982099 0.18122941 -0.03568728 -0.21690103 0.0045668357 0.18911003
-0.06756712 0.019625127 0.12865223 0.096369654 -0.035034787 0.030909462 0.10788996 -0.15331505
-0.019232677 -0.092421435 0.16695274 0.04396038 0.1720196 -0.07549209 -0.12400443 0.19973288
0.13539532 -0.03421142 0.03711581 -0.030929413 -0.09582962 0.21611612 -0.18036905 -0.09547442
0.13423 0.07891995 -0.1765765 0.17616251 0.1541606 0.13959341 0.088500924 -0.08675666
0.19632083 -0.1658161 0.16518141 -0.021918433 -0.019449081 0.029344253 -0.33815658 -0.05344364
-0.31575844 -0.25517228 0.14956132 0.33090654 -0.18414031 -0.186954 -0.052868206 -0.11175343
0.2904033 0.23794587 0.20064645 -0.027591242 -0.11069658 -0.2983985 -0.20137511 -0.22839265
0.32010728 0.11499256 -0.041917022 -0.12394276 -0.08435776 0.08923076 -0.0236516 -0.09987732
-0.21966195 0.059928637 -0.29445478 0.022284646 -0.27707344 0.03015408 0.117806174 0.063543186
0.11294176 0.014074041 0.24038142 -0.13217539 -0.13417079 0.32287577 0.17408282 0.2617461
0.068669416 -0.1253843 -0.21373168 0.1391653 0.08587866 0.2507901 0.27859366 0.18019441
0.076593354 -0.12619288 -0.2510028 0.03573509 -0.039654598 0.00047226646 -0.22870034 0.32241267
-0.21746482 -0.13493529 -0.08330903 -0.3024786 -0.08913802 0.26439545 -0.27666318 0.25903434
0.009327019 0.30166233 0.09437458 -0.018025318 -0.3265829 0.2623298 0.0036814108 0.06433059
0.16719472 0.017865337 -0.1953828 0.24450232 0.20539287 0.13917682 0.01591898 0.17634888
0.24471954 -0.28685868 -0.15516874 -0.264206 -0.31600365 -0.23879577 -0.12690307 0.019363087
0.026958952 0.281751 -0.040932592 0.0021423036 -0.020427706 0.10193672 0.07134379 -0.039473828
0.037335373 0.24532628 0.20558521 -0.18432215 0.1678358 -0.12729655 -0.11632674 0.24345121
-0.17721292 -0.08507562 0.0515861 0.2955668 -0.13045427 -0.03695466 -0.022645997 -0.1764498
-0.09195459 0.10895392 -0.19518839 0.17772894 -0.08916036 -0.054640006 0.0719427 -0.12456505
0.2237294 0.18110596 0.32772166 0.3040122 -0.21926124 -0.3311958 0.19479738 -0.08892967
0.06173453 0.23852932 0.17750794 -0.16012008 0.18253256 -0.31199107 -0.20705335 -0.0027310606
-0.33278626 -0.31323117 0.2577733 0.14823149 -0.12164979 0.19830789 0.22598088 0.011045813
0.019444382 0.3216776 0.08272489 0.32336494 0.13530885 0.3441082 0.046623062 -0.16040966
00000000: ac19 583e 9808 a0bd 00b8 383e 72f9 e9bb
00000010: 33b8 4a3c d826 e4bd a290 a63e 65f0 49be
00000020: 44f5 c6bd 3883 aa3d 0857 803e 3a18 063e
00000030: 5eee bebd d5e7 a2bd 1acb 3fbe 083c f7bd
00000040: 831f f03b 7126 9b3e a463 3a3e 71c1 a2be
00000050: f190 613d 6d84 57be 01e8 39be d0ad 58bd
00000060: 242e 893e 2555 c23c f65d 95bb b0c8 b1bd
00000070: 6b7c 30be b9ae 163d 03e4 c93d b8cc 06be
00000080: c1dd efbd 7a23 793e b7ad 89bc da0f 973e
00000090: 5b03 90be 39fe 0abe c862 49bd 8179 2d3e
000000a0: 595c 3c3d 3f09 803e 7557 5b3d a765 56be
000000b0: c79d 6a3d 0eea 4c3e a7b1 703e 45a2 ac3e
000000c0: ca89 0cbe f9b1 27bb f408 58be 440d 253e
000000d0: 9a96 3c3d 578a 723e 29c9 3f3e b615 803e
000000e0: 4fda 5ebe 682e d53d 17ca e43b 3494 393e
000000f0: d32c 12bd 4e1b 5ebe 65a5 953b 0fa6 413e
00000100: a160 8abd e0c4 a03c 69bd 033e 745d c53d
00000110: a380 0fbd d735 fd3c 69f5 dc3d 9ffe 1cbe
00000120: d98d 9dbc 7347 bdbd a9f5 2a3e cd0f 343d
00000130: e825 303e 999b 9abd 09f6 fdbd c786 4c3e
00000140: 12a5 0a3e 4621 0cbd bf06 183d ae5f fdbc
00000150: 5242 c4bd 8b4d 5d3e aab2 38be 1888 c3bd
00000160: 9773 093e c8a0 a13d 78d0 34be f263 343e
00000170: 47dc 1d3e 93f1 0e3e f93f b53d 7aad b1bd
00000180: 5408 493e b2cb 29be 5125 293e 498e b3bc
00000190: ae53 9fbc 5c63 f03c dc22 adbe b8e7 5abd
000001a0: 17ab a1be f1a5 82be 9a26 193e 956c a93e
000001b0: 478f 3cbe df70 3fbe 558c 58bd fbde e4bd
000001c0: beaf 943e 15a8 733e 4376 4d3e 0707 e2bc
000001d0: e3b4 e2bd b0c7 98be 4735 4ebe c3df 69be
000001e0: 1ae5 a33e 3881 eb3d 2fb1 2bbd b4d5 fdbd
000001f0: c3c3 acbd 9ebe b63d 00c1 c1bc 7b8c ccbd
00000200: 10ef 60be bb77 753d c7c2 96be 4a8e b63c
00000210: 92dc 8dbe b005 f73c 5d44 f13d ee22 823d
00000220: 024e e73d ce96 663c 8c26 763e fc58 07be
00000230: 1164 09be f94f a53e c442 323e 9603 863e
00000240: 8da2 8c3d be64 00be 7adc 5abe 5981 0e3e
00000250: 27e1 af3d 8f67 803e d4a3 8e3e e284 383e
00000260: fadc 9c3d b538 01be 7083 80be f55e 123d
00000270: dc6c 22bd 889a f739 6c30 6abe 4613 a53e
00000280: 19af 5ebe 7a2c 0abe ed9d aabd 7ade 9abe
00000290: ff8d b6bd d75e 873e cca6 8dbe 26a0 843e
000002a0: 5ad0 183c 7c73 9a3e 7647 c13d d5a9 93bc
000002b0: e035 a7be 1750 863e d343 713b c2bf 833d
000002c0: 1835 2b3e 545a 923c 6e12 48be d15e 7a3e
000002d0: 8252 523e 5e84 0e3e 8568 823c cd94 343e
000002e0: c297 7a3e 24df 92be 8ee4 1ebe 0246 87be
000002f0: 3bcb a1be e186 74be e1f2 01be 569f 9e3c
00000300: 05d9 dc3c ab41 903e efa8 27bd e465 0c3b
00000310: 0158 a7bc 33c4 d03d b11c 923d 4faf 21bd
00000320: faec 183d d036 7b3e ee84 523e f2be 3cbe
00000330: 26dd 2b3e 075a 02be b73c eebd 464b 793e
00000340: 4e77 35be 203c aebd f24b 533d 8854 973e
00000350: ce95 05be c55d 17bd 1984 b9bc 42af 34be
00000360: b052 bcbd 3c23 df3d 77df 47be 93fe 353e
00000370: b599 b6bd 33ce 5fbd b256 933d f61b ffbd
00000380: 5219 653e d773 393e 22cb a73e 7da7 9b3e
00000390: 0586 60be 7f92 a9be f778 473e c220 b6bd
000003a0: 59dd 7c3d 0841 743e a4c4 353e 85f6 23be
000003b0: d1e9 3a3e 4bbd 9fbe cb05 54be 98fb 32bb
000003c0: f662 aabe d65f a0be ddfa 833e ffc9 173e
000003d0: 8623 f9bd 3911 4b3e 8867 673e 7ff9 343c
000003e0: d349 9f3c edb2 a43e ab6b a93d 1790 a53e
000003f0: 678e 0a3e f32e b03e d3f7 3e3d 6e42 24be

nets.0.2.bias f4 [32]
0.218533 0.32727963 0.17330484 -0.32306597 0.27833542 0.06772398 0.10641211 0.13073355
0.14936005 0.27287453 0.26966155 0.07582804 -0.07222651 -0.21943878 0.28019655 0.07110784
0.0014797611 0.16954087 0.10260141 0.18061678 0.07231257 -0.15402511 0.034742534 0.11264667
0.11730339 0.026673328 0.21539825 -0.0034512028 0.14347179 0.30860847 0.063850924 0.09016771
00000000: 1dc7 5f3e 3291 a73e d376 313e e768 a5be
00000010: fb81 8e3e dfb2 8a3d 98ee d93d 04df 053e
00000020: d7f1 183e 36b6 8b3e 1411 8a3e bb4b 9b3d
00000030: 7eeb 93bd 8fb4 60be ec75 8f3e fda0 913d
00000040: 8bf4 c13a 1f9c 2d3e b020 d23d 9bf3 383e
00000050: 9d18 943d c2b8 1dbe 304e 0e3d 4cb3 e63d
00000060: c23c f03d 0682 da3c 5c91 5c3e 932d 62bb
00000070: 45ea 123e ee01 9e3e 46c4 823d d9a9 b83d

nets.1.0.weight f4 [32, 32, 3]
-0.1327353 -0.038987275 0.088394575 -0.08625629 -0.0689754 -0.04997623 -0.18586183 -0.22717401
-0.12712799 -0.09348462 0.0012134615 -0.023114868 0.08160787 -0.02246446 0.015922736 0.10480567
-0.19707385 0.12287516 -0.011372574 0.012525214 -0.07922386 -0.23562118 -0.08780909 0.0112945875
0.014547061 -0.07491031 -0.12719621 0.037085805 -0.14210443 0.012963398 -0.1629686 -0.1417263
0.11876203 0.18414961 0.14449565 -0.11043474 0.24290816 0.015695563 -0.039992083 0.07266723
0.089731425 0.09134759 -0.13983299 -0.044186927 -0.06437575 -0.21837817 -0.21326078 0.17687389
0.17868201 0.043012477 -0.0036655935 -0.11432047 -0.13765147 -0.03606939 -0.026035272 -0.041675057
-0.060976606 0.044564273 -0.03595214 -0.1352755 -0.060013928 0.022258312 -0.009736609 -0.053628866
0.10678834 0.16431871 -0.023470707 -0.13486122 0.22190003 -0.006718531 -0.14859274 -0.09173021
0.17231579 0.18236928 0.07866276 0.055396214 -0.050071876 -0.044004813 0.0868393 0.14461507
-0.120640576 -0.17156559 -0.08878763 0.027291927 0.0576264 -0.07148754 0.018478338 0.13044104
-0.045747288 -0.15095893 0.09829087 -0.18297303 -0.019806808 0.0930624 0.06886303 0.11275594
0.14259112 0.1715099 -0.06428812 0.09256046 -0.050959542 0.1204598 0.15180719 -0.11760783
-0.09054464 0.11880895 0.10800741 -0.08849045 -0.07331122 0.11767818 -0.14311755 -0.26566148
0.20751439 0.121528655 0.16743118 -0.09032752 0.23425369 0.18319812 -0.24915381 0.16787224
0.22099552 -0.23711716 -0.026346428 -0.26372808 0.0015062728 -0.058753677 0.12577927 0.06806785
-0.1613299 -0.15540943 -0.060085457 0.24397217 0.18802343 -0.108541474 -0.14579785 -0.17138785
0.072080106 0.01742502 0.12526011 -0.16951346 0.11453842 0.23272868 0.044892814 -0.078505814
-0.0013871514 -0.18697082 0.05576513 0.14360854 0.22021486 0.11583839 -0.18436405 0.20336474
0.01890268 -0.17160113 -0.08943698 -0.26761714 0.09147908 -0.08826989 0.01802826 0.08033351
-0.07314211 -0.2165223 0.017835498 0.08835071 0.18164074 0.09376911 -0.21579914 0.09204928
-0.19346084 -0.19373316 0.13438134 -0.24369015 0.24229258 0.057435416 -0.25334927 -0.14800155
0.062045358 -0.04020482 0.20726444 0.09204706 -0.23757282 0.14600669 -0.025868643 -0.18521881
-0.21408096 0.1879127 0.21036375 -0.17992705 0.12524317 0.12853765 -0.13949704 -0.20786028
-0.11441951 -0.07798586 0.1580017 0.0533244 0.14710023 0.08206062 -0.18755607 0.25614333
0.10192896 -0.17650215 0.032285865 0.08644968 0.062471528 -0.12799017 0.053075004 0.13597158
-0.035915602 -0.15065292 0.03500517 0.13396227 0.098080404 -0.108321585 0.27108383 0.16930558
-0.07936452 0.07846426 0.21138366 -0.07795616 -0.022831742 -0.12373716 -0.21082343 -0.23368011
0.16515972 -0.0346221 0.09501078 -0.03600234 0.030277435 0.13155419 0.19443071 0.13509029
0.06313208 -0.007970747 -0.07908281 0.14155184 0.22031336 0.18615006 -0.13451764 0.04966267
-0.015186758 0.1357234 0.1609766 -0.047221486 0.19161958 0.15946738 -0.03455456 -0.15690607
-0.033979233 0.064400464 0.003329105 -0.077536345 -0.10027 0.18412383 0.19494776 -0.05425475
00000000: c3eb 07be 1fb1 1fbd 3708 b53d 23a7 b0bd
00000010: f942 8dbd e0b3 4cbd 9052 3ebe 4ea0 68be
00000020: d72d 02be dd74 bfbd 030d 9f3a 645b bdbc
00000030: 0722 a73d 6307 b8bc 6670 823c 5ba4 d63d
00000040: bacd 49be f9a5 fb3d 0854 3abc 8e36 4d3c
00000050: 1e40 a2bd ae46 71be 41d5 b3bd ef0c 393c
00000060: cc56 6e3c 946a 99bd b93f 02be 49e7 173d
00000070: d383 11be 6f64 543c 3ee1 26be b320 11be
00000080: 8239 f33d b791 3c3e abf6 133e 9c2b e2bd
00000090: ebbc 783e fb93 803c bdce 23bd 8fd2 943d
000000a0: 1cc5 b73d 7214 bb3d 6130 0fbe 5afd 34bd
000000b0: 6fd7 83bd 879e 5fbe 0961 5abe 6e1e 353e
000000c0: 6bf8 363e da2d 303d 743a 70bb da20 eabd
000000d0: 82f4 0cbe 7fbd 13bd ec47 d5bc 77b3 2abd
000000e0: 9bc2 79bd 0789 363d 8d42 13bd a985 0abe
000000f0: 2ad1 75bd 1057 b63c 4c86 1fbc f1a9 5bbd
00000100: d8b3 da3d 2a43 283e a445 c0bc 0f19 0abe
00000110: c339 633e 1f27 dcbb b228 18be 0cdd bbbd
00000120: 8d73 303e 03bf 3a3e f119 a13d 24e7 623d
00000130: 2b18 4dbd 643e 34bd ced8 b13d f915 143e
00000140: 6812 f7bd e4ae 2fbe 4ad6 b5bd 5293 df3c
00000150: a909 6c3d 0f68 92bd e25f 973c 5692 053e
00000160: 8261 3bbd fa94 1abe b94c c93d 485d 3bbe
00000170: e341 a2bc 8097 be3d 0f08 8d3d 96ec e63d
00000180: 6803 123e 4ba0 2f3e 7da9 83bd 5790 bd3d
00000190: f4ba 50bd a1b3 f63d 5873 1b3e 60dc f0bd
000001a0: 786f b9bd 1b52 f33d fd32 dd3d 7b3a b5bd
000001b0: 3124 96bd 4201 f13d 688d 12be c804 88be
000001c0: a77e 543e 04e4 f83d 1473 2b3e a3fd b8bd
000001d0: 33e0 6f3e 4a98 3b3e 2d22 7fbe b3e6 2b3e
000001e0: a64c 623e d7ce 72be 77d4 d7bc 5e07 87be
000001f0: 216e c53a b2a7 70bd 48cc 003e 2867 8b3d
00000200: aa33 25be a623 1fbe 2b1c 76bd d7d3 793e
00000210: 3789 403e fe4a debd 084c 15be 4c80 2fbe
00000220: bc9e 933d eabe 8e3c 3044 003e f094 2dbe
00000230: 1f93 ea3d 6d50 6e3e 87e1 373d a8c7 a0bd
00000240: 14d1 b5ba 4775 3fbe fa69 643d 1e0e 133e
00000250: 0180 613e ae3c ed3d eec9 3cbe d93e 503e
00000260: cbd9 9a3c 35b8 2fbe bc2a b7bd 1d05 89be
00000270: 6259 bb3d d8c6 b4bd 00b0 933c e585 a43d
00000280: 88cb 95bd 06b8 5dbe c01b 923c 38f1 b43d
00000290: 0800 3a3e 050a c03d 73fa 5cbe 5584 bc3d
000002a0: 991a 46be fc61 46be 439b 093e e989 79be
000002b0: 8c1b 783e 6641 6b3d ffb6 81be b88d 17be
000002c0: 4623 7e3d cfad 24bd 213d 543e 2b83 bc3d
000002d0: 4a46 73be c782 153e 7aea d3bc 00aa 3dbe
000002e0: 0a38 5bbe 306c 403e 9869 573e cc3e 38be
000002f0: bf3f 003e 609f 033e 50d8 0ebe 53d9 54be
00000300: c754 eabd 0db7 9fbd 33cb 213e b06a 5a3d
00000310: 71a1 163e 660f a83d b30e 40be 3825 833e
00000320: 21c0 d03d fbbc 34be 2f3e 043d 880c b13d
00000330: 25e2 7f3d db0f 03be 2d65 593d 223c 0b3e
00000340: 3d1c 13bd c244 1abe 9561 0f3d 682d 093e
00000350: 61de c83d b5d7 ddbd 80cb 8a3e 715e 2d3e
00000360: de89 a2bd dfb1 a03d f574 583e 7ba7 9fbd
00000370: a209 bbbc e869 fdbd 19e2 57be d749 6fbe
00000380: a11f 293e e7cf 0dbd 0395 c23d 3177 13bd
00000390: 6208 f83c 24b6 063e d818 473e 1c55 0a3e
000003a0: 644b 813d bc97 02bc 2bf6 a1bd f7f2 103e
000003b0: d399 613e 1f9e 3e3e febe 09be 156b 4b3d
000003c0: e1d1 78bc 13fb 0a3e 0dd7 243e 516b 41bd
000003d0: ec37 443e 6b4b 233e 1589 0dbd fcab 20be
000003e0: cf2d 0bbd 64e4 833d 1d2d 5a3b 60cb 9ebd
000003f0: 5c5a cdbd f58a 3c3e 63a0 473e 3b3a 5ebd

nets.1.0.bias f4 [32]
-0.24729025 0.13035697 0.024962682 0.012576196 0.30584097 0.16929439 0.09152974 -0.17286235
0.09394976 0.060362913 0.21718653 0.25592646 -0.080384694 0.25322437 0.05035519 0.18658465
0.28525686 -0.035369977 0.16735607 0.08356862 -0.053524785 0.26516548 -0.16573717 0.25235322
0.14759178 -0.0046991007 -0.13111456 0.14409855 0.09253065 -0.0743171 0.27473578 -0.032758307
00000000: a839 7dbe 4c7c 053e 8a7e cc3c 640c 4e3c
00000010: 3097 9c3e 825b 2d3e f273 bb3d d402 31be
00000020: bb68 c03d 1a3f 773d 2566 5e3e cb08 833e
00000030: bba0 a4bd a0a6 813e 3e41 4e3d 0c10 3f3e
00000040: 300d 923e 1ce0 10bd 645f 2b3e 0626 ab3d
00000050: ce3c 5bbd c5c3 873e 01b7 29be 7134 813e
00000060: 4d22 173e eafa 99bb e542 06be 928e 133e
00000070: b680 bd3d 9033 98bd 2baa 8c3e 932d 06bd

nets.1.2.weight f4 [32, 32, 1]
0.070060395 0.14390102 0.05267302 -0.054517344 -0.19305138 -0.06325611 -0.06357495 0.3183589
-0.22484504 0.1640929 -0.117331035 0.20658596 -0.31475377 -0.040899426 0.07299364 -0.0060226177
-0.3130918 -0.07587174 -0.23653126 0.17027806 -0.09686887 -0.068491586 0.17407767 -0.032532778
-0.15436867 0.20512536 0.08599423 -0.041725576 -0.12790637 0.18687078 0.07510776 -0.079543196
-0.13800777 -0.16753894 0.20607905 0.054207347 0.1614989 0.2907853 0.015385452 -0.07269318
0.03797273 -0.21370272 0.22741798 0.3210409 0.08602777 0.16336936 0.029877903 0.2963326
0.30010706 0.19224197 0.22166586 -0.16718933 0.18019855 0.21100147 -0.15784799 0.20372145
0.1939403 -0.1147542 -0.25588787 -0.025326068 0.24672389 0.24135685 0.25325415 0.15816645
-0.16061904 -0.14028084 -0.007394333 0.0642565 0.23090112 0.06373369 0.22742864 -0.09401171
-0.0341282 -0.3122407 0.17068182 -0.017630596 0.06283228 0.15530273 -0.10633892 0.0925441
0.27831995 0.18756066 0.00035022228 0.06302594 0.08101964 0.1472646 -0.055194277 0.2711008
0.16428806 0.06116561 0.074462295 0.13881835 -0.0424419 -0.15281002 0.33542067 0.14026777
0.15019107 0.19177015 -0.12746261 -0.24450259 -0.06806758 -0.05660727 -0.25036883 0.27287734
-0.08978256 0.07870807 -0.07918678 0.06396264 0.05546928 -0.33008555 0.21168467 -0.10429436
-0.05095707 0.082927205 -0.029272687 -0.08706049 -0.27859223 -0.14673324 0.0014796329 -0.163755
-0.019887576 0.24200034 0.0944024 -0.18505712 -0.14435838 -0.100582235 -0.009817298 -0.2557969
0.017402617 -0.13946706 0.12814121 0.16542411 0.23506849 0.32715535 0.25771594 -0.2194167
0.2728249 0.03117052 0.07367638 -0.034107983 0.020389123 0.16712411 -0.0458657 -0.04274279
0.13275027 -0.020484077 0.061067227 0.14513849 0.19260977 0.12031968 -0.20764585 0.13122441
0.23210749 -0.1605185 0.15103535 0.18791014 0.19900958 -0.23133975 0.010121239 -0.002983618
-0.15683258 0.2669817 -0.12308844 -0.014999406 0.2700289 0.33866194 0.16215764 -0.29997247
0.12070174 -0.17115009 0.324923 -0.22504008 -0.046282325 0.31436747 -0.014706897 -0.16391248
0.35904643 0.12945697 0.21807359 0.039433178 0.20951639 0.25347474 -0.11815501 0.08465447
0.31930715 -0.16989331 -0.19265582 0.33897156 0.031407118 -0.32852226 0.230292 0.17317434
0.082493514 0.021950727 0.20867014 0.1512563 0.15451679 -0.119534574 0.1430691 -0.09257003
-0.012915144 0.1546767 0.33053407 0.32298133 0.1274389 0.006598471 0.012060254 0.08674549
-0.030204024 0.026079472 0.27207094 0.02223049 -0.17246017 0.03146321 -0.09294232 0.33617067
-0.03536801 0.25777513 -0.104573734 0.13775896 0.35817605 0.20057803 0.046783354 -0.11265008
0.008344107 -0.3663001 0.16500102 0.16006821 -0.15203935 -0.026224531 -0.0390781 0.05856411
0.20646554 0.050197456 0.28408334 0.23531654 0.054863203 -0.11264374 0.19488533 0.20056975
-0.2544822 -0.09572898 0.32156414 -0.055004437 -0.032935005 -0.2456692 0.019392375 0.21260074
-0.003951965 -0.12652247 0.060477223 0.09153995 0.019423675 -0.014527877 -0.08264352 -0.096386425
00000000: d37b 8f3d ca5a 133e aabf 573d 944d 5fbd
00000010: 43af 45be 6b8c 81bd 9533 82bd f0ff a23e
00000020: c73d 66be f807 283e 414b f0bd 458b 533e
00000030: 6827 a1be 2886 27bd b17d 953d 6159 c5bb
00000040: 924d a0be a562 9bbd 4035 72be 5f5d 2e3e
00000050: 3063 c6bd 5145 8cbd 6b41 323e 1741 05bd
00000060: d212 1ebe 620c 523e be1d b03d 70e8 2abd
00000070: e3f9 02be 0e5b 3f3e 19d2 993d 8be7 a2bd
00000080: e951 0dbe 548f 2bbe 6306 533e 8608 5e3d
00000090: f85f 253e d0e1 943e 4313 7c3c 29e0 94bd
000000a0: 4b89 1b3d e3d4 5abe 42e0 683e 795f a43e
000000b0: 542f b03d 4c4a 273e 81c2 f43c e8b8 973e
000000c0: a2a7 993e 14db 443e 60fc 623e ae33 2bbe
000000d0: f885 383e c510 583e e7a2 21be 5b9c 503e
000000e0: 4998 463e 4004 ebbd bc03 83be 9d78 cfbc
000000f0: 30a5 7c3e 4026 773e 87aa 813e 63f6 213e
00000100: 5179 24be c8a5 0fbe 294c f2bb e998 833d
00000110: 5871 6c3e cf86 823d 0ee3 683e 3689 c0bd
00000120: 03ca 0bbd 03de 9fbe 37c7 2e3e 0a6e 90bc
00000130: 36ae 803d ae07 1f3e 38c8 d9bd c387 bd3d
00000140: f47f 8e3e e70f 403e 0a9e b739 be13 813d
00000150: a0ed a53d 88cc 163e 6513 62bd b9cd 8a3e
00000160: 213b 283e ca88 7a3d b07f 983d 6626 0e3e
00000170: 8fd7 2dbd 3b7a 1cbe 42bc ab3e 5ba2 0f3e
00000180: b0cb 193e 655f 443e 8f85 02be e35e 7abe
00000190: 0467 8bbd 06dd 67bd 5830 80be 94b6 8b3e
000001a0: ebdf b7bd b231 a13d ae2c a2bd d8fe 823d
000001b0: c133 633d f900 a9be dec3 583e 4898 d5bd
000001c0: 5cb8 50bd bdd5 a93d 46cd efbc c54c b2bd
000001d0: a4a3 8ebe 3d41 16be 3ef0 c13a 64af 27be
000001e0: 45eb a2bc f0ce 773e 0c56 c13d 9d7f 3dbe
000001f0: afd2 13be 0ffe cdbd bbd8 20bc d0f7 82be
00000200: ef8f 8e3c 74d0 0ebe 7337 033e f064 293e
00000210: cbb5 703e e880 a73e 58f3 833e c5ae 60be
00000220: b5af 8b3e 5159 ff3c a4e3 963d d0b4 0bbd
00000230: 1707 a73c 9522 2b3e acdd 3bbd 1013 2fbd
00000240: b0ef 073e 39ce a7bc a121 7a3d 2f9f 143e
00000250: 7f3b 453e 2a6a f63d 1da1 54be b15f 063e
00000260: 96ad 6d3e f65e 24be 03a9 1a3e 846b 403e
00000270: 2bc9 4b3e 54e4 6cbe 8ed3 253c ce88 43bb
00000280: b898 20be d3b1 883e cb15 fcbd 12c0 75bc
00000290: 3a41 8a3e 1965 ad3e a70c 263e fe95 99be
000002a0: 7932 f73d f841 2fbe 4f5c a63e e870 66be
000002b0: 8992 3dbd c6f4 a03e 32f5 70bc acd8 27be
000002c0: efd4 b73e 5e90 043e af4e 5f3e af84 213d
000002d0: 778b 563e 71c7 813e 41fb f1bd 535f ad3d
000002e0: 3a7c a33e 83f8 2dbe 9147 45be ae8d ad3e
000002f0: c0a4 003d 1234 a8be abd1 6b3e 9d54 313e
00000300: 5cf2 a83d 03d2 b33c a0ad 553e eee2 1a3e
00000310: a639 1e3e 8bce f4bd b580 123e 5b95 bdbd
00000320: 0a9a 53bc 9263 1e3e c33b a93e cf5d a53e
00000330: 587f 023e fd37 d83b 5f98 453c 9fa7 b13d
00000340: 6e6e f7bc 9ea4 d53c e24c 8b3e b71c b63c
00000350: 6699 30be 91df 003d 8b58 bebd 901e ac3e
00000360: 0cde 10bd 1afb 833e c12a d6bd af10 0d3e
00000370: da62 b73e 5464 4d3e e79f 3f3d 16b5 e6bd
00000380: b9b5 083c b08b bbbe 07f6 283e ece8 233e
00000390: 34b0 1bbe d4d4 d6bc 5c10 20bd ece0 6f3d
000003a0: b46b 533e d99b 4d3d 5f73 913e d2f6 703e
000003b0: 3db8 603d c3b1 e6bd 0590 473e 2862 4d3e
000003c0: 7e4b 82be 8e0d c4bd 0ea4 a43e 554c 61bd
000003d0: dbe6 06bd b590 7bbe c2dc 9e3c 02b4 593e
000003e0: 7c7f 81bb 1b8f 01be f7b6 773d 4c79 bb3d
000003f0: 661e 9f3c 5506 6ebc 0141 a9bd 3f66 c5bd

nets.1.2.bias f4 [32]
-0.013311824 0.06376468 0.2052709 -0.28294653 0.23007922 0.30836168 0.12209847 -0.07279205
-0.078180544 0.07051157 -0.034045685 -0.018925512 0.03201793 0.062145624 0.20224752 -0.027179444
0.08223715 -0.24721317 0.21139891 0.1811258 -0.24246463 -0.19054233 -0.16092284 0.21434689
0.07050185 0.11236586 0.28402874 0.18431863 0.209687 0.17517714 0.0003733341 0.15475763
00000000: d619 5abc 0e97 823d 8932 523e 5ede 90be
00000010: e399 6b3e 95e1 9d3e c30e fa3d 0014 95bd
00000020: 1f1d a0bd 5f68 903d 7d73 0bbd ad09 9bbc
00000030: 3c25 033d 698c 7e3d f919 4f3e 6da7 debc
00000040: f36b a83d 7325 7dbe f578 583e 0b79 393e
00000050: a648 78be 871d 43be f5c8 24be c07d 5b3e
00000060: 4663 903d 1220 e63d 376c 913e 06be 3c3e
00000070: 30b8 563e a361 333e 0ebc c339 c978 1e3e

nets.2.0.weight f4 [32, 32, 3]
0.24416007 0.1460754 0.09984336 0.072767735 0.14157048 0.11288215 0.14656301 0.10712017
0.16365612 -0.18970706 -0.25487322 -0.14181578 0.06641272 0.17954095 0.18609367 0.15005611
0.095413126 0.05245991 0.10210751 0.10210549 0.20519972 -0.22136028 -0.16126144 0.21658935
-0.20185922 -0.16924964 0.2559325 0.1560886 0.0858159 0.17945458 0.12866594 0.06275734
-0.033288136 -0.20423749 -0.08611867 0.0923641 -0.14866528 -0.10020731 0.12149563 0.11673141
0.114216596 0.04069835 -0.10589182 -0.06834275 0.1771163 0.15965645 0.1046226 -0.0034088024
-0.11616274 -0.15785909 0.13503914 -0.14333299 -0.18364164 0.021416381 0.1641092 0.06765211
0.04488073 0.24607287 0.09224049 0.15185511 -0.09613703 -0.10452238 -0.005401859 0.20521052
0.08127395 0.1990504 0.034797847 -0.083942875 -0.21627492 0.052115038 0.09696474 0.16400513
0.09580898 0.10931285 0.11656459 0.21072179 0.06458784 0.14986011 0.09257156 0.11688274
0.16505288 0.14749393 0.3050437 0.13294628 0.15412928 0.25501066 0.089121394 0.10032028
0.19088042 0.076762356 -0.21954592 -0.1390869 0.14473672 -0.17669731 -0.09061075 -0.10361511
0.16333337 0.20779598 -0.1407041 0.16321997 0.0020002571 0.18858156 0.1079582 -0.0042728055
0.033399113 0.11372544 -0.19631629 -0.13530986 0.22145617 0.23655179 0.18090303 0.06940193
0.2637751 0.2577447 0.1596612 -0.15231332 0.1429841 0.25468215 -0.16050799 -0.1301603
0.14272146 -0.1075746 -0.1702067 0.04037779 0.22111295 0.1638873 0.13421823 0.2780584
0.057202365 -0.0012464077 -0.1201074 0.13547347 0.22103965 -0.1466242 0.07304335 0.12653023
0.08200941 0.14555474 0.10515168 -0.054886635 -0.21843536 0.13113813 0.14431012 0.10065349
0.1665102 -0.09954102 -0.22919244 0.22063056 -0.17131053 -0.097948335 0.10445328 0.25423226
0.09912833 0.106127426 0.18605837 0.255917 0.1910318 -0.26328826 -0.23135245 0.22280607
0.09883894 0.13786846 -0.26845333 0.07252769 0.0046530506 0.12765455 -0.12510736 0.1603176
0.16148925 0.07110883 0.18615465 0.075896025 0.1367229 0.082753904 0.12621449 0.05663706
0.03196881 0.0048638266 0.04331349 0.13522898 0.115237534 0.09136609 0.10413166 0.24560724
0.032062925 0.14136794 0.18039842 -0.12068466 -0.24934736 0.05367806 -0.24152562 -0.12877862
-0.11730013 -0.0437679 0.093988664 0.01209675 0.058625925 0.030972956 -0.177797 0.08906235
0.11304377 -0.088053174 0.15288708 0.21018104 0.048761547 -0.08135435 0.039025344 0.14912626
-0.1412412 0.020109264 0.012889278 0.056684867 -0.034472696 -0.052195974 0.078199245 0.07496423
-0.17282772 0.07409383 0.09537609 0.13159855 0.023927918 -0.060454685 -0.103435084 -0.029332053
0.21036975 0.23575062 0.16224265 0.031378154 -0.06830974 0.2378211 0.12512925 0.056361444
-0.018200848 0.006524666 0.00055204105 0.1345902 0.061167177 0.045577776 0.22639337 0.007130787
-0.095944144 0.076399304 0.101544194 -0.105025604 0.10455751 0.22614093 0.22836976 -0.025575133
-0.06469008 0.030062601 -0.06443915 -0.029475015 -0.1992233 0.24197836 0.15001957 -0.069655165
00000000: 1905 7a3e ca94 153e ad7a cc3d 4007 953d
00000010: daf7 103e c22e e73d 9d14 163e d261 db3d
00000020: 7895 273e 9142 42be be7e 82be 2838 11be
00000030: 6403 883d 95d9 373e 578f 3e3e 4fa8 193e
00000040: f567 c33d 34e0 563d be1d d13d af1c d13d
00000050: e01f 523e 45ac 62be b821 25be 99c9 5d3e
00000060: 2fb4 4ebe c74f 2dbe 9609 833e b1d5 1f3e
00000070: 3fc0 af3d f1c2 373e 01c1 033e ec86 803d
00000080: 2459 08bd a223 51be fc5e b0bd 6429 bd3d
00000090: b63b 18be 7d39 cdbd b3d2 f83d e110 ef3d
000000a0: 64ea e93d 50b3 263d cfdd d8bd 49f7 8bbd
000000b0: fa5d 353e fb7c 233e 6044 d63d 3766 5fbb
000000c0: bbe6 edbd d0a5 21be b347 0a3e e2c5 12be
000000d0: 8e0c 3cbe 6871 af3c 3e0c 283e 308d 8a3d
000000e0: dbd4 373d 87fa 7b3e 95e8 bc3d e87f 1b3e
000000f0: 7ee3 c4bd d40f d6bd 1402 b1bb b522 523e
00000100: f572 a63d ded3 4b3e 3088 0e3d 3eea abbd
00000110: 2c77 5dbe 9476 553d 7395 c63d f6f0 273e
00000120: 8037 c43d 6adf df3d 6ab9 ee3d 74c7 573e
00000130: a146 843d ee74 193e 2896 bd3d 3860 ef3d
00000140: 9f03 293e a608 173e b02e 9c3e 1223 083e
00000150: 11d4 1d3e c290 823e 4785 b63d b874 cd3d
00000160: 2876 433e 9535 9d3d a5d0 60be cc6c 0ebe
00000170: dd35 143e 24f0 34be 2192 b9bd 2934 d4bd
00000180: dd40 273e 78c8 543e bc14 10be 2323 273e
00000190: bf16 033b 861b 413e 3019 dd3d e402 8cbb
000001a0: 82cd 083d e2e8 e83d 2307 49be ab8e 0abe
000001b0: 68c5 623e a23a 723e a53e 393e 9922 8e3d
000001c0: 880d 873e 1df7 833e 3a7e 233e 06f8 1bbe
000001d0: 6d6a 123e b365 823e 355c 24be be48 05be
000001e0: 9325 123e 1250 dcbd aa4a 2ebe 2e63 253d
000001f0: 6f6b 623e 13d2 273e 8170 093e ac5d 8e3e
00000200: 074d 6a3d 815e a3ba defa f5bd 8fb9 0a3e
00000210: 3858 623e a724 16be c097 953d 2491 013e
00000220: 8df4 a73d 4d0c 153e c459 d73d cfd0 60bd
00000230: 85ad 5fbe 1349 063e 08c6 133e 6b23 ce3d
00000240: a681 2a3e 2adc cbbd 6cb1 6abe faec 613e
00000250: 076c 2fbe 2399 c8bd 9aeb d53d bb2a 823e
00000260: cb03 cb3d 5659 d93d 1686 3e3e 8e07 833e
00000270: d79d 433e b8cd 86be a8e7 6cbe 4627 643e
00000280: 126c ca3d 642d 0d3e b772 89be 6689 943d
00000290: 9e78 983b e0b7 023e 251c 00be 4c2a 243e
000002a0: 705d 253e 82a1 913d 539f 3e3e 606f 9b3d
000002b0: 1701 0c3e e17a a93d 5f3e 013e 43fc 673d
000002c0: baf1 023d bc60 9f3b 7c69 313d 7779 0a3e
000002d0: a801 ec3d 251e bb3d fb42 d53d 7780 7b3e
000002e0: 6a54 033d c2c2 103e 5dba 383e 8529 f7bd
000002f0: ea54 7fbe 87dd 5b3d 7e52 77be 8bde 03be
00000300: 0d3b f0bd f845 33bd 217d c03d 7231 463c
00000310: bd21 703d ffba fd3c 6b10 36be 5266 b63d
00000320: 7e83 e73d 3955 b4bd 6e8e 1c3e b339 573e
00000330: 30ba 473d 1c9d a6bd 0ad9 1f3d 8eb4 183e
00000340: 88a1 10be 2fbc a43c 8d2d 533c 642e 683d
00000350: 3e33 0dbd 72cb 55bd ed26 a03d d986 993d
00000360: c0f9 30be 82be 973d 8a54 c33d c5c1 063e
00000370: 7b04 c43c 559f 77bd c6d5 d3bd c649 f0bc
00000380: 2b6b 573e 9c68 713e f022 263e 6186 003d
00000390: fae5 8bbd 6087 733e e221 003e 42db 663d
000003a0: f219 95bc decc d53b d9b6 103a 03d2 093e
000003b0: 6f8a 7a3d c3af 3a3d aad3 673e 60a9 e93b
000003c0: 5d7e c4bd 3d77 9c3d 67f6 cf3d aa17 d7bd
000003d0: 3f22 d63d 7d91 673e c3d9 693e f182 d1bc
000003e0: 3c7c 84bd d845 f63c acf8 83bd 9675 f1bc
000003f0: 3101 4cbe 2dc9 773e bb9e 193e 5ea7 8ebd

nets.2.0.bias f4 [32]
0.14555584 0.204736 0.057405714 -0.048945792 0.12379395 0.16386464 0.11914204 0.044986717
0.10638229 0.19026144 0.24327534 -0.083542034 0.17039767 -0.13752708 0.18256912 0.01277034
0.20128477 -0.12157416 -0.12801473 -0.17971653 -0.20062415 -0.08208667 -0.03318659 0.01938279
0.26128823 0.097917825 -0.11772447 -0.06575831 -0.16002752 0.0210459 0.26730376 -0.010116523
00000000: 970c 153e 50a6 513e 4122 6b3d 627b 48bd
00000010: af87 fd3d 22cc 273e be00 f43d fe43 383d
00000020: f5de d93d e5d3 423e 2c1d 793e 1618 abbd
00000030: ba7c 2e3e e6d3 0cbe 66f3 3a3e b03a 513c
00000040: 981d 4e3e e0fb f8bd 4b16 03be 9c07 38be
00000050: 6b70 4dbe 0e1d a8bd a9ee 07bd a8c8 9e3c
00000060: 92c7 853e 2489 c83d 8719 f1bd 4bac 86bd
00000070: 41de 23be 7468 ac3c 0adc 883e c6bf 25bc

nets.2.2.weight f4 [32, 32, 1]
-0.16576003 -0.14358509 -0.25909725 -0.053712286 0.18374746 -0.079640284 0.13270596 -0.29595727
-0.28028023 -0.0063508404 -0.2671259 -0.21225175 -0.1755412 -0.21876004 -0.23403384 -0.21859497
-0.26150802 0.08868042 -0.02451216 -0.1930465 0.19332746 -0.26147997 -0.20157824 -0.17313541
-0.15484996 -0.31574965 0.03629757 -0.06569049 0.19469579 0.28112984 -0.27229145 0.050148852
-0.009664035 -0.1664481 0.24547979 0.14827712 -0.037258115 0.2680697 -0.33377507 0.18896621
-0.06906904 -0.01452457 0.14505501 -0.17091756 0.016174309 0.007882173 0.20565903 0.16980933
0.21363126 -0.034873508 0.16366525 -0.22129722 -0.16622347 0.06099934 0.10292693 0.27868518
0.120233305 0.28047597 -0.33029574 0.21234284 -0.14192292 -0.2735932 0.11798878 0.056080967
0.00076224835 -0.10898531 -0.012918042 0.1314547 0.031745516 0.08385784 0.062251993 -0.0043144715
-0.24445961 0.1667431 -0.04027545 0.1290301 -0.12559783 0.26507112 -0.19476007 -0.05260999
0.10294303 0.034738638 0.050638784 -0.14102693 0.22563288 -0.17539567 0.078952104 0.024653161
-0.25271645 -0.25000912 0.2882265 -0.004959455 0.16100569 0.12305503 -0.07926181 0.17112193
-0.2666286 -0.20099548 -0.31117684 0.21542451 -0.10252381 -0.23814344 0.06966942 -0.3081746
-0.26735702 -0.20976138 -0.25588277 0.23978879 -0.20498568 0.044786405 -0.30034685 -0.06607197
-0.18973625 0.13450848 0.013208672 -0.1975546 -0.039918542 -0.31742525 0.04020411 -0.052582275
-0.21494944 -0.08264746 0.15632243 -0.22710185 0.16444167 0.07513744 -0.09711015 0.1397437
0.17378484 0.14248158 0.035247352 0.015982978 -0.09452591 0.2448452 -0.24429384 0.08671871
-0.054710433 -0.023749385 0.0918971 0.0018913657 0.14643961 0.24116239 0.044082664 0.23070684
0.14990179 -0.35227832 0.26941815 -0.29707712 -0.031100173 0.18109997 0.10113364 0.099638395
0.13154571 0.024817426 -0.21216448 0.11054887 0.0016987324 -0.11762288 0.19700374 -0.1213819
0.22590627 0.30138916 -0.05003709 0.02176798 -0.20752797 0.12483451 -0.27538267 0.2988076
-0.009214726 0.06346374 0.32933956 0.16718368 0.16420065 -0.002297294 0.20760798 0.09930796
0.35760394 -0.34928817 0.1885312 -0.09378764 -0.27024534 0.1880085 0.03751795 0.18137653
0.30555326 0.15485585 -0.046825387 -0.07963552 -0.18314482 -0.3299037 0.14644034 0.008589986
0.032502193 0.21271186 0.06690261 0.19042067 0.14444564 0.12532371 0.19802196 0.012305812
0.14570974 0.22054246 0.15622775 -0.029436268 0.24364756 0.2446256 0.26236138 0.22209136
0.24890816 -0.2587766 0.114074536 -0.20779033 -0.08462106 -0.051455926 -0.28126428 -0.081493564
0.1593621 0.06578786 -0.22918026 -0.18091463 0.03309216 -0.16309384 0.084370345 -0.3377756
0.32622233 -0.05124093 0.25919574 -0.29495022 0.05881465 0.19319224 0.21853949 -0.29143175
0.15179564 0.1695131 0.33377734 -0.05462105 0.15929227 -0.08360006 0.2826077 -0.18346317
0.12798414 0.108825095 -0.08578491 -0.3366152 -0.019738514 0.1277227 -0.029486602 -0.14456217
0.2677829 0.09276559 -0.11534538 -0.07843951 -0.028721077 0.23672971 0.27479696 0.03487965
00000000: ffbc 29be f807 13be 65a8 84be 6a01 5cbd
00000010: 4b28 3c3e 721a a3bd 12e4 073e b687 97be
00000020: e480 8fbe b61a d0bb bac4 88be 8658 59be
00000030: 13c1 33be a202 60be 91a6 6fbe 5cd7 5fbe
00000040: 61e4 85be 149e b53d bacd c8bc fbad 45be
00000050: a2f7 453e b4e0 85be 876a 4ebe 694a 31be
00000060: fd90 1ebe f0a9 a1be c3ac 143d bc88 86bd
00000070: 555e 473e 40f0 8f3e c969 8bbe e268 4d3d
00000080: e755 1ebc 5f71 2abe 0e5f 7b3e f5d5 173e
00000090: f79b 18bd 6f40 893e 91e4 aabe 5c80 413e
000000a0: 1274 8dbd 76f8 6dbc 4d89 143e 0305 2fbe
000000b0: fc7f 843c 3b24 013c 4898 523e 7fe2 2d3e
000000c0: 27c2 5a3e 86d7 0ebd dd97 273e bd9b 62be
000000d0: 7c36 2abe 72da 793d 5bcb d23d d3af 8e3e
000000e0: e13c f63d 8c9a 8f3e 861c a9be 6770 593e
000000f0: 3e54 11be 6814 8cbe 1aa4 f13d 28b5 653d
00000100: 9fd1 473a b133 dfbd 32a6 53bc 109c 063e
00000110: 9607 023d a9bd ab3d f2fb 7e3d 6960 8dbb
00000120: 9f53 7abe b4be 2a3e dff7 24bd 7720 043e
00000130: b89c 00be 67b7 873e 2f6f 47be 937d 57bd
00000140: ccd3 d23d 1a4a 0e3d 9d6a 4f3d 5d69 10be
00000150: 4e0c 673e ec9a 33be a4b1 a13d 6df5 c93c
00000160: 0d64 81be 3201 80be 6c92 933e ed82 a2bb
00000170: adde 243e 4704 fc3d 0454 a2bd 963a 2f3e
00000180: 8b83 88be c2d1 4dbe 9252 9fbe 3e98 5c3e
00000190: 01f8 d1bd e0db 73be d7ae 8e3d 10c9 9dbe
000001a0: 05e3 88be b0cb 56be 1103 83be 318b 753e
000001b0: c4e7 51be f371 373d 10c7 99be be50 87bd
000001c0: 384a 42be 97bc 093e 3069 583c c14b 4abe
000001d0: a081 23bd 9085 a2be 11ad 243d 8360 57bd
000001e0: b51b 5cbe 1243 a9bd fd12 203e 638d 68be
000001f0: 6663 283e a8e1 993d b0e1 c6bd f918 0f3e
00000200: a7f4 313e b1e6 113e 875f 103d bcee 823c
00000210: cd96 c1bd b3b8 7a3e 2a28 7abe 9499 b13d
00000220: 0c18 60bd 128e c2bc 8c34 bc3d b4e7 f73a
00000230: 44f4 153e 46f3 763e 0690 343d 6a3e 6c3e
00000240: db7f 193e d35d b4be 2df1 893e 7e1a 98be
00000250: cac5 febc 4572 393e 271f cf3d 370f cc3d
00000260: ebb3 063e ea4d cb3c a541 59be 7267 e23d
00000270: 00a8 de3a 44e4 f0bd 59bb 493e 1397 f8bd
00000280: f953 673e ae4f 9a3e b1f3 4cbd c352 b23c
00000290: 3682 54be 3ca9 ff3d f5fe 8cbe 4ffd 983e
000002a0: 5df9 16bc 47f9 813d 329f a83e 3332 2b3e
000002b0: 3724 283e 338e 16bb 3097 543e f961 cb3d
000002c0: dd17 b73e e6d5 b2be 530e 413e bc13 c0bd
000002d0: 995d 8abe 4d85 403e 6cac 193d c5ba 393e
000002e0: 7a71 9c3e 8892 1e3e facb 3fbd f317 a3bd
000002f0: 518a 3bbe 23e9 a8be 75f4 153e 03bd 0c3c
00000300: 0521 053d 23d1 593e 3c04 893d a3fd 423e
00000310: 8fe9 133e dc54 003e 45c6 4a3e 519e 493c
00000320: ef34 153e e2d5 613e 2bfa 1f3e 5424 f1bc
00000330: bf7e 793e 227f 7a3e 3b54 863e eb6b 633e
00000340: c8e1 7e3e 5e7e 84be e99f e93d fdc6 54be
00000350: ce4d adbd 73c3 52bd df01 90be 19e6 a6bd
00000360: d12f 233e c9bb 863d 3bae 6abe af41 39be
00000370: a58b 073d 1202 27be 5cca ac3d ecf0 acbe
00000380: 9d06 a73e 02e2 51bd 4eb5 843e b703 97be
00000390: a1e7 703d 30d4 453e d1c8 5f3e 8b36 95be
000003a0: 5170 1b3e d894 2d3e dde4 aa3e 52ba 5fbd
000003b0: 831d 233e 8236 abbd f5b1 903e c5dd 3bbe
000003c0: 460e 033e b1df de3d 00b0 afbd d458 acbe
000003d0: aab2 a1bc bdc9 023e e38d f1bc 1b08 14be
000003e0: d71a 893e e3fb bd3d 333a ecbd e5a4 a0bd
000003f0: 7748 ebbc 4669 723e 30b2 8c3e f7dd 0e3d

nets.2.2.bias f4 [32]
-0.017397908 0.18728746 -0.07425965 -0.17196463 -0.061919954 0.3251326 0.018623386 0.08689306
-0.27108735 0.07962303 -0.30102676 0.21409014 0.24700361 -0.082781546 0.11049753 0.06884702
0.30688387 -0.32120797 0.29979432 0.008549995 -0.22844173 -0.048696022 -0.20195107 -0.10804417
0.06152609 0.056577 0.16243441 0.17852667 0.18683986 0.171725 0.29280758 0.17564936
00000000: 0f86 8ebc 49c8 3f3e 7215 98bd 7f17 30be
00000010: c79f 7dbd c877 a63e 1290 983c fdf4 b13d
00000020: f6cb 8abe 6611 a33d 2e20 9abe 723a 5b3e
00000030: 84ee 7c3e 5f89 a9bd 874c e23d abff 8c3d
00000040: e21f 9d3e 5f75 a4be a47e 993e 4715 0c3c
00000050: a1ec 69be 7b75 47bd 43cc 4ebe 4346 ddbd
00000060: c802 7c3d 49bd 673d 3555 263e b2cf 363e
00000070: f352 3f3e aed8 2f3e e0ea 953e 6ddd 333e

nets.3.0.weight f4 [32, 32, 3]
0.1289702 -0.018249162 -0.000490316 0.015125658 0.07942097 0.058225762 0.063129954 0.047659997
0.15745269 -0.18360887 -0.1429425 -0.111497335 0.068778366 0.14829515 0.10784706 0.2234012
0.19869551 0.1061633 0.010290742 0.12179259 0.21614245 0.1735074 0.22739306 0.09560786
-0.12769207 0.011534454 -0.013503842 0.16077821 0.099596314 0.056029253 0.10606887 0.15927918
0.15951633 -0.06456624 0.07685684 0.10508231 0.21838063 0.24517946 0.14186421 0.15491624
0.16562398 0.079149835 0.03351697 0.16945936 0.2253148 0.08583837 0.050334055 0.12497635
0.060702894 0.23776186 0.23205227 -0.1830691 -0.22423616 -0.17804535 0.06625593 0.15268528
0.21793512 0.19587328 0.13655084 0.09604993 -0.2699989 -0.21819174 -0.022238987 0.12310656
0.09445563 0.09488216 0.03257074 -0.16469468 -0.24317425 0.10927674 0.24391012 0.2025422
0.04804408 0.17617819 0.06878111 0.102952346 0.14698231 0.07368185 0.09473024 0.15367076
0.19183971 0.20126395 0.17367741 0.0658075 0.13979724 0.17434005 0.1070665 0.16545257
0.22405091 0.120952845 -0.12166076 0.23805872 0.116949834 0.037283625 0.14071634 0.1349125
0.07466546 -0.16964507 0.13027467 0.18241125 0.2394486 0.18533732 0.024623318 0.23729126
0.18935461 -0.20984593 -0.106729195 -0.2509801 0.22250046 0.07826538 0.08772574 0.2293123
0.1605458 0.0892685 -0.068794504 0.26804164 0.19147241 -0.051963456 0.08229891 0.094080575
-0.1123617 0.018550325 0.034855366 0.19123259 0.14222594 0.062354136 0.09292137 -0.015195868
0.22450705 -0.2388185 0.10610783 0.1828331 0.17182954 0.24242686 0.1770015 0.22508827
0.12406207 0.11576419 0.29225323 0.21370114 0.18439057 0.12637965 0.06256381 0.074764095
0.0027286035 0.15722254 0.12407795 -0.2364219 -0.074555136 -0.12534139 0.24724846 0.18625364
0.24727452 0.11502158 0.10420876 0.24439009 -0.15080993 -0.24258003 0.018174322 0.037076022
0.0987996 0.13840166 0.1693319 -0.21199852 -0.2547488 -0.005875672 0.13655417 0.266481
0.1478451 0.14390464 0.1712804 0.07077239 0.23568395 0.039747592 0.162869 0.14171739
0.15183863 0.19683917 0.13250542 0.11565459 0.22958434 0.12196232 0.14376037 0.16467173
0.2219472 0.09937099 -0.22902915 0.075514734 0.12500018 0.12508777 0.14345688 0.17606355
-0.19459076 -0.054966867 -0.045400348 -0.14883356 -0.124775894 -0.19300212 -0.071365885 -0.17673428
-0.08665559 0.22327785 0.08120096 0.22978877 -0.114892185 -0.23965126 -0.0987901 -0.2655074
-0.14283654 -0.13991569 0.061366055 -0.20246732 -0.12456372 0.0923035 -0.27719846 -0.24771138
0.07781577 -0.11087508 -0.02968963 -0.12076513 -0.08973977 -0.1660431 -0.05065287 -0.08388412
-0.18663 0.07147738 -0.068593286 -0.07519045 -0.25918704 -0.27799445 -0.2035779 -0.094948046
-0.16674015 -0.14472952 -0.21091804 -0.25061005 -0.05303368 -0.13211592 -0.24857673 -0.2373484
0.21730499 -0.1925079 -0.2245029 0.19545022 0.22772793 -0.06231064 -0.14228736 -0.14262182
-0.2553878 -0.12948236 -0.19716367 -0.14246245 0.13549656 0.2343646 -0.011404258 -0.15850838
00000000: c410 043e 447f 95bc 8d88 00ba 9cd1 773c
00000010: 76a7 a23d 237e 6e3d 474a 813d 2137 433d
00000020: 473b 213e f703 3cbe 855f 12be b758 e4bd
00000030: acdb 8c3d afda 173e ebde dc3d 49c3 643e
00000040: d676 4b3e 256c d93d 809a 283c 656e f93d
00000050: 7254 5d3e edab 313e bad9 683e 0ece c33d
00000060: b6c1 02be 02fb 3c3c 383f 5dbc 0ba3 243e
00000070: 27f9 cb3d ee7e 653d a33a d93d 151a 233e
00000080: 4058 233e 4e3b 84bd 1e67 9d3d 6535 d73d
00000090: 2c9f 5f3e 5310 7b3e da44 113e 5da2 1e3e
000000a0: 5599 293e 4f19 a23d 1749 093d c186 2d3e
000000b0: ecb8 663e 07cc af3d 152b 4e3d 9af3 ff3d
000000c0: 99a3 783d d877 733e 1c9f 6d3e 7776 3bbe
000000d0: 2a9e 65be 8551 36be 30b1 873d 8859 1c3e
000000e0: 622a 5f3e 0193 483e fcd3 0b3e d3b5 c43d
000000f0: 4c3d 8abe a86d 5fbe 892e b6bc 4b1f fc3d
00000100: f471 c13d 9451 c23d e568 053d b9a5 28be
00000110: ac02 79be 7ccc df3d 93c3 793e 3967 4f3e
00000120: dfc9 443d 0e68 343e 1cdd 8c3d aed8 d23d
00000130: 8882 163e 83e6 963d ee01 c23d de5b 1d3e
00000140: a171 443e 2318 4e3e 7ed8 313e 15c6 863d
00000150: 0227 0f3e 3386 323e ae45 db3d 666c 293e
00000160: 9a6d 653e 20b6 f73d 4729 f9bd aac5 733e
00000170: 6583 ef3d b7b6 183d f217 103e 8126 0a3e
00000180: 34ea 983d 70b7 2dbe b966 053e 04ca 3a3e
00000190: 0432 753e 11c9 3d3e d7b6 c93c 7bfc 723e
000001a0: 2de6 413e dae1 56be d694 dabd 7780 80be
000001b0: 29d7 633e 9949 a03d 8ea9 b33d d8d0 6a3e
000001c0: 1e66 243e 67d2 b63d 22e4 8cbd c13c 893e
000001d0: 5811 443e a2d7 54bd 558c a83d 51ad c03d
000001e0: e41d e6bd daf6 973c 80c4 0e3d 7ad2 433e
000001f0: ada3 113e 0d67 7f3d 8f4d be3d 17f8 78bc
00000200: 2de5 653e d68c 74be 104f d93d 9a38 3b3e
00000210: 15f4 2f3e bf3e 783e e23f 353e 8a7d 663e
00000220: 4114 fe3d c715 ed3d 37a2 953e 79d4 5a3e
00000230: e2d0 3c3e ab69 013e 7421 803d eb1d 993d
00000240: 5fd2 323b f2fe 203e 951c fe3d 9518 72be
00000250: 5db0 98bd 7e59 00be b32e 7d3e 46b9 3e3e
00000260: 8835 7d3e 6f90 eb3d 676b d53d 6541 7a3e
00000270: eb6d 1abe e666 78be 51e2 943c 07dd 173d
00000280: 7257 ca3d 2ab9 0d3e 5765 2d3e 2416 59be
00000290: 6f6e 82be b688 c0bb dbd4 0b3e 3370 883e
000002a0: b564 173e bd5b 133e 2164 2f3e 1df1 903d
000002b0: 2257 713e 5fce 223d 22c7 263e 5d1e 113e
000002c0: 967b 1b3e 3590 493e 80af 073e 50dc ec3d
000002d0: 2818 6b3e 61c7 f93d eb35 133e b59f 283e
000002e0: 2046 633e 0583 cb3d 9e86 6abe 78a7 9a3d
000002f0: 0c00 003e 0217 003e 5ce6 123e 014a 343e
00000300: cd42 47be f024 61bd b7f5 39bd d367 18be
00000310: 818a ffbd 59a2 45be 4728 92bd d5f9 34be
00000320: 7c78 b1bd f3a2 643e b04c a63d bf4d 6b3e
00000330: 984c ebbd 2467 75be 7752 cabd 96f0 87be
00000340: be43 12be 0f46 0fbe f95a 7b3d 9853 4fbe
00000350: 431b ffbd 9e09 bd3d f5ec 8dbe 0da8 7dbe
00000360: e05d 9f3d 7912 e3bd ab37 f3bc b553 f7bd
00000370: 7cc9 b7bd 3407 2abe 6279 4fbd 70cb abbd
00000380: ef1b 3fbe bc62 923d a37a 8cbd 73fd 99bd
00000390: 2ab4 84be 4a55 8ebe ba76 50be 1f74 c2bd
000003a0: eebd 2abe fa33 14be e6fa 57be f64f 80be
000003b0: d839 59bd 6549 07be e68a 7ebe 750b 73be
000003c0: 3385 5e3e ca20 45be 17e4 65be 1a24 483e
000003d0: 8331 693e 7139 7fbd c7b3 11be 740b 12be
000003e0: 31c2 82be 0697 04be 46e5 49be ade1 11be
000003f0: 9cbf 0a3e 46fd 6f3e edd8 3abc 0550 22be

nets.3.0.bias f4 [32]
0.08144043 0.23292369 -0.120913975 0.12773737 0.07526437 -0.109711036 -0.1290235 -0.1973455
0.13493295 -0.053276084 -0.21923286 0.15701845 -0.1269329 -0.0021706983 -0.030121624 -0.23721798
-0.0057752966 0.015195602 0.15566137 -0.031095304 0.19553982 -0.20968442 -0.17942752 0.17154634
0.23003587 -0.1280708 -0.061652347 0.20015754 -0.13165286 0.14541413 0.12626512 0.0379123
00000000: 3dca a63d 8c83 6e3e bfa1 f7bd 96cd 023e
00000010: 3524 9a3d 2eb0 e0bd bd1e 04be f014 4abe
00000020: dd2b 0a3e 0638 5abd 947e 60be 72c9 203e
00000030: b3fa 01be 4642 0ebb a0c1 f6bc 45e9 72be
00000040: b33e bdbb f9f6 783c b265 1f3e 94bb febc
00000050: 973b 483e 83b7 56be d9bb 37be d8a9 2f3e
00000060: 868e 6b3e fe24 03be 2c87 7cbd 19f6 4c3e
00000070: 02d0 06be 71e7 143e a54b 013e ee49 1b3d

nets.3.2.weight f4 [2, 32, 1]
-0.21368706 -0.28166455 0.15398915 -0.25792372 -0.10674283 0.27021548 0.08292145 0.15732801
-0.32972172 0.024258945 0.02574776 -0.3098241 0.18542454 -0.087314464 0.19663066 0.17508452
-0.034785546 0.2415563 -0.18178527 0.245554 -0.25335392 0.08964168 -0.0062824055 -0.119517766
0.28357595 0.019131172 -0.11323963 0.2564817 -0.14788933 -0.25275096 -0.28811526 -0.06352029
0.13182345 0.14818935 -0.17509738 0.24912299 0.32675368 -0.25527224 -0.10678437 -0.17052364
0.28839895 -0.05560434 -0.032846868 0.25236166 -0.11182906 0.16951302 -0.039292052 -0.22756304
-0.09125785 -0.20567267 0.11902768 -0.05060081 0.14201319 -0.24611156 -0.019929623 0.2380917
-0.12784134 0.0026743961 -0.050290033 -0.020152679 -0.14674653 0.11730076 0.08495563 -0.24422579
00000000: c8d0 5abe 5636 90be 55af 1d3e 940e 84be
00000010: fc9b dabd af59 8a3e b9d2 a93d 981a 213e
00000020: 49d1 a8be b2ba c63c f7ec d23c 44a1 9ebe
00000030: eedf 3d3e edd1 b2bd 8c59 493e 5b49 333e
00000040: 4a7b 0ebd 895a 773e eb25 3abe 8272 7b3e
00000050: 9bb7 81be 0f96 b73d a3dc cdbb bbc5 f4bd
00000060: de30 913e fab8 9c3c 2eea e7bd 9251 833e
00000070: 4d70 17be 9368 81be d883 93be ed16 82bd
00000080: bafc 063e f3be 173e ba4c 33be 191a 7f3e
00000090: 424c a73e 0bb3 82be c4b1 dabd c09d 2ebe
000000a0: 07a9 933e 60c1 63bd 708a 06bd 8c35 813e
000000b0: a206 e5bd d294 2d3e b4f0 20bd 4906 69be
000000c0: 65e5 babd db9b 52be c9c4 f33d cc42 4fbd
000000d0: e86b 113e ab04 7cbe 7343 a3bc 50ce 733e
000000e0: d7e8 02be ec44 2f3b ecfc 4dbd 3b17 a5bc
000000f0: b944 16be 613b f03d 38fd ad3d 5316 7abe

nets.3.2.bias f4 [2]
-0.10985041 0.07887786
00000000: 40f9 e0bd b78a a13d
