ising/weights_0.45.pth (torch, 105295 bytes, 16 tensors)

nets.0.0.weight f4 [32, 1, 3]
0.06858171 0.47590494 0.44152156 -0.2651626 0.2568733 0.40216297 -0.0036965767 0.20492566
-0.24332088 0.5403553 -0.31860742 0.277453 -0.08229608 -0.11878717 -0.06471028 0.37048835
0.1197587 0.28194845 0.3824349 0.22104436 -0.25723782 -0.17673048 0.09456752 -0.28386936
-0.026831485 -0.3222453 0.46657073 0.42082617 -0.39239442 -0.25947034 -0.16233993 0.28554243
-0.3897576 -0.112576686 -0.5357251 0.07938657 0.46385098 -0.32649064 0.00894295 0.37441373
0.10065705 0.017927442 -0.2723825 0.1595328 -0.5085343 -0.5936983 -0.3504836 -0.46436262
0.056777403 0.020303948 0.03932847 0.4823937 -0.44750205 -0.27858737 -0.04991662 0.10660918
0.3845174 0.07576302 -0.123640426 0.455944 -0.19917774 -0.1832649 -0.46848074 -0.56316406
0.43594664 0.007862276 0.20284277 0.42915383 0.18222708 0.24466343 -0.29470298 -0.21641235
0.12896389 0.04401197 0.058235247 -0.4419295 -0.37232 -0.373831 0.25339386 -0.5765669
-0.50657195 -0.13336226 -0.02989421 0.13518748 0.03565119 0.03918091 -0.10768846 0.37307522
0.30702817 0.2785075 -0.29890254 0.10699407 0.02144728 0.026664507 -0.28124017 -0.5052239
00000000: 9174 8c3d d0a9 f33e 1d0f e23e 64c3 87be
00000010: e684 833e 4ee8 cd3e 4442 72bb 08d8 513e
00000020: 1c29 79be ba54 0a3f 8320 a3be 520e 8e3e
00000030: d98a a8bd b046 f3bd d386 84bd a6b0 bd3e
00000040: 0d44 f53d 8c5b 903e 82ce c33e 7459 623e
00000050: adb4 83be d6f8 34be 9eac c13d 5357 91be
00000060: b4cd dbbc 56fd a4be 5ce2 ee3e 8776 d73e
00000070: ece7 c8be 4cd9 84be 703c 26be 9e32 923e
00000080: 4f8e c7be 9b8e e6bd 4825 09bf 6d95 a23d
00000090: e07d ed3e c829 a7be 7385 123c 28b3 bf3e
000000a0: 4925 ce3d 92dc 923c b875 8bbe 915c 233e
000000b0: 4e2f 02bf 9dfc 17bf 9672 b3be f0c0 edbe
000000c0: 6c8f 683d 7754 a63c e416 213d 4ffc f63e
000000d0: fd1e e5be 01a3 8ebe 5f75 4cbd ea55 da3d
000000e0: 77df c43e a429 9b3d 3137 fdbd 7e71 e93e
000000f0: 40f5 4bbe cba9 3bbe b5dc efbe 852b 10bf
00000100: 6634 df3e c7d0 003c 04b6 4f3e 0dba db3e
00000110: bc99 3a3e 0d89 7a3e 4fe3 96be 339b 5dbe
00000120: 1c0f 043e e545 343d 1588 6e3d 9544 e2be
00000130: baa0 bebe c766 bfbe d7bc 813e e399 13bf
00000140: b3ae 01bf 1e90 08be b4e4 f4bc 966e 0a3e
00000150: fb06 123d 297c 203d c48b dcbd b703 bf3e
00000160: cc32 9d3e 8998 8e3e c109 99be b51f db3d
00000170: 35b2 af3c 866f da3c b6fe 8fbe 5a56 01bf

nets.0.0.bias f4 [32]
-0.42554766 -0.46491623 0.10841085 0.26660478 -0.103593834 0.25191784 0.35089037 -0.082114205
-0.20970924 -0.35677248 0.49378672 0.24664287 0.36557332 -0.70279115 0.24376068 -0.34491095
-0.18913682 -0.1274842 0.17861593 -0.0707122 -0.6711573 -0.5132803 -0.18993956 -0.180198
-0.077950835 -0.03347842 0.20858651 0.00999876 -0.0765308 0.24327779 -0.29191902 0.4203025
00000000: 62e1 d9be 8009 eebe 8206 de3d 6c80 883e
00000010: 0129 d4bd 60fb 803e e7a7 b33e 7e2b a8bd
00000020: 05be 56be e2aa b6be 9dd1 fc3e f38f 7c3e
00000030: 6d2c bb3e 1fea 33bf 669c 793e 2b98 b0be
00000040: 15ad 41be 388b 02be 18e7 363e 8fd1 90bd
00000050: f7d0 2bbf 5666 03bf 847f 42be d385 38be
00000060: b0a4 9fbd ab20 09bd b497 553e d7d1 233c
00000070: 2ebc 9cbd d01d 793e 6976 95be e431 d73e

nets.0.2.weight f4 [32, 32, 1]
0.13019551 0.2838573 0.02686371 0.07952539 -0.28481755 0.079422474 0.18567649 -0.00073300797
-0.36811408 -0.39441597 0.065370835 -0.3020926 -0.0673925 -0.094177574 0.14507666 -0.12245531
-0.100866936 -0.442347 0.2529448 0.13984215 0.01807045 0.26294592 0.020662362 -0.09552237
-0.054899696 -0.07145466 -0.46350574 0.004057908 0.0062406138 0.17694221 0.108072035 -0.37133998
0.24708743 0.082720846 -0.040045954 0.037839193 0.01928704 -0.1393105 -0.07860976 0.03226823
-0.166486 -0.30984232 -0.118048355 0.0019576864 -0.12035963 0.024887705 0.06605394 -0.0107896235
0.25703388 -0.23460278 -0.19684193 -0.08819915 -0.07577022 0.19303231 -0.010585087 -0.02988516
0.10743303 -0.049966786 -0.31031543 -0.058323756 -0.005883148 -0.21923913 -0.120428845 0.050931383
0.060937338 0.07273077 -0.1322485 -0.17849568 -0.23848794 -0.17589696 -0.10961249 0.0037736804
-0.08707091 -0.26694182 0.07850809 -0.2206103 0.17392774 0.054039344 -0.24800088 -0.12319782
0.04735704 -0.15652794 0.0939953 0.03886822 0.02481774 -0.09172825 -0.13334545 -0.05625238
0.054378144 0.019458832 0.02583357 0.039896477 0.15193021 -0.001518931 -0.26185074 0.019595517
0.41953084 0.20609245 -0.027880143 -0.15193635 -0.31257874 -0.1233286 -0.14521036 0.06323816
-0.1108289 -0.43609232 0.0056815953 -0.33410177 -0.26989684 -0.04344765 -0.05477526 0.013102503
-0.020107325 -0.31860775 -0.08602589 -0.02718453 -0.10062712 -0.105615065 0.19738561 -0.24367803
0.2564608 0.043491684 -0.17133284 -0.00022744459 -0.11097673 -0.06408974 -0.33951774 -0.24040432
-0.03317133 -0.24092111 -0.017278688 -0.042503692 -0.052203413 -0.27684605 0.016226644 0.067316145
0.09352508 0.09757778 -0.19525035 -0.045277506 -0.28497297 0.011359276 -0.041811146 0.11515996
0.22415039 0.081891716 -0.18977544 -0.26615897 -0.047175523 0.1683055 -0.17601657 0.113161854
0.019799968 0.04757633 0.025156802 -0.082252204 -0.095703624 0.041112512 -0.24832699 -0.10104673
0.039278507 0.0122158835 -0.09682947 0.13696167 -0.12080998 0.079528764 -0.19959007 -0.4009043
0.09686176 0.10473784 -0.014776075 0.055706024 0.054925345 -0.41217107 -0.0048909644 -0.13413337
0.23020972 0.15755868 -0.015546585 0.22473276 -0.01410298 0.18600926 0.03566341 0.16819659
0.22557303 0.09525428 0.018053407 -0.06956794 0.16501303 -0.1500961 -0.06589785 -0.13529533
0.07354815 -0.015004004 -0.09240857 -0.26127508 0.025826113 0.0677429 -0.21058065 0.19060183
-0.079030246 0.11803748 -0.23920853 -0.029318327 -0.023078145 -0.19875456 0.053751808 0.04127361
0.035815503 0.03597211 0.011040239 -0.18502478 0.20036581 0.06640984 -0.01263685 -0.047886025
-0.0042887786 -0.0377494 -0.065809324 -0.016314687 -0.028144874 0.049509916 -0.17762567 0.1436886
-0.1509602 -0.14288528 -0.05987738 -0.111540616 0.16556072 -0.20770165 -0.1673739 0.04991255
0.029087566 0.1487431 -0.07878102 -0.06420976 -0.0055493335 0.11693707 -0.020449895 0.21592633
0.16037266 -0.018952148 0.13075884 0.041550077 0.09899453 -0.17051494 -0.12845032 0.21919972
-0.20322962 0.07928185 0.068773866 -0.24330862 -0.17748843 0.03035059 -0.23171598 -0.018291986
00000000: f951 053e be55 913e 4811 dc3c 35de a23d
00000010: 9bd3 91be 40a8 a23d fa21 3e3e 5527 40ba
00000020: 7379 bcbe e4f0 c9be 25e1 853d e2ab 9abe
00000030: 1405 8abd 2ce0 c0bd fa8e 143e d9c9 fabd
00000040: 5393 cebd 4e7b e2be fb81 813e c832 0f3e
00000050: 7b08 943c d9a0 863e 1d44 a93c 3ba1 c3bd
00000060: 81de 60bd d256 92bd a050 edbe 33f8 843b
00000070: 107e cc3b 5730 353e df54 dd3d 4620 bebe
00000080: 7d04 7d3e 8c69 a93d 3a07 24bd 45fd 1a3d
00000090: dbff 9d3c 69a7 0ebe 27fe a0bd b12b 043d
000000a0: 4e7b 2abe a7a3 9ebe 56c3 f1bd 874c 003b
000000b0: 1c7f f6bd 4de1 cb3c 4a47 873d f6c6 30bc
000000c0: f299 833e b63b 70be ee90 49be c2a1 b4bd
000000d0: 6b2d 9bbd 43aa 453e 136d 2dbc b9d1 f4bc
000000e0: d905 dc3d f9a9 4cbd aae1 9ebe e4e4 6ebd
000000f0: 6cc7 c0bb 3980 60be 66a3 f6bd 6d9d 503d
00000100: 6e99 793d dff3 943d 276c 07be 92c7 36be
00000110: 2f36 74be 551e 34be 837c e0bd da4f 773b
00000120: 3c52 b2bd 99ac 88be d9c8 a03d abe7 61be
00000130: 1d1a 323e 5c58 5d3d f1f3 7dbe 234f fcbd
00000140: 75f9 413d dc48 20be 9c80 c03d 4834 1f3d
00000150: 934e cb3c 05dc bbbd b68b 08be e568 66bd
00000160: 9ebb 5e3d 2168 9f3c eca0 d33c 7d6a 233d
00000170: 9893 1b3e de16 c7ba 4d11 86be c786 a03c
00000180: bfcc d63e e609 533e e664 e4bc 3495 1bbe
00000190: 520a a0be b493 fcbd 06b2 14be 0283 813d
000001a0: 43fa e2bd 7e47 dfbe ad2c ba3b 630f abbe
000001b0: eb2f 8abe 2af6 31bd 065c 60bd e1ab 563c
000001c0: 1eb8 a4bc 8e20 a3be 582e b0bd 17b2 debc
000001d0: 9715 cebd b64c d8bd 741f 4a3e bc86 79be
000001e0: d44e 833e 5624 323d e071 2fbe 317e 6eb9
000001f0: c547 e3bd 7b41 83bd 45d5 adbe 8d2c 76be
00000200: a9de 07bd 06b4 76be 098c 8dbc 5a18 2ebd
00000210: 3fd3 55bd c4be 8dbe bded 843c 0cdd 893d
00000220: 148a bf3d dcd6 c73d b5ef 47be e874 39bd
00000230: fae7 91be 421c 3a3c 2a42 2bbd fcd8 eb3d
00000240: ae87 653e d8b6 a73d 7e54 42be fd45 88be
00000250: 1f3b 41bd 4758 2c3e b03d 34be 67c1 e73d
00000260: 8b33 a23c 66df 423d a315 ce3c d873 a8bd
00000270: 4300 c4bd 9865 283d 6e49 7ebe 97f1 cebd
00000280: 80e2 203d 2125 483c 874e c6bd ae3f 0c3e
00000290: 396b f7bd fadf a23d 5761 4cbe 5443 cdbe
000002a0: 755f c63d cb80 d63d 5a17 72bc 002c 643d
000002b0: 66f9 603d 1608 d3be 6244 a0bb 425a 09be
000002c0: 19bc 6b3e 1057 213e 1bb7 7ebc 5820 663e
000002d0: 2f10 67bc 3679 3e3e cc13 123d ba3b 2c3e
000002e0: 9efc 663e ad14 c33d bde4 933c a379 8ebd
000002f0: 2df9 283e cbb2 19be 74f5 86bd dc8a 0abe
00000300: 6aa0 963d 5bd3 75bc b440 bdbd d9c5 85be
00000310: 4991 d33c cabc 8a3d 74a2 57be 202d 433e
00000320: 9cda a1bd a2bd f13d 15f3 74be fd2c f0bc
00000330: 610e bdbc 5186 4bbe db2a 5c3d 840e 293d
00000340: 47b3 123d 7e57 133d 1ee2 343c 2377 3dbe
00000350: b22c 4d3e e201 883d ca0a 4fbc 2324 44bd
00000360: e288 8cbb 1d9f 1abd 0ac7 86bd 61a6 85bc
00000370: 1490 e6bc e9ca 4a3d 81e3 35be 1b23 133e
00000380: 5095 1abe 8550 12be fc41 75bd 686f e4bd
00000390: c088 293e beaf 54be 1064 2bbe 1a71 4c3d
000003a0: 0c49 ee3c 1c50 183e f257 a1bd 6880 83bd
000003b0: 2fd7 b5bb b47c ef3d 8a86 a7bc cb1b 5d3e
000003c0: bb38 243e 8941 9bbc a5e5 053e 6a30 2a3d
000003d0: a5bd ca3d 789b 2ebe 7b88 03be e475 603e
000003e0: 6d1b 50be 865e a23d 50d9 8c3d e525 79be
000003f0: 87bf 35be cda1 f83c f446 6dbe 13d9 95bc

nets.0.2.bias f4 [32]
0.179767 -0.1861435 -0.16449532 -0.11041726 0.062617645 0.08615428 -0.14747216 -0.21359952
0.010210944 -0.11880859 -0.03925818 -0.048203304 -0.058070455 -0.068277955 -0.036902968 0.14676325
-0.17642516 -0.021664297 -0.16757837 -0.13336189 0.044083066 -0.017376013 0.012808537 0.030156823
-0.09021862 -0.068869375 0.020621002 0.04652679 -0.12654303 -0.13319428 0.078816615 -0.01781272
00000000: d714 383e 679c 3ebe 7671 28be 7222 e2bd
00000010: ae3d 803d a871 b03d f102 17be d5b9 5abe
00000020: ce4b 273c eb51 f3bd 2fcd 20bd d470 45bd
00000030: 49db 6dbd 50d5 8bbd 9127 17bd 1b49 163e
00000040: cca8 34be 5379 b1bc aa99 2bbe 0590 08be
00000050: 7290 343d 2458 8ebc e6da 513c 710b f73c
00000060: 8ac4 b8bd 630b 8dbd 60ed a83c e092 3e3d
00000070: 7f94 01be 1564 08be 9b6a a13d fbeb 91bc

nets.1.0.weight f4 [32, 32, 7]
-0.19491461 0.0043218457 -0.15822466 -0.21551558 -0.10168505 -0.029265594 -0.01722967 -0.056960627
0.115053125 0.15680058 0.1267834 0.07091914 -0.102048986 -0.032518618 0.088157356 0.12159832
0.093111366 0.059218217 0.1642932 0.072271936 0.1209531 0.102141686 0.08027659 0.15547213
0.07965732 0.120577015 0.027025787 0.048280217 -0.071585104 -0.05887679 -0.043703165 -0.1250237
-0.13946888 -0.13904025 -0.049395546 -0.07610281 -0.05350774 -0.08892593 -0.10546777 -0.15217449
-0.09303108 -0.044156726 -0.04263409 -0.09111943 -0.093673915 -0.08536912 -0.13628986 -0.04664461
-0.028801057 0.08164858 0.15360636 0.17696796 0.08140136 0.057481438 0.045335755 0.10451555
-0.053668108 -0.024678214 -0.15590982 -0.16054599 -0.11685418 -0.13806976 -0.095934354 -0.145541
-0.088259 -0.14820962 -0.14979836 -0.06922361 -0.1437177 -0.1129474 -0.053525683 -0.13041797
-0.06784743 -0.12413793 -0.062432855 -0.11100015 -0.15552428 -0.12415344 -0.12566519 -0.1425776
-0.031936355 -0.13092206 -0.034337476 -0.14325316 -0.13723871 -0.10865699 -0.10662142 -0.15367645
-0.10102196 -0.13241969 -0.031658363 -0.021309948 -0.08827256 -0.10148162 -0.03836743 -0.09246162
-0.026706995 -0.05122929 -0.10286971 -0.12643722 -0.09282995 -0.10015203 -0.050922442 -0.07007899
-0.028302535 -0.18334666 -0.089023605 -0.05614588 -0.08192682 -0.1751977 -0.12010212 -0.16714732
-0.08775863 -0.15234475 -0.13852149 -0.16384892 -0.16845566 -0.15156633 -0.041456565 -0.10429281
-0.028604407 -0.06772697 -0.029907081 -0.13214195 -0.095429465 -0.13990237 -0.1304984 -0.15550858
-0.12333859 -0.063325725 -0.039660707 -0.051407106 -0.12526944 0.09638291 0.08379364 0.063131645
0.15288183 0.17142531 0.07238289 0.1288598 -0.13826953 -0.07106812 -0.13742301 -0.052381508
-0.09600259 -0.0719234 -0.09666315 0.049816445 0.1769095 0.09870694 0.14412771 0.06355488
0.16197369 0.071011215 -0.07501159 -0.09734558 -0.09474338 -0.08227324 -0.047972154 -0.15006343
-0.14596546 -0.11378301 -0.13650717 -0.024799244 -0.11572952 -0.02400676 -0.15010174 -0.06062559
-0.06729672 -0.10473583 -0.07541441 0.19212867 0.18201508 -0.19244114 -0.14805207 -0.057539705
-0.11502717 -0.13475476 -0.13591376 -0.09682047 -0.15188774 -0.02566967 -0.12282714 -0.04045737
-0.07110319 -0.044941515 -0.07141449 -0.038816202 -0.1483309 -0.10256683 -0.124165125 -0.119782
-0.12010724 -0.14178602 -0.1443659 -0.109671384 0.10472674 0.100530446 0.028320894 0.07810437
0.11463311 0.10134592 0.045325555 0.07522234 0.061006583 0.0675659 0.08780154 0.09365193
0.087291025 0.059311815 0.115015775 -0.01605398 0.07467079 -0.03161737 0.00015059263 -0.023348818
0.012457058 0.036988508 0.05142176 0.11224374 0.11156508 0.10008656 -0.06073706 0.035189934
-0.019139435 0.15550885 0.09421013 0.2145567 0.12541997 0.054870494 0.11060596 -0.13607684
-0.1352547 -0.15408324 -0.18203993 -0.23012084 -0.16826043 -0.2142527 -0.02160917 -0.17628388
-0.08242518 -0.08486916 -0.13835464 -0.14856814 -0.05251839 -0.13741174 -0.13041611 -0.11020881
-0.15777494 -0.09780316 -0.11585897 -0.016465666 0.0016882936 0.050818175 0.06727521 0.039069302
00000000: b297 47be 459e 8d3b a505 22be 1eb0 5cbe
00000010: 4040 d0bd 66be efbc 3d25 8dbc 8c4f 69bd
00000020: f9a0 eb3d 5590 203e 82d3 013e 0e3e 913d
00000030: 0fff d0bd 3e32 05bd d88b b43d 8a08 f93d
00000040: 2cb1 be3d cd8e 723d 7a3c 283e 4f03 943d
00000050: 42b6 f73d a92f d13d 0e68 a43d 1634 1f3e
00000060: 6123 a33d 15f1 f63d 2f65 dd3c 7ac1 453d
00000070: 369b 92bd ca28 71bd 1702 33bd 3606 00be
00000080: eed0 0ebe 9160 0ebe fc52 4abd cadb 9bbd
00000090: ef2a 5bbd cc1e b6bd 7cff d7bd a1d3 1bbe
000000a0: 1487 bebd afdd 34bd 15a1 2ebd d39c babd
000000b0: 1cd8 bfbd 01d6 aebd 928f 0bbe 6b0e 3fbd
000000c0: 32f0 ebbc 5f37 a73d fc4a 1d3e 1737 353e
000000d0: c2b5 a63d a871 6b3d fcb1 393d 400c d63d
000000e0: 17d3 5bbd f729 cabc d3a6 1fbe 2b66 24be
000000f0: 3f51 efbd 2962 0dbe 3b79 c4bd b308 15be
00000100: 22c1 b4bd 43c4 17be be64 19be 1cc5 8dbd
00000110: bc2a 13be f750 e7bd bf3d 5bbd 4a8c 05be
00000120: 98f3 8abd 073c febd 98b9 7fbd 0c54 e3bd
00000130: c241 1fbe 2944 febd 60ae 00be ddff 11be
00000140: b2cf 02bd 6f10 06be 74a5 0cbd f5b0 12be
00000150: 4e88 0cbe 8e87 debd 555c dabd 5c5d 1dbe
00000160: 9ae4 cebd 0799 07be 33ac 01bd 3392 aebc
00000170: 3ec8 b4bd 98d5 cfbd 2b27 1dbd 855c bdbd
00000180: a1c8 dabc ced5 51bd 5bad d2bd c278 01be
00000190: a11d bebd 821c cdbd 0d94 50bd 9385 8fbd
000001a0: b8da e7bc 3abf 3bbe 0252 b6bd 39f9 65bd
000001b0: 40c9 a7bd 0767 33be 1af8 f5bd ab28 2bbe
000001c0: ccba b3bd 4300 1cbe 94d8 0dbe 03c8 27be
000001d0: a47f 2cbe 3434 1bbe 5cce 29bd 7897 d5bd
000001e0: ca53 eabc 70b4 8abd b2ff f4bc 3850 07be
000001f0: 8670 c3bd 9142 0fbe 5fa1 05be a43d 1fbe
00000200: f198 fcbd ebb0 81bd 4473 22bd 4290 52bd
00000210: a246 00be 6764 c53d 009c ab3d 2a4b 813d
00000220: 0e8d 1c3e 1e8a 2f3e 7b3d 943d d3f3 033e
00000230: 8796 0dbe 2a8c 91bd 9eb8 0cbe fe8d 56bd
00000240: 029d c4bd 934c 93bd 54f7 c5bd 540c 4c3d
00000250: c427 353e dd26 ca3d 3796 133e 1029 823d
00000260: 6edc 253e 546e 913d ad9f 99bd 1f5d c7bd
00000270: d108 c2bd df7e a8bd 737e 44bd 3aaa 19be
00000280: f877 15be 1107 e9bd 89c8 0bbe c927 cbbc
00000290: 9903 edbd d3a9 c4bc 45b4 19be 8a52 78bd
000002a0: ddd2 89bd bd7f d6bd df72 9abd 61bd 443e
000002b0: 2962 3a3e 4a0f 45be f69a 17be c1ae 6bbd
000002c0: 5d93 ebbd 27fd 09be fa2c 0bbe d049 c6bd
000002d0: 7688 1bbe 3349 d2bc cc8c fbbd a1b6 25bd
000002e0: 8d9e 91bd 9814 38bd c341 92bd bdfd 1ebd
000002f0: 0ee4 17be 8f0e d2bd 494a febd 4450 f5bd
00000300: c9fa f5bd 5b30 11be a8d4 13be 649b e0bd
00000310: f97a d63d e8e2 cd3d 3801 e83c 2ff5 9f3d
00000320: c4c4 ea3d 738e cf3d 4aa7 393d 2c0e 9a3d
00000330: 0ae2 793d fe5f 8a3d 4bd1 b33d 95cc bf3d
00000340: a3c5 b23d f2f0 723d 648d eb3d a383 83bc
00000350: 00ed 983d 3781 01bd 67e8 1d39 0546 bfbc
00000360: b018 4c3c 4381 173d a09f 523d 0ce0 e53d
00000370: 3c7c e43d 2ffa cc3d 6cc7 78bd 5223 103d
00000380: 4eca 9cbc b63d 1f3e 3ef1 c03d c0b4 5b3e
00000390: 186e 003e e2bf 603d 6185 e23d ba57 0bbe
000003a0: 3580 0abe ffc7 1dbe ad68 3abe cca4 6bbe
000003b0: 764c 2cbe 0f65 5bbe b705 b1bc c383 34be
000003c0: 88ce a8bd e2cf adbd d7ac 0dbe 3f22 18be
000003d0: 861d 57bd aab5 0cbe cd8b 05be 28b5 e1bd
000003e0: c18f 21be 064d c8bd 7847 edbd 01e3 86bc
000003f0: bc49 dd3a b826 503d 96c7 893d 2207 203d

nets.1.0.bias f4 [32]
-0.064258784 0.064320855 0.0051018093 -0.19823562 0.0025682047 0.12313631 -0.07153598 0.07069207
-0.047130812 -0.15186077 -0.17638737 0.0073147286 -0.062264156 -0.1298696 -0.1345615 -0.14634925
-0.13094597 0.0071834116 -0.064080805 0.063805304 -0.028226912 -0.13886714 -0.07929849 -0.12768984
0.17929749 -0.16169591 -0.19783843 -0.09654774 -0.14020371 -0.16072424 -0.17969538 0.040168002
00000000: 1c9a 83bd a7ba 833d 142d a73b 47fe 4abe
00000010: 534f 283b e42e fc3d 7581 92bd 01c7 903d
00000020: 3d0c 41bd 6481 1bbe e49e 34be 64b0 ef3b
00000030: b308 7fbd 89fc 04be 7dca 09be 94dc 15be
00000040: b316 06be d362 eb3b cc3c 83bd 5bac 823d
00000050: 203c e7bc 3033 0ebe 3f67 a2bd 20c1 02be
00000060: c399 373e 9d93 25be 2896 4abe d2ba c5bd
00000070: 9091 0fbe e594 24be 1102 38be 3487 243d

nets.1.2.weight f4 [32, 32, 1]
0.06700282 -0.16179246 -0.08333653 0.0988064 0.032015093 -0.03116643 -0.07725533 -0.18066315
-0.21227072 -0.028553981 0.3045305 -0.017236402 -0.10260665 0.0002670851 0.013494715 -0.06540175
-0.10708918 -0.13554972 -0.14669138 -0.16271855 0.04995464 0.050733652 -0.13538948 -0.07433287
-0.25116858 -0.025973706 0.28496307 0.36555773 0.05897956 0.06641961 -0.19889851 -0.06239533
-0.14144418 0.13195516 0.034417655 0.031875458 -0.3031911 -0.29597402 -0.27315918 -0.3294699
-0.23355512 -0.29946017 0.15809011 0.011316517 0.10210461 0.062100105 0.12832338 -0.048106104
-0.23790431 -0.12479126 -0.13797934 -0.11599621 0.2322942 -0.2414907 -0.18452121 -0.24004178
0.12649265 -0.39301944 -0.116201825 -0.16519171 0.15348117 -0.065318145 -0.15743509 -0.17579024
-0.08138294 0.013934767 0.062303558 0.006945096 -0.048379835 -0.076642685 -0.07007637 -0.27066574
-0.2526291 -0.023541141 -0.14709696 0.13584375 0.006410024 0.0665602 -0.15646368 -0.23421553
0.003810506 0.0646968 -0.020737883 -0.017246686 0.3771085 -0.038512457 -0.16381127 -0.07612884
-0.1998099 0.077205285 -0.17437786 -0.15958045 -0.025465107 0.119420044 -0.1338974 0.15434137
-0.07916627 0.04467695 -0.09148806 -0.08591299 -0.018866314 -0.007911534 -0.19769822 -0.119206116
-0.28932005 -0.06347453 0.14121424 0.009982931 -0.05269374 0.17583165 -0.08582886 0.026519923
0.010185105 -0.37353483 -0.2600607 -0.17896281 -0.21668066 -0.27076665 -0.06390958 -0.32423738
0.12880333 0.05159567 -0.13153781 -0.039762102 -0.01724205 -0.18965313 -0.13806644 -0.25684723
-0.13257442 -0.081621386 -0.1231073 0.30210352 -0.16966484 -0.15889385 0.057973843 -0.21659201
-0.10851475 -0.053201213 0.19916943 0.10799079 -0.06595396 0.1860706 -0.03868655 0.104430646
0.029245347 -0.07924954 -0.15350276 -0.13346331 -1.01165215e-05 -0.10491589 -0.14854626 -0.023733575
0.055518102 0.21412861 0.18934049 0.17969272 0.14753439 -0.1483975 0.053567994 -0.14402586
-0.02632266 -0.07995624 -0.06858424 0.076612115 -0.168604 -0.16972595 -0.13523503 -0.026886627
0.054311913 -0.04358654 0.1123972 0.1394501 0.017003568 -0.022466993 0.1205825 -0.00023908596
0.06485912 -0.053731095 0.08828528 0.054423776 0.02939644 -0.024117287 -0.02263685 0.009138015
-0.26218402 0.18107633 0.15093803 0.16810612 0.22812794 -0.11697236 0.071578935 -0.20228457
-0.11103442 -0.18270107 0.025991967 -0.09362048 0.06028196 -0.061284065 0.09887828 -0.09049074
-0.034100387 -0.17132075 -0.04601336 -0.14394826 -0.14882305 -0.059435118 -0.040522706 -0.0847936
-0.04081716 0.081342556 -0.17226239 0.047558017 0.03513084 -0.08256957 0.13737811 -0.1615099
-0.014371094 0.14503977 0.25326765 0.18187763 0.18220085 0.064271055 -0.20051125 -0.20312522
0.2658985 -0.1396809 -0.094229996 -0.1585868 0.10013776 0.09895267 0.22073135 0.16061713
-0.03568891 0.120294966 -0.24402127 -0.121340245 -0.15459648 -0.053941395 -0.33066848 -0.19163385
0.17351131 -0.18140638 0.29365706 0.18709289 -0.15207335 0.044858906 0.09525761 0.12755333
0.14114235 0.14395742 0.111010216 0.23549244 -0.02951455 0.25820452 0.09924644 0.15677941
00000000: c638 893d ecac 25be 58ac aabd 035b ca3d
00000010: 4222 033d be50 ffbc 0b38 9ebd c3ff 38be
00000020: 7f5d 59be 0aea e9bc 6ceb 9b3e 5b33 8dbc
00000030: 6f23 d2bd 8e07 8c39 f018 5d3c 5af1 85bd
00000040: 9251 dbbd 8ccd 0abe 4436 16be b19f 26be
00000050: 3d9d 4c3d 17ce 4f3d 8aa3 0abe d53b 98bd
00000060: 2b99 80be cfc6 d4bc aee6 913e 622a bb3e
00000070: 8d94 713d 0107 883d 0dac 4bbe 3f92 7fbd
00000080: bed6 10be 411f 073e 87f9 0c3d d78f 023d
00000090: dd3b 9bbe e889 97be 85db 8bbe 47b0 a8be
000000a0: 1329 6fbe d852 99be 60e2 213e ea68 393c
000000b0: 391c d13d ae5c 7e3d 3467 033e e80a 45bd
000000c0: 309d 73be 8f92 ffbd 754a 0dbe 6c8f edbd
000000d0: 88de 6d3e 5749 77be 21f3 3cbe 83cd 75be
000000e0: 4a87 013e d839 c9be 39fb edbd 0428 29be
000000f0: 2b2a 1d3e 85c5 85bd aa36 21be 5b02 34be
00000100: 19ac a6bd a64e 643c 0432 7f3d b093 e33b
00000110: ef29 46bd d7f6 9cbd 3384 8fbd b394 8abe
00000120: 9a58 81be 5ad9 c0bc 96a0 16be a01a 0b3e
00000130: 2e0b d23b b750 883d 0438 20be 32d6 6fbe
00000140: afb9 793b c27f 843d 7ee2 a9bc ec48 8dbc
00000150: 5e14 c13e 3dbf 1dbd 24be 27be 70e9 9bbd
00000160: f79a 4cbe ce1d 9e3d 1c90 32be 0f69 23be
00000170: 339c d0bc 7f92 f43d 661c 09be aa0b 1e3e
00000180: ed21 a2bd 2dff 363d 185e bbbd 26f3 afbd
00000190: 878d 9abc 619f 01bc 6771 4abe 5622 f4bd
000001a0: c221 94be effe 81bd 779a 103e 738f 233c
000001b0: 64d5 57bd 360d 343e 0bc7 afbd 4f40 d93c
000001c0: 6ddf 263c f53f bfbe ad26 85be 0742 37be
000001d0: 89e1 5dbe eda1 8abe 07e3 82bd 7102 a6be
000001e0: 05e5 033e fb55 533d d9b1 06be 96dd 22bd
000001f0: 333f 8dbc 6e34 42be 4a61 0dbe 7b81 83be
00000200: 97c1 07be 1d29 a7bd ae1f fcbd 50ad 9a3e
00000210: 9fbc 2dbe 12b5 22be fb75 6d3d 4cca 5dbe
00000220: fb3c debd 84e9 59bd 12f3 4b3e 462a dd3d
00000230: df12 87bd 4b89 3e3e ca75 1ebd bcdf d53d
00000240: f093 ef3c 954d a2bd d42f 1dbe 9baa 08be
00000250: 21ba 29b7 24de d6bd 831c 18be ea6c c2bc
00000260: f366 633d 8844 5b3e 79e2 413e 5e01 383e
00000270: 4113 173e 84f5 17be 1d6a 5b3d 847b 13be
00000280: 9ea2 d7bc 19c0 a3bd e575 8cbd d0e6 9c3d
00000290: 87a6 2cbe a4cc 2dbe 0d7b 0abe 5841 dcbc
000002a0: 2b76 5e3d cd87 32bd 8130 e63d 02cc 0e3e
000002b0: 114b 8b3c b30c b8bc f5f3 f63d 26b3 7ab9
000002c0: dcd4 843d 2315 5cbd eace b43d 77eb 5e3d
000002d0: ced0 f03c 9e91 c5bc ea70 b9bc 9db7 153c
000002e0: fc3c 86be 136c 393e 808f 1a3e 0324 2c3e
000002f0: 5f9a 693e 348f efbd fa97 923d b023 4fbe
00000300: 0466 e3bd fd15 3bbe 1bed d43c 18bc bfbd
00000310: 37ea 763d 0005 7bbd b280 ca3d 3653 b9bd
00000320: d9ac 0bbd b56e 2fbe 8178 3cbd 2c67 13be
00000330: 1265 18be 3d72 73bd 23fb 25bd 44a8 adbd
00000340: e52f 27bd ed96 a63d 8d65 30be 32cc 423d
00000350: 5be5 0f3d 3c1a a9bd d9ac 0c3e da62 25be
00000360: bd74 6bbc 4e85 143e 4cac 813e 213e 3a3e
00000370: dc92 3a3e 8ba0 833d d252 4dbe 0f00 50be
00000380: d923 883e 8308 0fbe a8fb c0bd 9464 22be
00000390: 0715 cd3d b3a7 ca3d 6607 623e d178 243e
000003a0: 892e 12bd 355d f63d b6e0 79be 3c81 f8bd
000003b0: 8a4e 1ebe a7f1 5cbd 614d a9be aa3b 44be
000003c0: f3ac 313e 98c2 39be 385a 963e 4795 3f3e
000003d0: 1eb9 1bbe f9bd 373d 6c16 c33d 579d 023e
000003e0: 9f87 103e 9369 133e 5359 e33d ee24 713e
000003f0: 7fc8 f1bc 6233 843e b841 cb3d c88a 203e

nets.1.2.bias f4 [32]
-0.17612284 -0.14885575 -0.33894303 -0.03745312 -0.046573818 -0.07529323 -0.30546972 0.08345378
-0.14007147 -0.11401007 -0.16547704 -0.20978758 -0.22429305 -0.17732044 -0.26651612 -0.11761855
-0.032636102 -0.03928226 -0.2549383 -0.07931783 0.005745666 0.07465884 -0.16728455 -0.005324356
0.06063379 -0.20325899 -0.16336589 -0.19265959 -0.016582003 0.00693988 0.07401121 -0.106946245
00000000: 8c59 34be a46d 18be f189 adbe 7168 19bd
00000010: 30c4 3ebd 5633 9abd 8766 9cbe d1e9 aa3d
00000020: e56e 0fbe 1d7e e9bd d072 29be 8ed2 56be
00000030: 14ad 65be 7d93 35be cd74 88be ffe1 f0bd
00000040: 6fad 05bd 6fe6 20bd 4687 82be 6371 a2bd
00000050: 2446 bc3b bce6 983d a44c 2bbe ef77 aebb
00000060: 235b 783d 2023 50be 6349 27be 8e48 45be
00000070: fbd6 87bc ef67 e33b 3093 973d a206 dbbd

nets.2.0.weight f4 [32, 32, 7]
0.1338592 0.15873 0.097517036 -0.034476437 -0.08105753 -0.0008460703 0.045440607 0.0022875755
0.034565154 0.14123581 0.16543588 0.17742656 0.10228248 0.20999856 0.09723852 0.033274796
0.19061725 0.08805381 0.092681274 0.12923169 0.1283887 -0.048318453 0.08081185 -0.003574117
-0.063547395 0.09054037 0.07330546 0.3243091 -0.122011706 -0.040766187 -0.15068884 -0.13078584
-0.035764713 -0.060913127 -0.114080556 -0.13292252 -0.03690394 -0.054950118 -0.049070198 -0.10687452
-0.052497424 -0.1571303 -0.04317297 -0.12044402 -0.12930742 -0.07631492 -0.14602591 -0.13598882
-0.09807645 -0.17198518 -0.075952664 -0.057636827 -0.06157002 -0.1457034 -0.08121385 0.023480494
-0.12029004 -0.08557052 -0.111508 -0.05068598 -0.008291759 -0.00602855 -0.016911643 -0.121211454
-0.07955216 -0.039973292 -0.083517715 -0.08993917 -0.120679244 -0.026002994 -0.077632785 -0.13512172
-0.07973848 -0.117392644 -0.13577299 -0.041680943 -0.09185904 -0.08208493 -0.1359546 -0.10896938
-0.13727471 -0.068726085 -0.12908536 -0.14066592 -0.099135935 -0.01319645 -0.037531048 -0.10418278
-0.056354538 -0.023433248 -0.012652825 -0.024840368 -0.06665498 -0.08046196 -0.022211427 -0.07966545
-0.11445729 -0.16101824 -0.10198668 -0.08768499 -0.053922314 -0.16871451 -0.06272876 -0.1756936
-0.068919376 -0.049905106 0.08268464 0.0929833 0.20797567 0.23171234 0.023492245 0.09446125
-0.09231837 -0.1029178 -0.055743538 -0.12724422 -0.17315897 -0.0807701 -0.066204295 -0.114275135
-0.08747244 -0.05740863 -0.026187023 -0.102677114 -0.030000908 -0.09730462 -0.14523953 -0.15620406
-0.118085206 -0.09327987 -0.053105123 -0.14659734 -0.089790985 -0.14819203 -0.18475343 -0.10826361
-0.030476868 -0.114983425 0.03718281 -0.052686255 -0.13145177 -0.029938405 -0.030861458 0.016331054
-0.06730995 0.00053122785 0.052711237 0.0765137 0.0012745578 0.13285181 0.14616573 0.07348342
0.052393235 -0.08486196 -0.06233392 -0.08547051 -0.13164619 -0.083814956 -0.0991167 -0.07031057
-0.13059148 -0.07770774 -0.09859702 -0.092620425 -0.0753868 -0.02530416 -0.07147838 -0.13915971
-0.029663082 -0.06801045 -0.12869592 -0.102162935 -0.12297308 -0.090662494 -0.117639996 -0.10177073
-0.058805194 -0.18054564 -0.107500575 -0.1172959 -0.17242587 -0.09420135 -0.12650979 -0.07801323
-0.121676065 -0.08225033 -0.14759573 -0.06802706 -0.163163 -0.20178947 -0.049824536 -0.017583005
-0.121840216 -0.13988039 -0.13018067 -0.14281455 -0.1226971 -0.0534598 -0.13146397 -0.029308708
-0.040710486 -0.14212365 -0.13097584 -0.08607702 -0.018371131 -0.051178154 -0.055245172 0.042077202
-0.00061505404 0.050393034 0.09724463 0.04512437 0.15995224 0.022951255 0.12214461 0.11285271
0.024508422 -0.20940728 0.050209112 -0.12823938 0.0932059 0.117048435 -0.021773057 -0.12399295
-0.029889857 0.1675704 0.09265663 -0.037343297 0.012655896 -0.06346816 -0.10878399 -0.13991386
0.042910542 -0.009637952 0.043468386 0.03460479 0.10863228 0.043037307 -0.14915949 -0.11449888
-0.20580535 -0.21280484 -0.24191928 -0.22220492 -0.20584276 -0.03563969 0.0011428337 -0.040857658
0.038896576 0.0033129076 0.09170556 0.16548012 0.023137985 0.056644972 0.08385984 0.0011184053
00000000: 6312 093e 1e8a 223e 03b7 c73d 2a37 0dbd
00000010: 7e01 a6bd d1ca 5dba ee1f 3a3d 26eb 153b
00000020: 3194 0d3d 1fa0 103e 0668 293e 4faf 353e
00000030: 7a79 d13d dd09 573e fd24 c73d 274b 083d
00000040: 2b31 433e 8e55 b43d aecf bd3d 5055 043e
00000050: 5478 033e 92e9 45bd af80 a53d bc3b 6abb
00000060: 2325 82bd 3b6d b93d 2c21 963d d80b a63e
00000070: 46e1 f9bd 72fa 26bd 2d4e 1abe b9ec 05be
00000080: 057e 12bd 0b80 79bd 11a3 e9bd d71c 08be
00000090: 9628 17bd 6013 61bd d5fd 48bd 07e1 dabd
000000a0: 8a07 57bd c4e6 20be 24d6 30bd 5bab f6bd
000000b0: 2a69 04be ff4a 9cbd d187 15be a740 0bbe
000000c0: 4edc c8bd e21c 30be 128d 9bbd 9814 6cbd
000000d0: d830 7cbd 4633 15be 7253 a6bd 2a5a c03c
000000e0: a05a f6bd 993f afbd 4e5e e4bd 1a9c 4fbd
000000f0: 28da 07bc 258b c5bb 498a 8abc b63d f8bd
00000100: 3eec a2bd 09bb 23bd 560b abbd 0732 b8bd
00000110: ae26 f7bd 3b04 d5bc f0fd 9ebd 595d 0abe
00000120: ee4d a3bd 8e6b f0bd 1308 0bbe a3b9 2abd
00000130: 9820 bcbd 251c a8bd af37 0bbe 572b dfbd
00000140: be91 0cbe 43c0 8cbd f42e 04be ba0a 10be
00000150: c807 cbbd ec35 58bc 28ba 19bd c85d d5bd
00000160: 04d4 66bd 15f7 bfbc cb4d 4fbc 077e cbbc
00000170: 6882 88bd 3dc9 a4bd bdf4 b5bc a427 a3bd
00000180: 9568 eabd f7e1 24be 64de d0bd 3094 b3bd
00000190: a5dd 5cbd 7fc3 2cbe f077 80bd 06e9 33be
000001a0: 9a25 8dbd 4c69 4cbd 9156 a93d 076e be3d
000001b0: 93f7 543e 0046 6d3e cf72 c03c e674 c13d
000001c0: 6a11 bdbd 91c6 d2bd 5653 64bd 4f4c 02be
000001d0: 9650 31be cb6a a5bd 1e96 87bd 1509 eabd
000001e0: c024 b3bd 5025 6bbd 2b86 d6bc 6148 d2bd
000001f0: 77c4 f5bc a547 c7bd acb9 14be f5f3 1fbe
00000200: a8d6 f1bd 8409 bfbd c284 59bd 9d1d 16be
00000210: 56e4 b7bd a7bf 17be 0130 3dbe 50b9 ddbd
00000220: a0aa f9bc 6e7c ebbd 014d 183d 8bcd 57bd
00000230: 4b9b 06be 6341 f5bc 2bd1 fcbc b4c8 853c
00000240: cdd9 89bd 1942 0b3a bde7 573d 37b3 9c3d
00000250: 100f a73a 4e0a 083e 78ac 153e 7a7e 963d
00000260: 4a9a 563d 1bcc adbd da51 7fbd 2a0b afbd
00000270: 42ce 06be 2da7 abbd b2fd cabd fdfe 8fbd
00000280: c6b9 05be 3c25 9fbd 3ced c9bd c7af bdbd
00000290: 6564 9abd ab4a cfbc 4263 92bd e27f 0ebe
000002a0: feff f2bc 1049 8bbd ddc8 03be cd3a d1bd
000002b0: 4fd9 fbbd 42ad b9bd 3ded f0bd 2c6d d0bd
000002c0: b7dd 70bd f5e0 38be 4329 dcbd d538 f0bd
000002d0: 6890 30be a3ec c0bd c88b 01be 66c5 9fbd
000002e0: 4d31 f9bd dc72 a8bd 5623 17be c551 8bbd
000002f0: 3414 27be e6a1 4ebe d014 4cbd 3c0a 90bc
00000300: 5d87 f9bd ce3c 0fbe 154e 05be fa3d 12be
00000310: 9e48 fbbd aaf8 5abd 7e9e 06be d118 f0bc
00000320: 0ac0 26bd dd88 11be 881e 06be 2649 b0bd
00000330: 0e7f 96bc 2fa0 51bd c348 62bd 2559 2c3d
00000340: 943b 21ba ed68 4e3d 3128 c73d 55d4 383d
00000350: 85ca 233e 4504 bc3c f426 fa3d 521f e73d
00000360: e3c5 c83c dd6e 56be 12a8 4d3d 2f51 03be
00000370: bce2 be3d 17b7 ef3d 695d b2bc 04f0 fdbd
00000380: 93db f4bc 9397 2b3e c2c2 bd3d 49f5 18bd
00000390: ad5a 4f3c 98fb 81bd 24ca debd 9445 0fbe
000003a0: f7c2 2f3d 80e8 1dbc e80b 323d c1bd 0d3d
000003b0: 9a7a de3d e347 303d 44bd 18be 647e eabd
000003c0: a3be 52be 83e9 59be b0b9 77be b089 63be
000003d0: 72c8 52be ecfa 11bd 23cb 953a 5c5a 27bd
000003e0: 0452 1f3d 5e1d 593b 20d0 bb3d 9f73 293e
000003f0: df8b bd3c 8f04 683d b5be ab3d 7497 923a

nets.2.0.bias f4 [32]
-0.11384904 0.01890943 -0.13040379 -0.19959627 -0.08836756 -0.11232196 -0.036612954 -0.16486937
-0.08063963 0.15453954 -0.035997007 -0.049219493 -0.030111872 -0.20647609 0.017091118 0.110169694
-0.080167875 0.015977422 -0.11505639 -0.13280095 -0.17740248 -0.024304304 -0.030242138 -0.05442166
-0.08363271 -0.16514829 0.14397353 -0.13286623 -0.07259018 -0.15051216 -0.09088645 0.09700122
00000000: af29 e9bd f3e7 9a3c 9288 05be f762 4cbe
00000010: 0dfa b4bd 0e09 e6bd 77f7 15bd 84d3 28be
00000020: 6426 a5bd 9d3f 1e3e 9971 13bd 619a 49bd
00000030: 2cad f6bc 786e 53be ac02 8c3c a6a0 e13d
00000040: 0e2f a4bd 15e3 823c afa2 ebbd f9fc 07be
00000050: ffa8 35be d219 c7bc 5cbe f7bc 3fe9 5ebd
00000060: a047 abbd a21c 29be cc6d 133e 160e 08be
00000070: 29aa 94bd dc1f 1abe ad22 babd 93a8 c63d

nets.2.2.weight f4 [32, 32, 1]
-0.12087622 -0.16231085 0.112714134 0.28729016 0.011618013 0.09470227 0.11167612 -0.15529433
-0.14282037 -0.06138795 -0.14859599 0.0850599 -0.2581609 0.25003436 -0.24896164 -0.25439528
0.03729096 0.017533572 0.019564917 0.052170437 0.038666718 -0.04087645 0.08465976 -0.13689236
0.34350374 -0.07606616 -0.06380651 -0.1981677 -0.1511158 -0.032477595 0.048565157 -0.26788467
0.075442165 -0.111062706 0.018506404 0.14326888 -0.25504267 -0.15561321 0.0630585 0.1314145
-0.0024825446 -0.20572382 -0.02808337 0.037084926 0.019117143 -0.008452956 -0.27867967 -0.1347512
-0.17338076 0.11729899 0.062148895 -0.20492788 -0.11762363 0.0085439505 0.03321026 -0.13271435
0.11872783 0.074988246 -0.10918422 0.080435716 -0.12974241 0.04731003 -0.08753095 -0.24205965
-0.06462662 -0.028168177 -0.053278115 0.012941976 0.04715542 0.010440373 -0.21870643 -0.14538479
-0.029463178 -0.051224522 0.13600619 -0.004166995 -0.074269764 0.17948452 -0.1385785 -0.23699877
-0.23414934 0.1684831 -0.15068215 0.091809586 0.22486779 -0.15904056 0.06839917 -0.183299
0.031800292 -0.011954588 -0.17831725 -0.17482112 -0.17474514 0.04774622 -0.16547364 0.021156598
-0.11365313 -0.13463525 0.20455591 0.19633405 -0.27269942 -0.11526798 0.16708882 0.008486557
0.11413852 -0.11921703 -0.042642236 -0.07943093 -0.12616333 -0.1363186 -0.050472505 0.020299232
-0.25937545 0.18586984 -0.18838589 -0.2894331 0.19528429 -0.10196321 -0.2450993 -0.031982645
0.0766808 0.21023196 -0.0073247175 -0.20959824 -0.27864012 -0.069844544 -0.048650008 0.022160761
0.0121063115 -0.095057756 -0.1315029 0.32554305 -0.057870742 -0.09945549 -0.21923427 -0.20229582
-0.0473458 -0.19193335 0.28918085 -0.24383186 0.29032126 0.31386295 -0.06606188 -0.04965917
0.0013029651 -0.0334318 0.36226076 -0.14028578 -0.055015203 -0.06886453 -0.13429782 -0.022099655
0.3139703 -0.1956495 -0.27533475 -0.07553104 -0.13226214 -0.05137437 -0.15821186 -0.4321583
-0.27149656 -0.3265215 -0.07389058 0.10349567 -0.13454004 0.012353965 -0.041134037 -0.19898172
-0.10809333 -0.15544449 -0.12702955 -0.092023864 0.07157123 0.16407336 -0.06422347 -0.1927258
-0.0429348 -0.080274515 0.30148715 -0.14654306 0.086883165 -0.09979635 -0.18330598 0.007834042
0.25111333 0.14406498 -0.13363515 0.017679328 -0.13204868 -0.18207426 -0.12649092 -0.27327818
-0.07676727 0.031853605 0.107249945 0.13179457 0.11733591 -0.23245716 -0.09361652 -0.13285348
0.08558907 -0.010166603 -0.18683861 -0.084514506 -0.18144494 -0.008305101 -0.22372313 -0.031977177
-0.16977887 0.017013522 -0.057834588 0.009616353 0.14241026 -0.03472069 -0.1648257 -0.19752137
0.13630979 0.13316019 -0.047993522 -0.014454042 0.03817623 -0.04057195 -0.07920683 -0.13668975
-0.022263445 0.12158817 0.13248475 0.21426037 0.011979632 0.1433813 0.0513372 -0.09458669
0.13393146 -0.07942606 0.05157507 -0.12379917 0.19729108 0.16096105 -0.039293356 -0.14383754
-0.25617036 -0.02248592 0.10976469 -0.14968044 0.25748098 0.11878674 -0.0829686 0.076339185
0.102059454 0.15156916 0.10705425 -0.13357337 0.13681215 0.13363817 -0.043019503 -0.018257152
00000000: f48d f7bd d134 26be abd6 e63d b217 933e
00000010: 7a59 3e3c 44f3 c13d 73b6 e43d 7a05 1fbe
00000020: 813f 12be ee71 7bbd 8c29 18be e333 ae3d
00000030: aa2d 84be 8104 803e cdef 7ebe 1940 82be
00000040: 68be 183d 91a2 8f3c 9b46 a03c abb0 553d
00000050: fe60 1e3d 106e 27bd 1962 ad3d 832d 0cbe
00000060: b9df af3e 93c8 9bbd fdac 82bd 79ec 4abe
00000070: 1abe 1abe 3a07 05bd 42ec 463d 2e28 89be
00000080: 6c81 9a3d d874 e3bd be9a 973c 14b5 123e
00000090: f494 82be 1259 1fbe d124 813d 8691 063e
000000a0: 30b2 22bb 44a9 52be 180f e6bc 5de6 173d
000000b0: 8e9b 9c3c 447e 0abc 1aaf 8ebe 38fc 09be
000000c0: ba8a 31be 743a f03d d78f 7e3d 9dd8 51be
000000d0: a8e4 f0bd edfb 0b3c 7b07 083d 45e6 07be
000000e0: 9427 f33d 7093 993d fa9b dfbd 7bbb a43d
000000f0: 32db 04be 29c8 413d 6d43 b3bd 7cde 77be
00000100: f65a 84bd f3c0 e6bc 273a 5abd 950a 543c
00000110: 0b26 413d 190e 2b3c 94f4 5fbe c0df 14be
00000120: c35c f1bc ced0 51bd 3545 0b3e 4a8b 88bb
00000130: bf1a 98bd caca 373e 86e7 0dbe ceaf 72be
00000140: d8c4 6fbe d586 2c3e 6c4c 1abe aa06 bc3d
00000150: be43 663e 87db 22be dd14 8c3d bcb2 3bbe
00000160: 0641 023d 2ddd 43bc cc98 36be 4f04 33be
00000170: 64f0 32be 8a91 433d ec71 29be 9a50 ad3c
00000180: f9c2 e8bd d3dd 09be 1b77 513e cb0b 493e
00000190: 429f 8bbe 9e11 ecbd 5519 2b3e 330b 0b3c
000001a0: 75c1 e93d 0f28 f4bd a0a9 2ebd afac a2bd
000001b0: f630 01be 1a97 0bbe 42bc 4ebd 934a a63c
000001c0: dccc 84be aa54 3e3e 3be8 40be 9330 94be
000001d0: 9bf8 473e 16d2 d0bd 50fb 7abe 3c00 03bd
000001e0: d30a 9d3d 0c47 573e 2f04 f0bb eca0 56be
000001f0: eba9 8ebe a80a 8fbd 3b45 47bd 7c8a b53c
00000200: 8d59 463c a4ad c2bd b2a8 06be 94ad a63e
00000210: df09 6dbd 52af cbbd f37e 60be a326 4fbe
00000220: abed 41bd 2d8a 44be 830f 943e 0faf 79be
00000230: fda4 943e a5b2 a03e 734b 87bd 6a67 4bbd
00000240: 41c8 aa3a c8ef 08bd 3e7a b93e 13a7 0fbe
00000250: 9f57 61bd d908 8dbd 5e85 09be 560a b5bc
00000260: b7c0 a03e 5858 48be adf8 8cbe 05b0 9abd
00000270: ba6f 07be ee6d 52bd 4a02 22be da43 ddbe
00000280: 9901 8bbe d32d a7be f253 97bd 8af5 d33d
00000290: ddc4 09be 4968 4a3c 2a7c 28bd ddc1 4bbe
000002a0: 0960 ddbd d72c 1fbe 0914 02be 0277 bcbd
000002b0: f093 923d d902 283e 9887 83bd ea59 45be
000002c0: 67dc 2fbd f766 a4bd 865c 9a3e 620f 16be
000002d0: cdef b13d 0762 ccbd 90b4 3bbe 5b5a 003c
000002e0: ed91 803e c585 133e a7d7 08be 3dd4 903c
000002f0: c537 07be ad71 3abe d686 01be 1eeb 8bbe
00000300: 2938 9dbd ed78 023d dca5 db3d 28f5 063e
00000310: cf4d f03d 4009 6ebe 05ba bfbd be0a 08be
00000320: 5349 af3d d391 26bc 9f52 3fbe f115 adbd
00000330: b4cc 39be 1e12 08bc ad17 65be 80fa 02bd
00000340: 83da 2dbe f15f 8b3c f6e3 6cbd e88d 1d3c
00000350: ffd3 113e 4837 0ebd 11c8 28be 0b43 4abe
00000360: cb94 0b3e 255b 083e db94 44bd a5d0 6cbc
00000370: ae5e 1c3d c62e 26bd 3137 a2bd 66f8 0bbe
00000380: d461 b6bc 3803 f93d 15aa 073e 1267 5b3e
00000390: 3846 443c 8cd2 123e f546 523d abb6 c1bd
000003a0: 5425 093e 21aa a2bd 6140 533d 6b8a fdbd
000003b0: ac06 4a3e f9d2 243e 12f2 20bd 264a 13be
000003c0: c328 83be 6434 b8bc 4fcc e03d d445 19be
000003d0: 8cd4 833e 7646 f33d 71eb a9bd b857 9c3d
000003e0: 8c04 d13d f234 1b3e 423f db3d 75c7 08be
000003f0: 7c18 0c3e 72d8 083e 3835 30bd 0690 95bc

nets.2.2.bias f4 [32]
-0.07090774 -0.00038208702 0.11373343 -0.28624794 -0.10042553 0.032911234 -0.26413473 -0.18592729
0.06902967 -0.26860806 -0.14824294 0.027119933 -0.3183772 -0.28997296 -0.22981898 0.12610605
-0.25805923 -0.2067199 -0.16967951 -0.025920585 -0.15870193 -0.14628622 -0.09610311 -0.16209914
-0.073156305 -0.118683994 -0.28219634 -0.11698296 0.017194187 -0.11878139 -0.07729133 -0.22379164
00000000: 1438 91bd da52 c8b9 13ed e83d 178f 92be
00000010: e6ab cdbd eecd 063d ab3c 87be b963 3ebe
00000020: 6d5f 8d3d ff86 89be ffcc 17be 9f2a de3c
00000030: 5602 a3be 5677 94be ab55 6bbe f221 013e
00000040: 5720 84be 62ae 53be 77c0 2dbe 6857 d4bc
00000050: c282 22be 0ecc 15be b5d1 c4bd 51fd 25be
00000060: f9d2 95bd 9810 f3bd 0a7c 90be c394 efbd
00000070: d3da 8c3c a843 f3bd eb4a 9ebd a329 65be

nets.3.0.weight f4 [32, 32, 7]
-0.043502163 -0.056479372 -0.114234544 -0.049936224 -0.05091599 -0.063814886 -0.103509024 -0.06254687
-0.09420593 -0.045849666 -0.14414738 -0.1119398 -0.13843082 -0.098384485 0.1451591 0.1649852
0.20754795 0.12815277 0.10492401 0.18905659 0.26751247 -0.09626674 -0.028793229 -0.082262024
0.009382792 -0.03358164 0.01843802 0.040600963 -0.10781625 -0.09136752 -0.0730553 -0.026692946
-0.114091225 -0.15380064 -0.10343543 -0.11656964 -0.02748099 -0.0765993 -0.12398435 -0.14803126
-0.1381127 -0.14795087 -0.10584594 -0.08811001 -0.039293643 -0.083718665 -0.07978083 -0.092075534
-0.13913278 -0.10554801 -0.08923635 -0.045846786 -0.028763978 -0.03539598 -0.11137718 -0.07078145
0.15564348 0.087659486 0.12680946 0.15866663 0.1322634 0.15737522 0.101984076 -0.19498494
-0.07862401 -0.03453793 -0.12107534 -0.1531519 -0.042328667 -0.106855385 -0.11282153 -0.13191402
-0.14727335 -0.07629523 -0.12654069 -0.11318225 -0.044083294 -0.1354754 -0.06652962 -0.0712247
-0.090487495 -0.081372544 -0.05050968 -0.051663447 -0.058521163 -0.02471356 -0.04873952 -0.04226408
-0.06513174 -0.11456768 -0.097430035 -0.12698354 -0.17897937 -0.094633244 -0.20614444 -0.15962563
-0.12638153 -0.10957032 -0.12851816 -0.15786831 -0.08781609 -0.036878873 -0.13389623 -0.17208906
-0.13263685 0.10714577 0.055962678 0.028168438 -0.042757116 0.04651533 0.12400849 0.07855371
-0.0429407 -0.07687698 -0.08422494 -0.086071804 -0.12451494 -0.042227894 -0.08619763 -0.06613655
-0.12058969 -0.07602473 -0.12965737 -0.06595726 -0.14952703 -0.10835834 -0.14146377 -0.110806525
-0.13474806 -0.035756342 -0.12821025 -0.15817355 -0.10723192 -0.03058326 -0.088526405 -0.063824326
-0.031302564 -0.07693535 -0.08623522 -0.028433694 -0.11661666 -0.056628242 -0.047134366 -0.14306155
-0.117733225 -0.050297573 -0.07392589 0.122010775 0.09884333 0.14105752 0.0748421 0.051503096
0.063705996 0.21199271 -0.0561511 -0.093818605 -0.037173364 -0.14788227 -0.029839074 -0.03600495
-0.07201615 -0.15219754 -0.12214028 -0.07288003 -0.14831014 -0.14593223 -0.053309277 -0.14242606
-0.04937575 -0.052359298 -0.07190383 -0.11327865 -0.0823497 -0.09719212 -0.05070105 -0.05166746
-0.13440451 -0.037577193 -0.08116042 -0.106700785 -0.15766111 -0.017871683 -0.1156074 -0.105699986
-0.03517096 -0.05110711 -0.11541837 -0.08873543 -0.15474075 -0.11653017 -0.13804626 -0.041927762
-0.05397176 -0.119705185 -0.07757982 -0.08685874 -0.08712256 -0.11280537 -0.07866624 -0.1521206
-0.03077989 -0.10228937 -0.108767025 -0.0501244 -0.016656164 -0.065087624 -0.04743492 -0.11175034
-0.039874554 -0.0026241015 -0.15087481 -0.03225949 -0.14730798 -0.10935007 -0.036800817 -0.08358984
-0.12259082 -0.025354458 -0.2024815 -0.19358349 -0.06362015 -0.106918074 -0.039934617 -0.08082961
0.27060696 0.08873495 -0.017884051 0.031098573 0.22147213 0.26832077 0.23762883 -0.043737646
0.07138506 0.11175243 0.28564134 0.1953729 -0.014661005 0.050358336 -0.0070821047 0.0070892633
-0.073817514 -0.061256327 -0.024488036 0.013120637 0.13725728 -0.047836114 0.11619116 -0.18174711
-0.0258298 -0.060733285 -0.13130933 -0.0868366 0.050981063 0.16004512 0.19678955 0.22057112
00000000: 532f 32bd ea56 67bd cdf3 e9bd ed89 4cbd
00000010: 498d 50bd 61b1 82bd 8afc d3bd 9318 80bd
00000020: 0aef c0bd dccc 3bbd 5f9b 13be b240 e5bd
00000030: cfc0 0dbe ce7d c9bd 96a4 143e e1f1 283e
00000040: 7387 543e 7b3a 033e 66e2 d63d 0d98 413e
00000050: 65f7 883e 7f27 c5bd c7df ebbc fe78 a8bd
00000060: 48ba 193c e78c 09bd 550b 973c 324d 263d
00000070: c4ce dcbd e51e bbbd 049e 95bd 2aab dabc
00000080: a9a8 e9bd ea7d 1dbe f4d5 d3bd 10bc eebd
00000090: d01f e1bc 18e0 9cbd 82eb fdbd 8295 17be
000000a0: 6a6d 0dbe 6f80 17be c2c5 d8bd 0573 b4bd
000000b0: 5ff2 20bd b174 abbd 2264 a3bd 1992 bcbd
000000c0: d378 0ebe 8e29 d8bd 8cc1 b6bd d7c9 3bbd
000000d0: 6fa2 ebbc 60fb 10bd b819 e4bd ddf5 90bd
000000e0: 0161 1f3e d186 b33d 57da 013e 8179 223e
000000f0: 0f70 073e f826 213e 07dd d03d 22aa 47be
00000100: a005 a1bd a577 0dbd 59f6 f7bd dad3 1cbe
00000110: d360 2dbd ffd6 dabd f90e e7bd 7814 07be
00000120: d3ce 16be ac40 9cbd e293 01be 18cc e7bd
00000130: af90 34bd 10ba 0abe ae40 88bd 41de 91bd
00000140: 8251 b9bd a6a6 a6bd 3de3 4ebd 0d9d 53bd
00000150: e3b3 6fbd 1774 cabc 17a3 47bd 1a1d 2dbd
00000160: ca63 85bd 76a2 eabd 6689 c7bd f907 02be
00000170: 5e46 37be 13cf c1bd 8717 53be e774 23be
00000180: 296a 01be 6766 e0bd 449a 03be 3ba8 21be
00000190: ecd8 b3bd 4d0e 17bd 181c 09be 1d38 30be
000001a0: f4d1 07be 3e6f db3d 1f39 653d 7fc1 e63c
000001b0: 1622 2fbd dc86 3e3d 2af8 fd3d c4e0 a03d
000001c0: 96e2 2fbd ae71 9dbd 207e acbd 6a46 b0bd
000001d0: b001 ffbd 28f7 2cbd 6288 b0bd 9972 87bd
000001e0: baf7 f6bd dbb2 9bbd e7c4 04be 9a14 87bd
000001f0: 9d1d 19be faea ddbd e1db 10be 88ee e2bd
00000200: 65fb 09be 3e75 12bd 8c49 03be 3ff8 21be
00000210: 699c dbbd bf89 fabc 554d b5bd 54b6 82bd
00000220: 1e37 00bd 4890 9dbd 179c b0bd c7ed e8bc
00000230: b7d4 eebd 04f3 67bd f70f 41bd ba7e 12be
00000240: 1e1e f1bd d404 4ebd 7566 97bd c9e0 f93d
00000250: 5f6e ca3d 6271 103e d146 993d e9f4 523d
00000260: 4a78 823d 9e14 593e b2fe 65bd f823 c0bd
00000270: 1943 18bd 736e 17be 1371 f4bc ed79 13bd
00000280: 347d 93bd acd9 1bbe af24 fabd 2042 95bd
00000290: 9dde 17be 426f 15be d45a 5abd 23d8 11be
000002a0: 3a3e 4abd b476 56bd 5142 93bd a3fe e7bd
000002b0: f6a6 a8bd aa0c c7bd e7ab 4fbd 42a1 53bd
000002c0: 56a1 09be 8bea 19bd 6f37 a6bd f185 dabd
000002d0: ea71 21be a367 92bc 93c3 ecbd 3c79 d8bd
000002e0: 6d0f 10bd b055 51bd 7760 ecbd ecba b5bd
000002f0: 5c74 1ebe 5fa7 eebd 005c 0dbe 72bc 2bbd
00000300: 7e11 5dbd fe27 f5bd 2be2 9ebd ffe2 b1bd
00000310: 506d b2bd 8006 e7bd c41b a1bd 81c5 1bbe
00000320: 1c26 fcbc 177d d1bd 3fc1 debd 3e4f 4dbd
00000330: 8272 88bc a94c 85bd 1e4b 42bd 5ddd e4bd
00000340: 8053 23bd 1ef9 2bbb ed7e 1abe 8722 04bd
00000350: e7d7 16be eef2 dfbd 74bc 16bd 2631 abbd
00000360: e510 fbbd 27b4 cfbc 4f57 4fbe c03a 46be
00000370: 484b 82bd ddf7 dabd 7b92 23bd ff89 a5bd
00000380: ff8c 8a3e abba b53d 9381 92bc 6fc2 fe3c
00000390: 97c9 623e 5761 893e f954 733e 3f26 33bd
000003a0: 5532 923d 75de e43d 953f 923e d50f 483e
000003b0: b634 70bc 8b44 4e3d 0011 e8bb 0d4d e83b
000003c0: a32d 97bd eae7 7abd 229b c8bc f1f7 563c
000003d0: 2c8d 0c3e cdef 43bd a2f5 ed3d ea1b 3abe
000003e0: 0499 d3bc 77c3 78bd f475 06be 63d7 b1bd
000003f0: 85d1 503d dee2 233e 3383 493e 65dd 613e

nets.3.0.bias f4 [32]
-0.13758256 0.08963809 -0.10701551 -0.04522777 -0.05730487 -0.08058302 -0.06235284 -0.12680036
-0.059253562 -0.1001697 -0.028613914 -0.058716163 -0.02957535 -0.22164994 -0.1040603 -0.1644653
-0.16376214 -0.010086781 -0.019462343 -0.009519438 -0.20472915 0.12242285 -0.107653946 -0.14407985
0.064796336 -0.10160713 -0.15749718 -0.15910189 -0.10070479 -0.008446774 0.10856453 -0.1640966
00000000: 71e2 0cbe 2d94 b73d f32a dbbd c140 39bd
00000010: 83b8 6abd b608 a5bd b165 7fbd f4d7 01be
00000020: ddb3 72bd c625 cdbd ba67 eabc 5c80 70bd
00000030: 0148 f2bc 34f8 62be 911d d5bd 9769 28be
00000040: 43b1 27be 0743 25bc 7e6f 9fbc 6bf7 1bbc
00000050: 85a4 51be d5b8 fa3d ac79 dcbd ab89 13be
00000060: f1b3 843d 6617 d0bd f146 21be 9beb 22be
00000070: 503e cebd 5764 0abc 1557 de3d f008 28be

nets.3.2.weight f4 [2, 32, 1]
-0.012963863 0.2010228 0.1271297 0.091604725 0.07820922 0.07930354 -0.07507427 -0.0076084165
0.010655611 -0.08054488 0.13249555 0.089419864 -0.029792536 0.038775153 -0.026227463 0.037013676
-0.059872136 0.0031378502 0.12097799 -0.053307667 0.048282955 0.13270758 -0.038926188 0.099851646
0.16473213 -0.08769499 0.041639186 0.02700132 -0.0154999215 -0.069615245 0.16525547 -0.062517576
-0.049744666 0.018998295 0.065433525 -0.044885438 0.06570741 0.028348975 -0.15050791 0.1472377
-0.0735389 -0.06965646 -0.026817901 0.04422515 0.1160936 -0.066491514 -0.1572597 -0.081408344
-0.117459185 -0.09519583 -0.08312595 0.14612253 -0.067958266 0.16060838 -0.048328448 0.002635513
0.18258694 -0.15330502 0.019615632 0.01028406 0.015197942 0.021940667 -0.08944023 -0.10520305
00000000: 6266 54bc ecd8 4d3e 4a2e 023e 429b bb3d
00000010: 282c a03d e569 a23d 8ac0 99bd 0650 f9bb
00000020: df94 2e3c b7f4 a4bd eaac 073e c321 b73d
00000030: 7a0f f4bc b2d2 1e3d fada d6bc a79b 173d
00000040: 7c3c 75bd 64a4 4d3b 4fc3 f73d 2459 5abd
00000050: 59c4 453d 7fe4 073e 1171 1fbd 057f cc3d
00000060: 8aaf 283e 6e99 b3bd da8d 2a3d df31 dd3c
00000070: 62f3 7dbc 7092 8ebd bb38 293e 3709 80bd
00000080: 10c1 4bbd 50a2 9b3c 0302 863d cbd9 37bd
00000090: 9b91 863d 1c3c e83c bf1e 1abe 7bc5 163e
000000a0: 909b 96bd 0ca8 8ebd 37b1 dbbc 6e25 353d
000000b0: 7bc2 ed3d b42c 88bd b008 21be 6bb9 a6bd
000000c0: 718e f0bd 08f6 c2bd f03d aabd 25a1 153e
000000d0: b42d 8bbd 8676 243e 0df4 45bd 92b8 2c3b
000000e0: 12f8 3a3e fefb 1cbe f6b0 a03c 797e 283c
000000f0: ca00 793c eabc b33c 702c b7bd b274 d7bd

nets.3.2.bias f4 [2]
0.10117443 -0.094533816
00000000: 8a34 cf3d f29a c1bd
